RL_Project/checkpoints/2023-12-05/17-09-13/0.pt (torch, 185545 bytes, 8 tensors)

actor_critic.std f4 [12]
0.999 1.001 0.999 1.001 0.999 0.999 0.999 1.001
1.001 1.001 1.001 1.001
00000000: 77be 7f3f c520 803f 77be 7f3f c520 803f
00000010: 77be 7f3f 77be 7f3f 77be 7f3f c520 803f
00000020: c520 803f c520 803f c520 803f c520 803f

actor_critic.actor.model.0.linear.weight f4 [512, 37]
-0.1536413 0.015372382 -0.080853835 -0.058821343 -0.14408144 0.05449956 0.07724398 0.11853243
0.04275693 0.04931103 -0.078222826 0.13480386 0.16125312 0.12703262 0.13844463 -0.12647265
0.088551395 -0.13060154 0.12942374 -0.06304993 -0.12999575 0.0883931 -0.09233107 0.075110644
0.15403366 0.05070671 -0.06870088 0.05471048 0.14140432 0.113878906 0.12611753 0.06748565
-0.12489959 0.15894528 -0.056974597 0.07535209 -0.073095195 -0.13441218 -0.018616732 0.13587552
-0.013745677 0.0171109 -0.15917611 0.12771867 0.061799712 -0.015107432 0.006853983 0.14609201
0.15913945 -0.14163348 -0.052004077 0.09556666 -0.1220509 -0.09323768 0.036949486 -0.15161191
0.038140588 -0.020032026 -0.05963398 0.16221523 0.14592992 0.08495957 0.0632092 -0.03053997
-0.08101572 -0.15836823 -0.056770552 -0.12495665 -0.08830772 0.087940164 0.11342485 0.037150454
-0.15066355 -0.15722655 -0.11204806 0.08794957 -0.0059177806 -0.15893488 0.10809963 -0.107436016
0.043622367 -0.034784943 0.06274982 -0.008484196 0.10754408 0.135155 0.073605604 0.034774516
0.07215014 -0.022197679 -0.12223394 0.016902462 -0.0753916 -0.16497743 -0.16329232 -0.14880095
0.047443 0.11148567 -0.08981747 -0.06944285 -0.042485416 0.022211928 -0.06313896 -0.021483498
-0.1284129 -0.030125696 -0.13082953 -0.016159609 0.15849517 -0.13728262 0.15054327 -0.14444588
0.039137006 0.067069106 -0.14705104 0.06907433 0.06536797 -0.1445485 0.16178991 -0.10301897
-0.029614976 -0.00047133007 -0.012190625 -0.053515676 0.10458777 -0.06160164 -0.006721705 -0.035094157
-0.14974721 0.13121343 -0.009207662 0.026973523 0.10499567 0.11014663 -0.08871724 -0.05260022
0.1475308 -0.05461225 -0.0034587109 -0.13126813 -0.13236345 -0.08250414 -0.04890552 -0.056633517
-0.012183049 -0.088139825 -0.09184485 -0.114544734 -0.024624415 0.012487408 0.03944768 -0.12052529
0.117804885 0.0060720984 0.0021003012 0.12976074 -0.09230089 0.02111402 -0.077352665 -0.13243616
-0.064575486 0.120589145 -0.12470073 -0.11111486 -0.13369629 0.007655675 -0.066687904 -0.12138897
-0.14899151 -0.13384084 -0.068867184 0.11538864 0.04461743 0.15086292 -0.01670044 0.026911188
-0.061879974 -0.006373112 -0.016381165 0.14163937 -0.10621724 -0.05837071 -0.045833677 0.029371139
-0.018652571 -0.026233602 0.13524425 0.10785552 -0.121575765 -0.089046925 0.06772827 0.03950747
-0.018893896 -0.11790062 0.048042167 0.054311045 0.027479038 -0.00912812 -0.14176887 0.022056393
-0.050283484 -0.07930806 0.038250465 0.10240492 -0.1331993 0.06902153 -0.11259357 0.077229455
-0.08143176 0.13508405 -0.10306997 0.14754184 0.1342383 -0.1144086 -0.018393515 -0.0356223
-0.13927566 0.16130196 -0.049716827 -0.061979916 -0.10345385 0.042205572 -0.14696953 0.06764579
-0.14677633 0.13331263 0.15499255 0.1464004 -0.11600952 -0.130575 0.072243586 0.06900202
0.106401205 -0.10066203 0.02148973 0.052899938 -0.06290402 0.07655408 0.02117759 -0.09400749
-0.14984538 0.15266214 -0.05132943 0.0905645 0.084866546 0.12011114 -0.0076821796 -0.038825367
-0.15865408 0.103208445 0.11741311 0.08773284 0.14518023 0.07147413 -0.03867566 -0.102164894
00000000: 2554 1dbe 71dc 7b3c b296 a5bd a6ee 70bd
00000010: 168a 13be ee3a 5f3d 1732 9e3d 21c1 f23d
00000020: e421 2f3d 5dfa 493d 4a33 a0bd 060a 0a3e
00000030: 8a1f 253e d714 023e 6ec4 0d3e 0c82 01be
00000040: 6f5a b53d 69bc 05be a887 043e 5220 81bd
00000050: 9b1d 05be 7107 b53d 1218 bdbd 9cd3 993d
00000060: 00bb 1d3e d7b1 4f3d 0cb3 8cbd 1918 603d
00000070: 4bcc 103e 5839 e93d f424 013e eb35 8a3d
00000080: 5bcb ffbd 8dc2 223e 325e 69bd 3252 9a3d
00000090: efb2 95bd 59a3 09be 1e82 98bc f422 0b3e
000000a0: 8c35 61bc 282c 8c3c 10ff 22be afc8 023e
000000b0: b221 7d3d 2a85 77bc 6097 e03b 2599 153e
000000c0: 74f5 223e 5e08 11be 3a02 55bd 74b8 c33d
000000d0: d2f5 f9bd 66f3 bebd 5858 173d 2740 1bbe
000000e0: 4e39 1c3d 341a a4bc c342 74bd c01b 263e
000000f0: a76e 153e 48ff ad3d d373 813d f62e fabc
00000100: 92eb a5bd 482b 22be 3d88 68bd 46e9 ffbd
00000110: aeda b4bd f919 b43d 4a4b e83d 132b 183d
00000120: 8c47 1abe ffff 20be 7479 e5bd e71e b43d
00000130: f1e9 c1bb d3bf 22be 5763 dd3d 6a07 dcbd
00000140: 5ead 323d a87a 0ebd fa82 803d 4c01 0bbc
00000150: 1240 dc3d 1366 0a3e 89be 963d b96f 0e3d
00000160: 74c3 933d e8d7 b5bc ca55 fabd 0877 8a3c
00000170: e966 9abd d8ef 28be 1a36 27be 475f 18be
00000180: 9753 423d 9952 e43d 39f2 b7bd 0e38 8ebd
00000190: 3005 2ebd caf5 b53c 004f 81bd 29fe afbc
000001a0: ac7e 03be 2aca f6bc 2df8 05be 2861 84bc
000001b0: 8f4c 223e d193 0cbe 0428 1a3e 9fe9 13be
000001c0: 204e 203d 875b 893d 8c94 16be d876 8d3d
000001d0: a4df 853d 8604 14be 41ac 253e 9cfb d2bd
000001e0: 1b9b f2bc da1c f7b9 30bb 47bc 4133 5bbd
000001f0: 1d32 d63d 0052 7cbd c041 dcbb e4be 0fbd
00000200: 5557 19be d05c 063e bcdb 16bc 94f7 dc3c
00000210: f807 d73d 8e94 e13d 62b1 b5bd 5473 57bd
00000220: 5012 173e 18b1 5fbd 8aab 62bb 276b 06be
00000230: 498a 07be eef7 a8bd 2851 48bd 8cf8 67bd
00000240: 699b 47bc a782 b4bd 2719 bcbd 6e96 eabd
00000250: 24b9 c9bc fc97 4c3c e493 213d f7d5 f6bd
00000260: b043 f13d 74f8 c63b 35a5 093b 00e0 043e
00000270: 4008 bdbd 4ff7 ac3c 136b 9ebd 589d 07be
00000280: 2740 84bd 71f7 f63d 1963 ffbd 3090 e3bd
00000290: aee7 08be 75dc fa3b ab93 88bd c89a f8bd
000002a0: 3b91 18be 930d 09be 3d0a 8dbd e150 ec3d
000002b0: c4c0 363d cf7b 1a3e 5ccf 88bc da74 dc3c
000002c0: db75 7dbd 8ad5 d0bb cb31 86bc e909 113e
000002d0: 6d88 d9bd 2016 6fbd 18bc 3bbd be9b f03c
000002e0: 47cd 98bc dae7 d6bc 787d 0a3e 5be3 dc3d
000002f0: b7fc f8bd 3c5e b6bd 1fb5 8a3d 96d2 213d
00000300: 5fc7 9abc e175 f1bd ddc7 443d 4275 5e3d
00000310: b81b e13c 1c8e 15bc dc2b 11be 9caf b43c
00000320: 0ef6 4dbd 446c a2bd 85ac 1c3d acb9 d13d
00000330: 6665 08be 295b 8d3d 7597 e6bd 7a2a 9e3d
00000340: b2c5 a6bd 7953 0a3e 5916 d3bd 3515 173e
00000350: c475 093e 0e4f eabd ffad 96bc b0e8 11bd
00000360: 479e 0ebe 572c 253e dfa3 4bbd a7de 7dbd
00000370: 9ddf d3bd c0df 2c3d 2e7f 16be e089 8a3d
00000380: 894c 16be 1b83 083e 5eb6 1e3e fde9 153e
00000390: 6696 edbd 74b5 05be 72f4 933d ee50 8d3d
000003a0: e0e8 d93d e527 cebd 3b0b b03c 9bad 583d
000003b0: d3d3 80bd 63c8 9c3d a07c ad3c 0087 c0bd
000003c0: 1171 19be 7753 1c3e cf3e 52bd e179 b93d
000003d0: 83ce ad3d d4fc f53d cbba fbbb 5907 1fbd
000003e0: 3776 22be f35e d33d 4976 f03d 46ad b33d
000003f0: 20aa 143e 0761 923d 5e6a 1ebd d43b d1bd

actor_critic.actor.model.0.linear.bias f4 [512]
0.0009999531 -0.0009999956 0.0009999963 -0.0009999985 0.0009999991 0.0009999757 0.0009999993 -0.0009999987
0.0009999989 0.0009999942 -0.000999999 -0.0009999974 -0.0009999714 -0.0009999976 -0.000999998 0.0009999991
0.0009999984 0.0009999989 0.0009999922 0.0009999991 0.0009999844 0.0009999936 -0.000999976 0.0009999977
-0.0009999964 0.0009999991 -0.0009999764 0.0009999966 -0.000999987 -0.0009999953 -0.0009999984 -0.0009999969
0.0009999914 -0.0009999984 -0.0009999777 -0.0009999982 0.0009999983 -0.0009999956 -0.0009999959 -0.0009999974
-0.000999996 -0.0009999948 0.0009999918 0.0009999975 -0.0009999973 0.0009999992 0.0009999969 0.000999993
0.0009999991 0.0009999985 -0.0009999883 -0.000999999 0.0009999991 0.0009999935 -0.0009999983 0.0009992904
-0.0009999987 -0.000999991 0.0009999987 -0.0009999984 0.0009999936 -0.0009999981 0.0009999985 0.0009999995
0.0009999835 -0.0009999975 0.0009999992 0.0009999522 -0.0009999961 -0.0009999939 0.000999999 -0.0009999988
0.000999999 0.0009999932 -0.0009999981 0.0009999978 0.0009999995 -0.0009999983 -0.0009999647 -0.0009999981
-0.0009999949 0.0009999988 0.0009999989 -0.0009999954 -0.000999999 -0.000999998 -0.0009999977 0.0009999957
-0.0009999451 -0.0009999975 0.0009999987 -0.0009999953 -0.0009999928 0.000999894 -0.0009999991 -0.0009999953
-0.000999966 -0.0009999977 0.0009999969 -0.0009999953 -0.0009999985 0.0009999985 -0.0009999985 -0.0009999892
-0.000999998 0.0009999984 0.0009999946 0.0009999966 -0.0009999977 0.000999999 -0.0009999962 -0.0009999985
0.0009999985 0.0009999973 -0.00099999 -0.0009999988 -0.0009999976 0.0009999973 0.0009999987 0.0009999987
0.0009999933 0.0009999938 0.0009999954 -0.000999998 0.0009999987 -0.0009999995 -0.0009999956 -0.0009999932
0.0009999973 0.0009999984 -0.0009999936 -0.000999997 0.0009999983 0.0009999963 -0.0009999985 -0.0009999985
-0.0009999895 -0.0009999989 0.0009999974 -0.0009999992 0.0009999983 0.0009999945 -0.0009999987 0.0009999961
-0.0009999779 -0.0009999991 0.0009999975 -0.0009999988 0.0009999981 0.0009999982 -0.0009999989 -0.0009999971
0.000999984 0.000999998 -0.0009999919 0.0009999963 0.0009999989 0.0009999978 -0.0009999922 0.000999997
0.0009999975 -0.0009999983 0.0009999913 -0.0009999938 0.0009999991 -0.000999998 -0.0009999954 0.0009999959
0.0009999987 -0.0009999976 -0.0009999991 -0.0009999991 0.000999967 0.0009999983 0.0009999963 0.0009999966
0.0009999964 0.0009999969 0.0009999991 0.0009999973 0.0009999978 0.0009999963 -0.0009999935 0.000999996
-0.0009999991 0.0009999914 -0.0009999991 0.0009999622 0.0009999962 0.0009999924 -0.0009999841 -0.0009999977
0.0009999981 0.000999988 -0.000999997 0.0009999995 -0.0009999945 0.0009999959 0.000996306 -0.000999996
-0.0009999983 -0.0009999977 0.000999995 -0.0009999877 0.0009999962 -0.0009999991 -0.0009999977 -0.000999997
0.0009999991 -0.0009999991 -0.000999993 -0.0009999971 0.0009999985 0.0009999991 -0.0009999931 -0.0009999991
-0.0009999988 -0.0009999756 -0.0009999967 -0.0009999984 -0.0009999987 0.0009999983 -0.0009999971 0.0009999956
0.0009999961 -0.000999993 -0.0009999977 0.0009999959 0.0009999985 0.0009999988 -0.0009999983 0.0009999974
0.0009999989 0.0009999949 -0.0009999963 -0.000999997 0.0009999961 -0.0009999912 0.0009999991 -0.0009999964
-0.0009999985 -0.000999945 -0.0009999988 0.0009999981 -0.0009999987 0.0009999985 -0.0009999976 -0.0009999832
-0.000999988 0.0009999766 -0.000999979 0.0009999474 -0.0009999883 0.0009999985 -0.000999997 0.0009999961
00000000: dc10 833a 4912 83ba 4f12 833a 6212 83ba
00000010: 6712 833a 9e11 833a 6912 833a 6312 83ba
00000020: 6512 833a 3d12 833a 6612 83ba 5812 83ba
00000030: 7911 83ba 5a12 83ba 5d12 83ba 6712 833a
00000040: 6112 833a 6512 833a 2c12 833a 6712 833a
00000050: e911 833a 3812 833a a011 83ba 5b12 833a
00000060: 5012 83ba 6712 833a a411 83ba 5112 833a
00000070: ff11 83ba 4612 83ba 6112 83ba 5412 83ba
00000080: 2512 833a 6112 83ba af11 83ba 5f12 83ba
00000090: 6012 833a 4912 83ba 4b12 83ba 5812 83ba
000000a0: 4c12 83ba 4212 83ba 2812 833a 5912 833a
000000b0: 5712 83ba 6812 833a 5412 833a 3212 833a
000000c0: 6712 833a 6212 833a 0a12 83ba 6612 83ba
000000d0: 6712 833a 3712 833a 6012 83ba 9ffa 823a
000000e0: 6312 83ba 2112 83ba 6312 833a 6112 83ba
000000f0: 3812 833a 5e12 83ba 6212 833a 6a12 833a
00000100: e111 833a 5912 83ba 6812 833a d410 833a
00000110: 4d12 83ba 3a12 83ba 6612 833a 6412 83ba
00000120: 6612 833a 3412 833a 5e12 83ba 5c12 833a
00000130: 6a12 833a 6012 83ba 3f11 83ba 5e12 83ba
00000140: 4312 83ba 6412 833a 6512 833a 4712 83ba
00000150: 6612 83ba 5d12 83ba 5b12 83ba 4a12 833a
00000160: 9710 83ba 5912 83ba 6312 833a 4612 83ba
00000170: 3112 83ba e00e 833a 6712 83ba 4612 83ba
00000180: 4b11 83ba 5b12 83ba 5412 833a 4612 83ba
00000190: 6212 83ba 6212 833a 6212 83ba 1212 83ba
000001a0: 5d12 83ba 6112 833a 4012 833a 5112 833a
000001b0: 5b12 83ba 6612 833a 4e12 83ba 6212 83ba
000001c0: 6212 833a 5712 833a 1912 83ba 6412 83ba
000001d0: 5a12 83ba 5712 833a 6312 833a 6312 833a
000001e0: 3512 833a 3912 833a 4712 833a 5d12 83ba
000001f0: 6312 833a 6a12 83ba 4912 83ba 3412 83ba
00000200: 5712 833a 6112 833a 3812 83ba 5512 83ba
00000210: 6012 833a 4f12 833a 6212 83ba 6212 83ba
00000220: 1412 83ba 6512 83ba 5812 833a 6812 83ba
00000230: 6012 833a 3f12 833a 6312 83ba 4d12 833a
00000240: b111 83ba 6712 83ba 5912 833a 6412 83ba
00000250: 5e12 833a 5f12 833a 6512 83ba 5612 83ba
00000260: e511 833a 5d12 833a 2912 83ba 4f12 833a
00000270: 6512 833a 5c12 833a 2c12 83ba 5512 833a
00000280: 5912 833a 6012 83ba 2412 833a 3912 83ba
00000290: 6712 833a 5d12 83ba 4712 83ba 4b12 833a
000002a0: 6312 833a 5a12 83ba 6712 83ba 6712 83ba
000002b0: 5311 833a 6012 833a 4f12 833a 5112 833a
000002c0: 5012 833a 5412 833a 6712 833a 5712 833a
000002d0: 5c12 833a 4f12 833a 3712 83ba 4c12 833a
000002e0: 6712 83ba 2512 833a 6712 83ba 2a11 833a
000002f0: 4e12 833a 2d12 833a e611 83ba 5b12 83ba
00000300: 5e12 833a 0812 833a 5512 83ba 6a12 833a
00000310: 3f12 83ba 4b12 833a 7b96 823a 4c12 83ba
00000320: 6012 83ba 5b12 83ba 4412 833a 0512 83ba
00000330: 4e12 833a 6712 83ba 5b12 83ba 5512 83ba
00000340: 6712 833a 6712 83ba 3212 83ba 5612 83ba
00000350: 6212 833a 6712 833a 3312 83ba 6712 83ba
00000360: 6412 83ba 9d11 83ba 5212 83ba 6112 83ba
00000370: 6312 83ba 6012 833a 5612 83ba 4912 833a
00000380: 4d12 833a 3212 83ba 5b12 83ba 4b12 833a
00000390: 6212 833a 6412 833a 6012 83ba 5812 833a
000003a0: 6512 833a 4312 833a 4f12 83ba 5512 83ba
000003b0: 4d12 833a 2312 83ba 6712 833a 5012 83ba
000003c0: 6212 83ba 9610 83ba 6412 83ba 5e12 833a
000003d0: 6312 83ba 6212 833a 5a12 83ba de11 83ba
000003e0: 0812 83ba a611 833a ba11 83ba ab10 833a
000003f0: 0a12 83ba 6212 833a 5512 83ba 4d12 833a

actor_critic.actor.model.1.linear.weight f4 [12, 512]
-0.0042039403 -0.036738306 0.042390384 -0.030559473 0.03664712 0.026393924 0.043029908 0.039040457
0.023289593 0.028524358 0.017629744 -0.0013690849 -0.032958016 0.030214593 0.021072352 0.024269097
-0.02731397 0.007278601 0.0055888486 -0.011840229 -0.032698996 0.036890484 0.004685989 0.036025904
0.0032164026 0.040644027 0.023965903 0.026008809 0.039302163 -0.0338201 -0.015230561 0.02583805
0.017088074 0.033988636 -0.017271122 -0.03778292 -0.036344174 -0.035830636 0.018680276 -0.03369433
-0.022366544 -0.018639814 0.043352015 -0.025082583 -0.020870015 -0.030743005 0.020638566 0.018288221
-0.023960823 -0.022692481 0.03408825 -0.018101195 0.040090036 -0.040423088 0.037039183 0.03562243
-0.029257802 0.01956377 0.04511567 0.0077309045 -0.018293794 -0.0411722 0.015366249 0.011018995
0.035691053 -0.028296435 0.038640242 0.0333731 -0.025690082 0.03344255 0.017307011 -0.01621713
-0.012000101 0.009051038 -0.018342465 0.0026884128 0.030870382 0.015094316 0.023877189 0.0065220534
-0.030086856 0.014328177 0.00041760388 -0.021940194 -0.011345045 0.005420556 0.026032899 0.03450375
0.044828027 -0.011838984 -0.0016928202 0.016876712 -0.03585024 0.007927888 0.01600895 -0.027663235
-0.02311895 -0.02445021 -0.036087833 -0.0343862 0.02162261 0.033962965 -0.041126102 -0.015120337
0.043574203 0.040945698 0.027197948 0.0031406647 0.024944205 0.03358716 -0.012930734 0.005790695
0.025891691 0.036610678 0.04142353 -0.043562584 -0.041306708 -0.018530807 -0.0061408565 -0.012617214
-0.012085928 0.02546801 -0.026415909 -0.023708923 0.03611299 -0.03522645 0.0020556853 -0.0127813555
0.017784223 0.016679633 -0.018126197 -0.038224112 -0.03141674 -0.0024924194 0.021013472 0.0047699097
-0.0017681521 -0.03478204 0.0008929048 -0.03615165 0.029622093 0.01262313 -0.04185202 -0.002681891
0.01246792 -0.039293718 0.0054524033 -0.022457507 0.00033870008 0.036739096 0.007040986 -0.034675688
-0.018937292 0.01917076 0.025075924 -0.0381676 0.0060798656 0.038139343 -0.010279619 -0.01580028
0.030131815 -0.0028622672 -0.028146585 -0.012452199 -0.0036111237 0.036394384 -0.014043823 -0.033119373
-0.00650353 0.0024767201 -0.018390873 -0.027994609 -0.026050696 -0.0061862324 0.0066343215 -0.02775994
0.011740271 0.043607596 0.021606928 -0.021304 -0.011743826 -0.004928461 -0.023776203 0.013156236
-0.03203342 -0.028623555 -0.024727464 0.0096603185 0.028696116 0.009547097 -0.0013378015 -0.025923269
0.0032239258 0.03067372 -0.021666743 -0.009859283 0.018990124 -0.01497855 -0.014519292 0.03797357
-0.027733808 -0.014668217 0.003989455 0.03371358 -0.04119388 -0.035891514 -0.000104611274 0.016974904
0.02304385 -0.006811692 -0.027183944 -0.018712329 0.01152599 -0.012860729 0.015355537 -0.019944612
0.021706266 0.015091787 0.025603143 0.014608769 0.006079427 0.02837119 0.030831581 0.041974876
-0.0048305267 -0.007387945 -0.010729083 0.025208553 0.030842803 0.021815848 0.0022181491 0.04182192
0.019084485 0.03521541 0.036400884 -0.038437482 -0.0353951 -0.019460598 0.021356802 -0.019205635
0.039431285 -0.01784718 -0.004194831 0.041113134 -0.0016536603 -0.0044345884 0.035806473 0.040232886
-0.026892873 0.044929985 -0.009996581 -0.016472545 0.025005627 -0.016733117 0.043935135 0.008453827
00000000: 35c1 89bb e87a 16bd 8aa1 2d3d dc57 fabc
00000010: 4a1b 163d 1238 d83c 2140 303d e3e8 1f3d
00000020: d1c9 be3c eaab e93c 416c 903c de72 b3ba
00000030: fcfe 06bd 9884 f73c ed9f ac3c fccf c63c
00000040: 8cc1 dfbc 5581 ee3b a922 b73b 85fd 41bc
00000050: 62ef 05bd 7a1a 173d ed8c 993b e68f 133d
00000060: 48ca 523b 5a7a 263d 2454 c43c 6d10 d53c
00000070: 4efb 203d f286 0abd 9a89 79bc 51aa d33c
00000080: 4afc 8b3c ab37 0b3d 2b7c 8dbc 43c2 1abd
00000090: a1dd 14bd 25c3 12bd 6107 993c 1103 0abd
000000a0: 0b3a b7bc 86b2 98bc e291 313d fd79 cdbc
000000b0: 98f7 aabc c1d8 fbbc 3612 a93c 2ed1 953c
000000c0: 7d49 c4bc 95e5 b9bc 1fa0 0b3d f548 94bc
000000d0: 7335 243d ae92 25bd 66b6 173d d3e8 113d
000000e0: 0fae efbc 3344 a03c 35cb 383d 8753 fd3b
000000f0: dedc 95bc 2ea4 28bd b8c2 7b3c 0489 343c
00000100: c830 123d edcd e7bc 3b45 1e3d 3bb2 083d
00000110: 0274 d2bc 0efb 083d 6fc7 8d3c c9d9 84bc
00000120: 129c 44bc ce4a 143c f042 96bc 1530 303b
00000130: e2e3 fc3c 264e 773c 189a c33c f3b6 d53b
00000140: b678 f6bc bbc0 6a3c d8f1 da39 ecbb b3bc
00000150: 91e0 39bc eb9e b13b f242 d53c ce53 0d3d
00000160: 989d 373d 4cf8 41bc 9fe1 ddba 0841 8a3c
00000170: b4d7 12bd f9e3 013c 3425 833c 029e e2bc
00000180: f463 bdbc cf4b c8bc d6d0 13bd 8bd8 0cbd
00000190: e621 b13c c01c 0b3d d873 28bd 4abb 77bc
000001a0: dd7a 323d adb6 273d 3bce de3c 9cd3 4d3b
000001b0: ca57 cc3c b192 093d 6edb 53bc dfbf bd3b
000001c0: d01a d43c 14f5 153d b8ab 293d ae6e 32bd
000001d0: 3931 29bd ebcd 97bc 3d39 c9bb 6eb8 4ebc
000001e0: 0e04 46bc 4aa2 d03c 2d66 d8bc 3739 c2bc
000001f0: 37eb 133d 9c49 10bd adb8 063b e468 51bc
00000200: 38b0 913c baa3 883c 647d 94bc e390 1cbd
00000210: d7ae 00bd dc57 23bb 7224 ac3c e74c 9c3b
00000220: 57c1 e7ba 9d77 0ebd d411 6a3a c113 14bd
00000230: 08aa f23c 3fd1 4e3c 066d 2bbd aac2 2fbb
00000240: 3f46 4c3c 73f2 20bd 13aa b23b cef8 b7bc
00000250: 8e93 b139 bc7b 163d 12b8 e63b 1808 0ebd
00000260: 6122 9bbc ff0b 9d3c 066c cd3c a155 1cbd
00000270: 9c39 c73b 0038 1c3d d96b 28bc 976f 81bc
00000280: ffd6 f63c e094 3bbb ab93 e6bc 4f04 4cbc
00000290: 9aa8 6cbb 4712 153d 1018 66bc 2ea8 07bd
000002a0: 901b d5bb 7850 223b 75a8 96bc f354 e5bc
000002b0: 4568 d5bc e1b5 cabb b964 d93b d068 e3bc
000002c0: 445a 403c e19d 323d 0301 b13c ba85 aebc
000002d0: 2d69 40bc ed7e a1bb 50c6 c2bc 418d 573c
000002e0: 7a35 03bd f27b eabc 4091 cabc 5046 1e3c
000002f0: 1e14 eb3c 6d6b 1c3c 2b59 afba 095d d4bc
00000300: 8048 533b 7447 fb3c 747e b1bc d588 21bc
00000310: 2d91 9b3c 9868 75bc 53e2 6dbc 2d8a 1b3d
00000320: 0332 e3bc f652 70bc f9b9 823b 4017 0a3d
00000330: eaba 28bd fb02 13bd c062 dbb8 f40e 8b3c
00000340: 75c6 bc3c 9d34 dfbb ddb0 debc 994a 99bc
00000350: 82d7 3c3c cfb5 52bc ca95 7b3c e262 a3bc
00000360: 57d1 b13c 8b43 773c afbd d13c 9e59 6f3c
00000370: ee35 c73b b36a e83c 8392 fc3c d9ed 2b3d
00000380: 6549 9ebb 9316 f2bb 09c9 2fbc 2b82 ce3c
00000390: 0caa fc3c 26b7 b23c 5e5e 113b 764d 2b3d
000003a0: 1157 9c3c 093e 103d 1819 153d 9f70 1dbd
000003b0: 74fa 10bd d56b 9fbc 76f4 ae3c 2355 9dbc
000003c0: b382 213d 4034 92bc cb74 89bb 3f66 283d
000003d0: a2bf d8ba 0650 91bb cfa9 123d 3dcb 243d
000003e0: 714e dcbc 8108 383d b3c8 23bc 6ef1 86bc
000003f0: 9ad8 cc3c e413 89bc 54f5 333d ec81 0a3c

actor_critic.actor.model.1.linear.bias f4 [12]
0.0009999998 0.0009999998 0.0009999999 -0.0009999998 0.0009999998 0.0009999999 0.0009999998 -0.0009999998
-0.0009999996 -0.0009999766 -0.0009999985 0.0009999997
00000000: 6d12 833a 6d12 833a 6e12 833a 6d12 83ba
00000010: 6d12 833a 6e12 833a 6d12 833a 6d12 83ba
00000020: 6b12 83ba a611 83ba 6212 83ba 6c12 833a

actor_critic.critic.model.0.linear.weight f4 [512, 37]
0.14967531 0.06827482 0.14114347 0.02821298 -0.11500665 0.11945537 -0.021021849 -0.04127346
-0.006892106 -0.15425439 -0.07093181 -0.08260334 0.027112186 0.13844548 0.11044128 0.07193753
-0.101110116 0.11281809 -0.008095887 -0.00830821 -0.026325606 -0.12667693 0.009516929 0.094210446
-0.054650705 0.011154705 -0.011963393 -0.099622816 0.086334296 0.11674414 0.12700889 0.047092054
0.027336739 -0.08464958 0.030261546 0.13360704 0.012915889 0.07719609 0.1220152 -0.14262097
0.094915874 -0.017055923 0.058380418 -0.09219473 -0.081597716 -0.1574786 -0.07725575 -0.0027627728
0.15133753 0.11527692 0.019189075 -0.022915691 -0.041157342 0.16106553 -0.13371468 0.060163237
0.12666817 0.16212341 -0.14769933 -0.06855709 -0.15435632 0.08698185 0.103951305 0.067642555
0.018474398 -0.09587337 -0.10512939 -0.0116608795 0.11201542 -0.1492791 0.10187557 0.12686414
0.1587491 0.054426838 -0.023265552 0.1259106 0.019307543 -0.09703445 -0.08134173 -0.07746166
-0.16186424 -0.10292404 0.14755635 -0.12222069 0.053365123 -0.021167323 -0.019950824 -0.030244026
-0.08751344 -0.032220807 -0.030326514 0.07687749 -0.16380028 -0.062635295 0.0016960794 0.14249729
-0.0111265825 -0.057265416 0.13871725 0.06697285 -0.07543695 -0.087978244 -0.05181987 -0.1412166
0.07266757 0.07989639 -0.011290343 -0.058528833 0.11466837 0.15650691 -0.079210795 0.09946982
-0.071452715 -0.06138203 -0.11461379 -0.022821974 0.0145925665 0.1614467 -0.03880554 -0.11908895
-0.11621993 0.0017035463 -0.0080018565 0.0609955 -0.086572796 -0.04939692 -0.089251146 0.028585143
-0.1359796 0.028497875 0.084085 -0.014648734 -0.11966986 -0.069042765 -0.07363494 -3.607971e-05
-0.07805636 0.13747792 -0.08404347 0.11102457 0.09688415 -0.016465986 -0.12450698 0.048316296
-0.011586114 -0.12742476 -0.15195678 -0.04220718 -0.049232103 0.015748901 -0.11147515 0.079515286
0.08370332 0.110860206 0.15106884 0.07754123 0.06095007 0.111385584 -0.07472943 0.086451665
0.019629302 0.015020486 -0.095834404 0.101478145 0.03468236 0.0022795869 0.033930153 0.053089987
-0.062212214 -0.042608958 -0.15575989 0.014834189 -0.14486848 0.04643149 -0.0037593644 0.011881493
-0.09844228 0.02832949 -0.14012675 -0.15608944 0.12667315 0.098227404 0.10117334 0.089891665
-0.027581634 -0.080722965 -0.14240496 -0.03595001 0.15022859 -0.087367885 0.016549494 0.058546547
0.16435361 -0.087886386 -0.15667063 0.04655227 0.016674684 0.008542346 0.12874034 -0.11805465
0.026618633 -0.036863018 -0.1280286 -0.16331711 -0.10843395 -0.04018078 0.06345766 0.11522175
-0.14003214 -0.13601787 -0.035067577 0.03918094 -0.1381416 0.041911785 -0.06889936 0.13734184
0.097360514 0.15133753 -0.15530248 -0.13447443 0.03177221 -0.1529443 -0.12245655 0.13581102
-0.026027286 -0.051545106 -0.105150595 0.12707561 0.0119517315 -0.13901174 0.11889371 -0.105770715
-0.09995667 -0.0025241293 0.071642384 -0.086757824 -0.12122678 0.036043197 -0.13675734 0.13463117
-0.10863684 0.10462439 0.077801645 -0.08458255 0.030637924 -0.11916316 -0.035903953 0.13916108
0.0007824456 -0.14162949 0.06597497 0.10383728 -0.09471345 0.07427201 -0.12944292 -0.12160712
00000000: 7c44 193e abd3 8b3d ea87 103e e81e e73c
00000010: 9b88 ebbd 04a5 f43d 0336 acbc 5c0e 29bd
00000020: 2dd7 e1bb ddf4 1dbe b244 91bd f12b a9bd
00000030: 601a de3c a7c4 0d3e 0a2f e23d fc53 933d
00000040: d212 cfbd 2c0d e73d 9ca4 04bc 291f 08bc
00000050: cca8 d7bc 99b7 01be e5ec 1b3c 68f1 c03d
00000060: 6bd9 5fbd 39c2 363c 1b02 44bc 0c07 ccbd
00000070: 09d0 b03d 8d17 ef3d 9e0e 023e 99e3 403d
00000080: 4cf1 df3c c25c adbd 10e7 f73c 49d0 083e
00000090: 2a9d 533c fc18 9e3d 1be3 f93d 3b0b 12be
000000a0: 4163 c23d ddb8 8bbc 4e20 6f3d 97d0 bcbd
000000b0: b41c a7bd 1242 21be 4338 9ebd a30f 35bb
000000c0: 3af8 1a3e 4e16 ec3d 6832 9d3c b0b9 bbbc
000000d0: 9a94 28bd 5dee 243e 80ec 08be ba6d 763d
000000e0: 4db5 013e ae03 263e 7e3e 17be a967 8cbd
000000f0: 950f 1ebe 8a23 b23d 6ce4 d43d 2e88 8a3d
00000100: 9f57 973c 4259 c4bd 144e d7bd 460d 3fbc
00000110: 5768 e53d 9fdc 18be 24a4 d03d ace8 013e
00000120: 208f 223e adee 5e3d 6697 bebc b5ee 003e
00000130: da2a 9e3c ffb9 c6bd 7e96 a6bd 38a4 9ebd
00000140: bdbf 25be d7c9 d2bd 0319 173e d74e fabd
00000150: 6395 5a3d 1867 adbc e96f a3bc 52c2 f7bc
00000160: 3f3a b3bd f7f9 03bd 4f6f f8bc f271 9d3d
00000170: 43bb 27be ef46 80bd fb4e de3a cfea 113e
00000180: 454c 36bc 248f 6abd e50b 0e3e 1029 893d
00000190: b07e 9abd f02d b4bd 1241 54bd 169b 10be
000001a0: bcd2 943d b8a0 a33d 21fb 38bc eebb 6fbd
000001b0: 40d7 ea3d 5943 203e 4539 a2bd d5b6 cb3d
000001c0: cd55 92bd b96b 7bbd a2ba eabd 26f5 babc
000001d0: a915 6f3c 4952 253e 8ff2 1ebd e8e4 f3bd
000001e0: b704 eebd 8749 df3a 381a 03bc 6bd6 793d
000001f0: 144d b1bd 6d54 4abd 4ec9 b6bd 642b ea3c
00000200: 3c3e 0bbe 6074 e93c c234 ac3d 3e01 70bc
00000210: 7915 f5bd 4b66 8dbd eacd 96bd 4b54 17b8
00000220: 03dc 9fbd 03c7 0c3e fc1e acbd da60 e33d
00000230: 326b c63d ade3 86bc 84fd febd 4fe7 453d
00000240: afd3 3dbc a37b 02be 8f9a 1bbe 70e1 2cbd
00000250: 9aa7 49bd d703 813c 154d e4bd e9d8 a23d
00000260: a56c ab3d ad0a e33d cab1 1a3e f0cd 9e3d
00000270: c8a6 793d 201e e43d be0b 99bd 920d b13d
00000280: a1cd a03c 7c18 763c d444 c4bd c6d3 cf3d
00000290: 170f 0e3d 1f65 153b 58fa 0a3d e374 593d
000002a0: 3cd2 7ebd bb86 2ebd 857f 1fbe 190b 733c
000002b0: 6758 14be f22e 3e3d ab5f 76bb 98aa 423c
000002c0: 1b9c c9bd 3f13 e83c 637d 0fbe e9d5 1fbe
000002d0: 9bb6 013e 732b c93d f833 cf3d 1f19 b83d
000002e0: e1f2 e1bc 1552 a5bd 9bd2 11be 5140 13bd
000002f0: 86d5 193e efed b2bd ce92 873c 81ce 6f3d
00000300: 504c 283e c7fd b3bd 446e 20be 98ad 3e3d
00000310: 5999 883c 32f5 0b3c 82d4 033e a3c6 f1bd
00000320: 520f da3c adfd 16bd ee19 03be 9a3c 27be
00000330: 9e12 debd 9a94 24bd 17f6 813d 62f9 eb3d
00000340: 9664 0fbe 4548 0bbe 05a3 0fbd 317c 203d
00000350: fe74 0dbe b1ab 2b3d 1c1b 8dbd 57a3 0c3e
00000360: f364 c73d 3af8 1a3e 9d07 1fbe aab3 09be
00000370: 9423 023d 6e9d 1cbe 80ca fabd 0b12 0b3e
00000380: 2d37 d5bc f620 53bd 3259 d7bd 1c20 023e
00000390: 32d1 433c 1859 0ebe 8c7e f33d 519e d8bd
000003a0: 15b6 ccbd dd6b 25bb 3eb9 923d 16ae b1bd
000003b0: bf45 f8bd 08a2 133d 1e0a 0cbe c1dc 093e
000003c0: fe7c debd 5045 d63d 7856 9f3d 9e39 adbd
000003d0: 62fc fa3c d10b f4bd 0610 13bd 3e80 0e3e
000003e0: 091d 4d3a 5207 11be e31d 873d a4a8 d43d
000003f0: 20f9 c1bd ec1b 983d af8c 04be 270d f9bd

actor_critic.critic.model.0.linear.bias f4 [512]
0.0 0.0 0.0 0.0 0.0 0.0 0.0 0.0
0.0 0.0 0.0 0.0 0.0 0.0 0.0 0.0
0.0 0.0 0.0 0.0 0.0 0.0 0.0 0.0
0.0 0.0 0.0 0.0 0.0 0.0 0.0 0.0
0.0 0.0 0.0 0.0 0.0 0.0 0.0 0.0
0.0 0.0 0.0 0.0 0.0 0.0 0.0 0.0
0.0 0.0 0.0 0.0 0.0 0.0 0.0 0.0
0.0 0.0 0.0 0.0 0.0 0.0 0.0 0.0
0.0 0.0 0.0 0.0 0.0 0.0 0.0 0.0
0.0 0.0 0.0 0.0 0.0 0.0 0.0 0.0
0.0 0.0 0.0 0.0 0.0 0.0 0.0 0.0
0.0 0.0 0.0 0.0 0.0 0.0 0.0 0.0
0.0 0.0 0.0 0.0 0.0 0.0 0.0 0.0
0.0 0.0 0.0 0.0 0.0 0.0 0.0 0.0
0.0 0.0 0.0 0.0 0.0 0.0 0.0 0.0
0.0 0.0 0.0 0.0 0.0 0.0 0.0 0.0
0.0 0.0 0.0 0.0 0.0 0.0 0.0 0.0
0.0 0.0 0.0 0.0 0.0 0.0 0.0 0.0
0.0 0.0 0.0 0.0 0.0 0.0 0.0 0.0
0.0 0.0 0.0 0.0 0.0 0.0 0.0 0.0
0.0 0.0 0.0 0.0 0.0 0.0 0.0 0.0
0.0 0.0 0.0 0.0 0.0 0.0 0.0 0.0
0.0 0.0 0.0 0.0 0.0 0.0 0.0 0.0
0.0 0.0 0.0 0.0 0.0 0.0 0.0 0.0
0.0 0.0 0.0 0.0 0.0 0.0 0.0 0.0
0.0 0.0 0.0 0.0 0.0 0.0 0.0 0.0
0.0 0.0 0.0 0.0 0.0 0.0 0.0 0.0
0.0 0.0 0.0 0.0 0.0 0.0 0.0 0.0
0.0 0.0 0.0 0.0 0.0 0.0 0.0 0.0
0.0 0.0 0.0 0.0 0.0 0.0 0.0 0.0
0.0 0.0 0.0 0.0 0.0 0.0 0.0 0.0
0.0 0.0 0.0 0.0 0.0 0.0 0.0 0.0
00000000: 0000 0000 0000 0000 0000 0000 0000 0000
00000010: 0000 0000 0000 0000 0000 0000 0000 0000
00000020: 0000 0000 0000 0000 0000 0000 0000 0000
00000030: 0000 0000 0000 0000 0000 0000 0000 0000
00000040: 0000 0000 0000 0000 0000 0000 0000 0000
00000050: 0000 0000 0000 0000 0000 0000 0000 0000
00000060: 0000 0000 0000 0000 0000 0000 0000 0000
00000070: 0000 0000 0000 0000 0000 0000 0000 0000
00000080: 0000 0000 0000 0000 0000 0000 0000 0000
00000090: 0000 0000 0000 0000 0000 0000 0000 0000
000000a0: 0000 0000 0000 0000 0000 0000 0000 0000
000000b0: 0000 0000 0000 0000 0000 0000 0000 0000
000000c0: 0000 0000 0000 0000 0000 0000 0000 0000
000000d0: 0000 0000 0000 0000 0000 0000 0000 0000
000000e0: 0000 0000 0000 0000 0000 0000 0000 0000
000000f0: 0000 0000 0000 0000 0000 0000 0000 0000
00000100: 0000 0000 0000 0000 0000 0000 0000 0000
00000110: 0000 0000 0000 0000 0000 0000 0000 0000
00000120: 0000 0000 0000 0000 0000 0000 0000 0000
00000130: 0000 0000 0000 0000 0000 0000 0000 0000
00000140: 0000 0000 0000 0000 0000 0000 0000 0000
00000150: 0000 0000 0000 0000 0000 0000 0000 0000
00000160: 0000 0000 0000 0000 0000 0000 0000 0000
00000170: 0000 0000 0000 0000 0000 0000 0000 0000
00000180: 0000 0000 0000 0000 0000 0000 0000 0000
00000190: 0000 0000 0000 0000 0000 0000 0000 0000
000001a0: 0000 0000 0000 0000 0000 0000 0000 0000
000001b0: 0000 0000 0000 0000 0000 0000 0000 0000
000001c0: 0000 0000 0000 0000 0000 0000 0000 0000
000001d0: 0000 0000 0000 0000 0000 0000 0000 0000
000001e0: 0000 0000 0000 0000 0000 0000 0000 0000
000001f0: 0000 0000 0000 0000 0000 0000 0000 0000
00000200: 0000 0000 0000 0000 0000 0000 0000 0000
00000210: 0000 0000 0000 0000 0000 0000 0000 0000
00000220: 0000 0000 0000 0000 0000 0000 0000 0000
00000230: 0000 0000 0000 0000 0000 0000 0000 0000
00000240: 0000 0000 0000 0000 0000 0000 0000 0000
00000250: 0000 0000 0000 0000 0000 0000 0000 0000
00000260: 0000 0000 0000 0000 0000 0000 0000 0000
00000270: 0000 0000 0000 0000 0000 0000 0000 0000
00000280: 0000 0000 0000 0000 0000 0000 0000 0000
00000290: 0000 0000 0000 0000 0000 0000 0000 0000
000002a0: 0000 0000 0000 0000 0000 0000 0000 0000
000002b0: 0000 0000 0000 0000 0000 0000 0000 0000
000002c0: 0000 0000 0000 0000 0000 0000 0000 0000
000002d0: 0000 0000 0000 0000 0000 0000 0000 0000
000002e0: 0000 0000 0000 0000 0000 0000 0000 0000
000002f0: 0000 0000 0000 0000 0000 0000 0000 0000
00000300: 0000 0000 0000 0000 0000 0000 0000 0000
00000310: 0000 0000 0000 0000 0000 0000 0000 0000
00000320: 0000 0000 0000 0000 0000 0000 0000 0000
00000330: 0000 0000 0000 0000 0000 0000 0000 0000
00000340: 0000 0000 0000 0000 0000 0000 0000 0000
00000350: 0000 0000 0000 0000 0000 0000 0000 0000
00000360: 0000 0000 0000 0000 0000 0000 0000 0000
00000370: 0000 0000 0000 0000 0000 0000 0000 0000
00000380: 0000 0000 0000 0000 0000 0000 0000 0000
00000390: 0000 0000 0000 0000 0000 0000 0000 0000
000003a0: 0000 0000 0000 0000 0000 0000 0000 0000
000003b0: 0000 0000 0000 0000 0000 0000 0000 0000
000003c0: 0000 0000 0000 0000 0000 0000 0000 0000
000003d0: 0000 0000 0000 0000 0000 0000 0000 0000
000003e0: 0000 0000 0000 0000 0000 0000 0000 0000
000003f0: 0000 0000 0000 0000 0000 0000 0000 0000

actor_critic.critic.model.1.linear.weight f4 [1, 512]
0.0020190026 0.010458661 0.016876794 0.039439928 -0.017097617 0.014466647 -0.030337337 0.027322732
-0.03554611 0.011335763 -0.028928379 0.038462076 -0.032713782 -0.022338573 0.037169844 0.0130848475
0.03444999 0.0066181086 0.0041564642 -0.02285957 -0.02498236 0.041819304 0.01814436 0.008790373
-0.01835174 0.014652678 -0.00677038 0.042487524 -0.0019262532 -0.011831505 0.0019150316 0.010916613
0.02849678 -0.042847127 0.008030123 0.021481227 -0.0014162131 0.027501171 0.02479419 0.007896333
0.016596975 0.031081993 0.03293042 -0.028477177 -0.027103411 -0.0020581412 0.033223413 0.038389068
-0.032690335 -0.0004422574 0.03520228 -0.032091897 0.028301723 -0.016768835 0.021362135 -0.039846253
0.026061673 -0.042461753 -0.0024079548 0.014210447 0.041047357 0.016871141 -0.019930797 -0.037318986
0.004027063 -0.034689117 0.016156493 0.007176697 0.022095744 -0.024834678 0.020291716 0.020017223
0.042050812 -0.011747591 0.028758528 -0.03980515 -0.01869542 -0.025386237 0.022901554 -0.021895245
-0.039022297 0.0014352845 -0.03865711 0.039679777 -0.003666876 -0.031036992 -0.026278792 -0.03073464
-0.013894683 -0.0390115 -0.021665387 0.032511957 -0.032795653 -0.025218334 -0.030670999 -0.021366091
0.023378946 -0.043949943 -0.032834824 -0.028028749 -0.004874536 0.0097368965 -0.040676203 -0.011293806
-0.001919457 -0.0071279802 0.03208167 0.036929257 -0.020898893 0.0152593665 -0.0014154913 0.011703811
-0.017158166 -0.017896436 0.013452168 0.030114839 -0.036355864 0.01339547 -0.018287506 -2.076259e-05
-0.03729091 -0.039933305 -0.0004253776 -0.004809456 -0.03428167 -0.011025168 -0.024639895 0.041801292
-0.043675072 -0.024418272 0.027091525 0.031030742 -0.028378157 -0.031467237 0.038067475 -0.0048778076
-0.0022562735 -0.040304456 -0.042251892 0.0107916845 -0.043514777 -0.011314174 0.02160135 0.026291905
0.040508173 0.03659437 -0.0068416344 0.022443749 -0.039978188 0.03134595 -0.038010247 0.036553312
0.018590558 -0.03916004 0.008864604 0.028456423 -0.02358494 -0.011870449 0.0011065602 -0.040265772
0.04340449 0.006377229 0.019419719 0.023767883 -0.02693705 0.007018335 0.01780659 -0.014893685
0.0028161681 0.015097833 0.034938056 0.017786982 -0.02605721 -0.035638258 0.042784944 0.0137247
0.0019740688 0.001049151 0.0010521117 -0.015064542 -0.038217243 -0.031251106 0.011848406 -0.015009847
0.026866587 -0.0061693448 -0.021322865 0.043882634 0.018289583 -0.016255064 -0.014337915 -0.04279197
0.0030340566 0.027740339 -0.015229464 -0.036304135 0.03471835 0.013455234 -0.004960605 -0.04291888
0.041500356 -0.034383547 -0.025145926 0.02080508 0.0147676915 0.037358683 -0.032243952 -0.0013815052
0.04046401 -0.0025214825 -0.021090947 -0.026680224 -0.041451395 -0.0123238275 -0.020285904 0.0033729228
-0.026799768 -0.04070482 0.042579364 0.0054899165 0.04168698 -0.0021169519 -0.006126445 0.0049157552
0.028940918 0.016454682 0.00059004006 -0.042945474 0.015829962 -0.003901971 0.022846805 -0.0073660044
-0.024816206 -0.014055884 0.040026825 -0.008851697 0.019066092 -0.005524214 0.015803678 -0.020050751
0.0076885545 0.013334404 0.026396671 -0.017589122 0.036404997 0.004273485 0.0055489326 0.017038027
-0.0070756446 -0.0431202 -0.024228057 -0.01983938 -0.01865285 -0.007402293 0.025158724 -0.0014279721
00000000: 3e51 043b ce5a 2b3c 3441 8a3c c38b 213d
00000010: 4d10 8cbc 8405 6d3c 0286 f8bc ecd3 df3c
00000020: cc98 11bd a3b9 393c 35fb ecbc 698a 1d3d
00000030: e3fe 05bd 62ff b6bc 683f 183d d461 563c
00000040: 6f1b 0d3d b8dc d83b f332 883b fe43 bbbc
00000050: cea7 ccbc b84a 2b3d 7ba3 943c 7f05 103c
00000060: 6356 96bc c911 703c 10da ddbb 6607 2e3d
00000070: 557a fcba eed8 41bc cc01 fb3a 98db 323c
00000080: 1472 e93c 7880 2fbd c790 033c 66f9 af3c
00000090: 3aa0 b9ba 234a e13c 2f1d cb3c 9f5f 013c
000000a0: 61f6 873c aa9f fe3c 0ce2 063d f848 e9bc
000000b0: f907 debc e1e1 06bb 4615 083d db3d 1d3d
000000c0: 4de6 05bd c9de e7b9 4430 103d cb72 03bd
000000d0: 04d9 e73c cc5e 89bc a5ff ae3c d335 23bd
000000e0: 4a7f d53c 60ec 2dbd c7ce 1dbb efd2 683c
000000f0: 4621 283d 5935 8a3c e945 a3bc cbdb 18bd
00000100: 74f5 833b 2d16 0ebd 9f5a 843c 7f2a eb3b
00000110: 2202 b53c 1872 cbbc d03a a63c 29fb a33c
00000120: 793d 2c3d f878 40bc 0197 eb3c ba0a 23bd
00000130: 2327 99bc ccf6 cfbc 0a9c bb3c a85d b3bc
00000140: d8d5 1fbd 2820 bc3a eb56 1ebd 4387 223d
00000150: f84f 70bb 4a41 febc 9f46 d7bc 36c7 fbbc
00000160: 86a6 63bc 86ca 1fbd 9c7b b1bc 422b 053d
00000170: bc54 06bd ae96 cebc bf41 fbbc f107 afbc
00000180: 3485 bf3c db04 34bd cf7d 06bd 8c9c e5bc
00000190: 92ba 9fbb 8187 1f3c 179c 26bd a809 39bc
000001a0: 4a96 fbba d591 e9bb 1268 033d 2243 173d
000001b0: 2834 abbc 6c02 7a3c 0288 b9ba 57c1 3f3c
000001c0: 488f 8cbc 8c9b 92bc 7b66 5c3c 65b3 f63c
000001d0: e3e9 14bd ac78 5b3c aecf 95bc 532b aeb7
000001e0: 5abe 18bd 1b91 23bd 3705 dfb9 a498 9dbb
000001f0: f06a 0cbd e8a2 34bc 9bd9 c9bc d537 2b3d
00000200: a2e4 32bd d408 c8bc 0cef dd3c 2f34 fe3c
00000210: 4f79 e8bc cae3 00bd a4ec 1b3d 04d6 9fbb
00000220: fddd 13bb 4916 25bd 5210 2dbd 9bcf 303c
00000230: 8d3c 32bd 165f 39bc 50f5 b03c 1f62 d73c
00000240: e6eb 253d fae3 153d ca2f e0bb f4db b73c
00000250: 2bc0 23bd 9c64 003d a2b0 1bbd edb8 153d
00000260: 3a4b 983c 4766 20bd d83c 113c 721d e93c
00000270: 3435 c1bc 467c 42bc 000a 913a b9ed 24bd
00000280: e8c8 313d 13f8 d03b 1a16 9f3c ddb4 c23c
00000290: 17ab dcbc 10fa e53b 20df 913c a404 74bc
000002a0: 768f 383b e75c 773c 351b 0f3d 01b6 913c
000002b0: ee75 d5bc 6cf9 11bd 443f 2f3d 90dd 603c
000002c0: 615f 013b aa83 893a 03e7 893a 45d1 76bc
000002d0: af89 1cbd 2901 00bd d11f 423c dceb 75bc
000002e0: 5117 dc3c 3728 cabb 4aad aebc 47be 333d
000002f0: 09d4 953c 5729 85bc 93e9 6abc a246 2fbd
00000300: 06d7 463b b53f e33c 0085 79bc a5b3 14bd
00000310: d434 0e3d 5773 5c3c 928c a2bb b5cb 2fbd
00000320: 47fc 293d c3d5 0cbd d4fe cdbc 6a6f aa3c
00000330: 30f4 713c 6b05 193d 3c12 04bd 9f13 b5ba
00000340: 97bd 253d 753f 25bb ecc6 acbc 7c90 dabc
00000350: f0c8 29bd e1e9 49bc a02e a6bc 410c 5d3b
00000360: 308b dbbc 19ba 26bd b367 2e3d c2e4 b33b
00000370: f7bf 2a3d 8fbc 0abb 58c0 c8bb 5814 a13b
00000380: 8115 ed3c f8cb 863c ebac 1a3a 98e7 2fbd
00000390: d6ad 813c 36b8 7fbb 3929 bb3c 865e f1bb
000003a0: 5b4b cbbc a74a 66bc 2bf3 233d b506 11bc
000003b0: 7e30 9c3c 7704 b5bb b776 813c 7941 a4bc
000003c0: 45f0 fb3b 8b78 5a3c d53d d83c 1017 90bc
000003d0: 681d 153d 9708 8c3b d2d3 b53b 5593 8b3c
000003e0: cfda e7bb cf9e 30bd eb79 c6bc 3286 a2bc
000003f0: ddcd 98bc ef8e f2bb ab19 ce3c cb2a bbba
