RL_Project/checkpoints/2023-12-05/17-04-28/0.pt (torch, 185545 bytes, 8 tensors)

actor_critic.std f4 [12]
0.999 0.999 0.999 1.001 1.001 0.999 0.999 0.999
1.001 1.001 1.001 1.001
00000000: 77be 7f3f 77be 7f3f 77be 7f3f c520 803f
00000010: c520 803f 77be 7f3f 77be 7f3f 77be 7f3f
00000020: c520 803f c520 803f c520 803f c520 803f

actor_critic.actor.model.0.linear.weight f4 [512, 37]
-0.07567085 -0.06535558 0.14008673 0.07380627 -0.10232913 -0.07745999 -0.023858635 0.039148282
-0.07153639 0.06447655 0.10283429 0.10207368 0.117515974 0.08484374 0.015380464 0.08920233
0.046017293 0.14388676 -0.0013989112 0.015672354 -0.09434089 -0.058033742 0.06047665 -0.13076098
0.13606875 -0.13213834 -0.074637316 0.061803732 0.04957366 -0.14405796 0.015124423 0.08635566
0.10533248 0.0735334 0.07893303 -0.05919065 -0.16457692 0.06163436 -0.05963567 -0.05439635
-0.039462574 0.08216447 0.08504949 -0.08630751 -0.07294153 0.12569954 0.09445545 -0.10962059
0.03339952 -0.14769594 -0.11563712 0.10907184 -0.14311054 0.068501085 -0.039174985 0.05955582
-0.09491406 0.12813915 0.0013993274 -0.11824468 -0.123657286 0.037114687 -0.1534331 0.03912302
-0.09059789 -0.070565164 0.12696713 -0.034266587 0.025100974 -0.044581197 -0.019051591 -0.14952733
-0.09469347 -0.11113612 0.1588629 0.039198384 0.020273453 -0.055492587 -0.12861669 -0.1466976
-0.02187012 0.07601176 -0.121707655 -0.13831685 -0.06218154 0.10610123 0.015215953 0.15155499
0.06725589 0.050689165 -0.1350509 0.1404407 -0.13418084 0.15683933 0.1544709 -0.07122145
-0.03221056 -0.11617455 -0.068631165 0.073935255 0.14989628 0.07755885 0.005052979 -0.0830931
-0.051890202 -0.0060824957 0.07549335 0.08684981 0.055744153 -0.035982467 -0.046193626 0.07634213
0.12164318 0.05451901 -0.1643014 0.11573935 0.13591886 -0.0003964738 0.11521493 -0.15598193
-0.018428447 0.15363903 0.123884186 -0.066559546 0.0062690293 -0.11307198 -0.0023603009 0.15765466
0.033680756 -0.061310355 -0.14124364 -0.07046913 -0.11914062 0.09682045 -0.11301031 0.03694618
-0.1383965 -0.09948183 -0.08542857 0.08989211 0.039045654 -0.09371103 0.14469583 0.00058891234
-0.10709675 0.03416564 -0.009225095 -0.041948512 -0.06984467 0.008475983 0.09740889 0.11300307
0.13116454 0.062191032 0.036196865 0.13224022 0.12678854 -0.16019453 0.15602203 0.10292821
0.12314757 -0.090750776 -0.07315408 -0.097493134 -0.15787998 0.15338285 0.117297895 -0.004572707
0.026319154 -0.03278481 -0.07045026 0.1094328 0.16096815 0.1357607 0.006845949 0.101402976
-0.12289774 0.031459466 0.020282535 -0.08933261 -0.006478497 -0.050888594 0.11699348 0.09478194
-0.1406922 -0.049173627 -0.05997739 -0.11620571 -0.050989233 0.05590529 -0.034287687 0.026107052
0.0025881138 0.09161515 -0.053424224 0.023531431 0.14468633 -0.14039923 -0.012504856 0.11710501
-0.04728309 0.08146509 -0.009121174 -0.013712971 -0.04919043 -0.13771245 0.078335166 0.07284099
0.09748445 0.0523406 -0.11645924 0.04339983 -0.11084147 -0.07877306 -0.0026565301 0.06351209
-0.14911082 0.14243144 0.10486558 0.13850406 0.017255884 0.059529282 0.16089134 -0.09632224
-0.0027630958 0.13774897 -0.15693295 0.09329989 -0.0508984 -0.021274757 0.1111305 0.13406359
0.15824045 0.047679752 0.07872961 -0.055238873 -0.13484693 -0.0038994276 0.1221006 0.08798176
0.019523967 -0.043755494 -0.011689029 0.08892669 0.09070629 0.019235604 -0.060588714 0.066958964
-0.07042159 0.11443329 0.13145491 0.11132643 -0.11015545 -0.1031544 -0.08463137 0.098103836
00000000: 52f9 9abd 25d9 85bd e572 0f3e be27 973d
00000010: ef91 d1bd 58a3 9ebd 2f73 c3bc f359 203d
00000020: ac81 92bd 480c 843d c99a d23d 010c d13d
00000030: 37ac f03d 8ec2 ad3d 57fe 7b3c b6af b63d
00000040: a17c 3c3d 0d57 133e ac5b b7ba 4f63 803c
00000050: cc35 c1bd cab4 6dbd 5db6 773d 35e6 05be
00000060: 9b55 0b3e 464f 07be 73db 98bd e925 7d3d
00000070: c00d 4b3d ee83 13be 6ecc 773c 3cdb b03d
00000080: 8eb8 d73d ae98 963d a4a7 a13d e571 72bd
00000090: da86 28be 5074 7c3d 8844 74bd b5ce 5ebd
000000a0: 82a3 21bd d845 a83d 6d2e ae3d fec1 b0bd
000000b0: 5e62 95bd 61b7 003e dc71 c13d c380 e0bd
000000c0: efcd 083d 9b3d 17be 28d3 ecbd 0f61 df3d
000000d0: 928b 12be 4c4a 8c3d f375 20bd cef0 733d
000000e0: 4d62 c2bd e936 033e a369 b73a 442a f2bd
000000f0: 0840 fdbd 9205 183d 911d 1dbe 763f 203d
00000100: 638b b9bd 7884 90bd ac03 023e 1f5b 0cbd
00000110: 8fa0 cd3c c69a 36bd 1512 9cbc b11d 19be
00000120: a6ee c1bd 569b e3bd f5ac 223e 7c8e 203d
00000130: 8314 a63c 324c 63bd 18b4 03be e537 16be
00000140: f728 b3bc 0eac 9b3d dd41 f9bd efa2 0dbe
00000150: 12b2 7ebd 9a4b d93d 554c 793c 3b31 1b3e
00000160: 75bd 893d 719f 4f3d c84a 0abe b0cf 0f3e
00000170: b466 09be 7d9a 203e 9f2d 1e3e 8ddc 91bd
00000180: 38ef 03bd ecec edbd 7f8e 8cbd 5e6b 973d
00000190: 697e 193e 2dd7 9e3d 7693 a53b b72c aabd
000001a0: d28a 54bd ac4f c7bb 429c 9a3d 50de b13d
000001b0: fb53 643d 5a62 13bd 8735 3dbd 4359 9c3d
000001c0: 0f20 f93d 534f 5f3d a03e 28be c108 ed3d
000001d0: 502e 0b3e d0dd cfb9 cef5 eb3d bab9 1fbe
000001e0: 41f7 96bc 8d53 1d3e feb6 fd3d 5f50 88bd
000001f0: 6e6c cd3b 4892 e7bd 47af 1abb 3970 213e
00000200: d5f4 093d 9120 7bbd 2ca2 10be 1f52 90bd
00000210: ffff f3bd cd49 c63d f371 e7bd e154 173d
00000220: d0b7 0dbe 21bd cbbd 2df5 aebd 5b19 b83d
00000230: 56ee 1f3d 92eb bfbd 252b 143e 3d61 1a3a
00000240: 8a55 dbbd 45f1 0b3d da24 17bc 34d2 2bbd
00000250: b90a 8fbd d9de 0a3c 507e c73d 276e e73d
00000260: ff4f 063e 06bc 7e3d 2a43 143d fb69 073e
00000270: dbd4 013e 090a 24be 3dc4 1f3e 06cc d23d
00000280: cb34 fc3d 8bdb b9bd ced1 95bd 7baa c7bd
00000290: 4aab 21be 6510 1d3e e139 f03d a6d6 95bb
000002a0: 449b d73c 5d49 06bd 3a48 90bd 4e1e e03d
000002b0: d6d4 243e da04 0b3e fc53 e03b 5dac cf3d
000002c0: cfb1 fbbd a4db 003d 8f27 a63c 04f4 b6bd
000002d0: 9249 d4bb 8f70 50bd 479a ef3d 091d c23d
000002e0: 9e11 10be 496a 49bd daaa 75bd 42fd edbd
000002f0: 16da 50bd f2fc 643d 3f71 0cbd 75de d53c
00000300: 589d 293b b9a0 bb3d 5cd3 5abd fdc4 c03c
00000310: a728 143e d1c4 0fbe 2be1 4cbc c0d4 ef3d
00000320: eaab 41bd 2bd7 a63d fa70 15bc 5eac 60bc
00000330: e87b 49bd 7e04 0dbe 306e a03d a82d 953d
00000340: eda5 c73d 1963 563d 2f82 eebd 05c4 313d
00000350: da00 e3bd c553 a1bd 2e19 2ebb a012 823d
00000360: 82b0 18be 8cd9 113e c4c3 d63d 02d4 0d3e
00000370: 365c 8d3c fad4 733d b3c0 243e 9844 c5bd
00000380: 0e15 35bb 110e 0d3e 08b3 20be 0314 bf3d
00000390: d77a 50bd 6648 aebc 6398 e33d f747 093e
000003a0: c909 223e d84b 433d fd3c a13d 2842 62bd
000003b0: 5015 0abe 8a8d 7fbb e10f fa3d c82f b43d
000003c0: baf0 9f3c f638 33bd 5783 3fbc 321f b63d
000003d0: 38c4 b93d fc93 9d3c df2b 78bd c821 893d
000003e0: 3239 90bd 005c ea3d 1e9c 063e 1dff e33d
000003f0: 2e99 e1bd 9d42 d3bd 3653 adbd aaea c83d

actor_critic.actor.model.0.linear.bias f4 [512]
0.0009999925 -0.000999946 -0.0009999987 -0.0009999764 0.000999998 0.0009999975 0.0009999981 -0.0009999985
-0.0009999985 0.0009999707 0.0009999963 -0.0009999977 0.0009999725 0.0009999987 0.000999998 -0.0009999985
-0.0009999988 -0.0009999988 -0.0009999718 0.0009999858 0.0009999971 0.0009999888 0.0009999936 -0.0009999977
0.0009999955 0.000999998 0.0009999506 -0.000999999 -0.0009999952 -0.0009999988 -0.0009999983 0.0009999966
0.0009997026 0.0009999934 0.0009999983 -0.000999999 0.0009999969 -0.0009999988 0.0009999987 -0.0009999978
-0.0009999987 0.0009999985 0.0009999917 0.0009999977 0.0009999985 -0.0009999987 0.0009999989 -0.0009999815
0.0009999987 -0.0009999891 -0.000999994 -0.0009999973 0.0009999935 -0.0009999976 -0.0009999989 0.0009999984
0.0009999478 -0.0009999924 -0.0009999982 0.0009999978 0.0009999983 0.0009999984 -0.0009999815 0.000999993
-0.0009999978 -0.0009999841 -0.000999812 0.0009999989 0.0009999953 -0.0009999966 -0.0009999921 0.0009999968
0.0009999984 0.0009998594 -0.0009986637 0.0009999956 0.000999999 -0.0009999981 -0.0009999875 0.0009999988
0.0009999985 -0.0009999917 0.0009999967 -0.0009999939 0.0009999975 0.0009999935 0.0009999961 0.0009999983
-0.0009999984 0.0009999989 0.0009999939 -0.0009999955 -0.0009999963 -0.0009998671 0.0009999974 0.0009999974
0.0009999988 0.0009999978 -0.0009999967 -0.0009999985 -0.0009999975 -0.000999998 0.000999999 -0.0009999805
0.0009999947 0.000999997 -0.0009999987 0.0009999987 -0.0009999718 -0.0009999939 0.0009999992 0.0009999973
0.0009999957 0.0009999748 -0.0009997417 -0.0009999968 0.0009999988 -0.0009999978 0.0009999977 -0.0009999989
-0.0009999975 -0.0009999968 0.0009999959 -0.0009999959 -0.0009999968 -0.0009999953 0.0009999675 0.000999998
-0.000999987 0.0009999984 0.0009999968 -0.0009999964 0.0009999627 0.0009999983 0.0009999925 -0.0009999975
0.0009999959 -0.0009999973 -0.0009999961 -0.0009999267 -0.0009999936 -0.0009999835 0.000999998 0.0009999988
0.0009999955 -0.0009999975 0.000999998 0.0009999962 -0.0009999989 -0.0009821298 -0.0009999983 0.0009999983
-0.0009999984 -0.0009999984 -0.0009999947 -0.0009999974 0.0009999876 -0.0009999982 0.0009999968 0.0009999896
0.0009999971 -0.0009999976 0.0009999977 0.0009999954 -0.0009999415 0.0009999978 -0.0009999835 -0.0009999982
0.0009999967 0.0009999981 0.0009999953 -0.0009999987 0.0009999987 -0.000999994 -0.0009999917 0.0009999978
-0.000999993 -0.0009999984 -0.0009999969 -0.0009999988 0.0009999697 -0.0009999967 -0.0009999967 0.0009999942
-0.0009999987 -0.0009999981 0.0009999969 0.0009999927 -0.0009999947 -0.0009999977 0.0009999987 0.0009999976
-0.0009999949 -0.0009999984 -0.0009999985 -0.0009999952 -0.0009999783 -0.0009999987 0.0009999988 -0.0009999978
0.0009999975 0.000999998 0.0009999975 0.0009999966 -0.0009999983 0.0009999948 0.0009999947 -0.0009999921
0.0009999973 -0.0009999988 -0.0009999366 -0.000999998 0.0009999969 0.0009999237 0.000999999 -0.000999987
-0.0009999985 0.000999997 -0.0009999936 0.0009999889 0.0009999973 0.000999999 -0.0009999954 -0.0009999987
-0.0009999983 -0.0009999973 -0.0009999843 0.0009999762 -0.0009999985 0.0009999976 0.0009999983 -0.0009999988
0.0009999981 -0.0009999641 0.0009999987 -0.0009999987 0.0009999953 -0.0009999804 -0.0009999964 -0.0009999936
-0.000999999 0.0009999892 0.000999993 -0.0009999487 0.0009999913 0.0009999978 -0.0009999988 0.000999996
0.0009999982 -0.0009999984 0.0009999913 -0.0009999988 0.0009999977 -0.0009999978 0.0009999879 -0.000999998
00000000: 2e12 833a 9f10 83ba 6312 83ba a411 83ba
00000010: 5d12 833a 5912 833a 5e12 833a 6212 83ba
00000020: 6212 83ba 7311 833a 4f12 833a 5b12 83ba
00000030: 8211 833a 6312 833a 5d12 833a 6212 83ba
00000040: 6412 83ba 6412 83ba 7c11 83ba f511 833a
00000050: 5612 833a 0e12 833a 3812 833a 5b12 83ba
00000060: 4812 833a 5d12 833a c610 833a 6612 83ba
00000070: 4512 83ba 6412 83ba 6012 83ba 5112 833a
00000080: 7408 833a 3612 833a 6012 833a 6612 83ba
00000090: 5412 833a 6412 83ba 6312 833a 5c12 83ba
000000a0: 6312 83ba 6212 833a 2712 833a 5b12 833a
000000b0: 6212 833a 6312 83ba 6512 833a d011 83ba
000000c0: 6312 833a 1112 83ba 3b12 83ba 5712 83ba
000000d0: 3712 833a 5a12 83ba 6512 83ba 6112 833a
000000e0: ae10 833a 2d12 83ba 5f12 83ba 5c12 833a
000000f0: 6012 833a 6112 833a d011 83ba 3212 833a
00000100: 5c12 83ba e611 83ba 200c 83ba 6512 833a
00000110: 4612 833a 5112 83ba 2b12 83ba 5312 833a
00000120: 6112 833a b70d 833a 98e5 82ba 4912 833a
00000130: 6612 833a 5e12 83ba 0312 83ba 6412 833a
00000140: 6212 833a 2712 83ba 5212 833a 3a12 83ba
00000150: 5912 833a 3712 833a 4d12 833a 6012 833a
00000160: 6112 83ba 6512 833a 3a12 833a 4812 83ba
00000170: 4f12 83ba f90d 83ba 5812 833a 5812 833a
00000180: 6412 833a 5c12 833a 5212 83ba 6212 83ba
00000190: 5912 83ba 5d12 83ba 6612 833a c711 83ba
000001a0: 4112 833a 5512 833a 6312 83ba 6312 833a
000001b0: 7c11 83ba 3a12 83ba 6812 833a 5712 833a
000001c0: 4a12 833a 9611 833a c409 83ba 5312 83ba
000001d0: 6412 833a 5c12 83ba 5b12 833a 6512 83ba
000001e0: 5912 83ba 5312 83ba 4b12 833a 4b12 83ba
000001f0: 5312 83ba 4612 83ba 5711 833a 5d12 833a
00000200: ff11 83ba 6112 833a 5312 833a 5012 83ba
00000210: 2e11 833a 6012 833a 2e12 833a 5912 83ba
00000220: 4b12 833a 5712 83ba 4d12 83ba f90f 83ba
00000230: 3812 83ba e111 83ba 5d12 833a 6412 833a
00000240: 4812 833a 5912 83ba 5d12 833a 4e12 833a
00000250: 6512 83ba cfba 80ba 6012 83ba 6012 833a
00000260: 6112 83ba 6112 83ba 4112 83ba 5812 83ba
00000270: 0412 833a 5f12 83ba 5312 833a 1512 833a
00000280: 5612 833a 5a12 83ba 5b12 833a 4712 833a
00000290: 7810 83ba 5c12 833a e111 83ba 5f12 83ba
000002a0: 5212 833a 5e12 833a 4612 833a 6312 83ba
000002b0: 6312 833a 3b12 83ba 2712 83ba 5c12 833a
000002c0: 3212 83ba 6112 83ba 5412 83ba 6412 83ba
000002d0: 6a11 833a 5212 83ba 5212 83ba 3d12 833a
000002e0: 6312 83ba 5e12 83ba 5412 833a 3012 833a
000002f0: 4112 83ba 5b12 83ba 6312 833a 5a12 833a
00000300: 4312 83ba 6112 83ba 6212 83ba 4512 83ba
00000310: b411 83ba 6312 83ba 6412 833a 5c12 83ba
00000320: 5912 833a 5d12 833a 5912 833a 5112 833a
00000330: 6012 83ba 4212 833a 4112 833a 2b12 83ba
00000340: 5712 833a 6412 83ba 4e10 83ba 5d12 83ba
00000350: 5412 833a df0f 833a 6612 833a ff11 83ba
00000360: 6212 83ba 5512 833a 3812 83ba 0f12 833a
00000370: 5712 833a 6612 833a 4712 83ba 6312 83ba
00000380: 6012 83ba 5712 83ba e811 83ba a211 833a
00000390: 6212 83ba 5a12 833a 6012 833a 6412 83ba
000003a0: 5e12 833a 3a11 83ba 6312 833a 6312 83ba
000003b0: 4612 833a c611 83ba 5012 83ba 3812 83ba
000003c0: 6612 83ba 1212 833a 3212 833a b610 83ba
000003d0: 2412 833a 5c12 833a 6412 83ba 4c12 833a
000003e0: 5f12 833a 6112 83ba 2412 833a 6412 83ba
000003f0: 5b12 833a 5c12 83ba 0712 833a 5d12 83ba

actor_critic.actor.model.1.linear.weight f4 [12, 512]
-0.0041985186 -0.011981072 -0.013044347 0.037073027 -0.005516736 0.0037329646 0.018786322 0.0054824804
-0.01678159 0.016710218 -0.03329074 0.00499678 0.035999797 -0.04459197 -0.031335905 -0.014826426
-0.010705412 -0.030907447 -0.016353833 0.011736219 0.04029731 0.0041425005 0.006945408 0.041620947
-0.04277285 -0.025610514 -0.0398404 -0.0061932504 0.015223155 -0.01100189 0.03914496 -0.019970028
-0.017984089 0.04048842 0.038465876 0.0063423486 0.014211798 0.01494409 0.010297826 0.01263579
0.02502996 0.0067091538 0.0062987544 0.042263485 -0.012555791 0.031059254 0.033693966 -0.044225723
-0.040750388 0.028362628 -0.03172097 -0.0039754873 0.032508887 -0.035133965 0.042377457 -0.03658009
-0.041093014 0.0095882425 -0.023286726 -0.01127715 0.03419976 -0.0016972931 -0.007964988 -0.03386646
-0.03412263 -0.011154815 0.0107267015 0.023075117 0.03828082 0.026355684 -0.01552187 0.031251594
0.044793617 -0.014000084 -0.0397274 0.015334206 -0.036890317 0.031141413 0.029741943 0.036017936
-0.037848532 -0.008694429 -0.041174266 -0.009531179 -0.024041982 0.005044611 -0.027876038 -0.033268366
0.045174856 0.021997511 -0.029281026 0.036741577 0.012933124 0.02010532 -0.044792 -0.01371859
0.014423418 0.0054199556 -0.002169185 -0.041695137 -0.019162893 -0.004647562 0.040213257 0.010665715
0.011694399 0.017229075 -0.03189549 0.012841937 0.022170808 -0.022342842 0.025375456 -0.0068566836
0.03453898 -0.012394437 -0.0024200112 -0.040317822 -0.0035533733 -0.018375454 -0.016611086 0.018619284
-0.0429679 0.0019771531 0.012972096 0.025185246 0.029560227 -0.00849324 0.017170787 0.0036760927
0.0053447555 -0.0070507177 0.019064575 0.030128434 0.011701312 0.04040426 0.02339106 0.014078483
0.034383968 -0.015260549 -0.024112461 -0.032048553 -0.028497363 -0.04199105 0.0077587 -0.040912323
-0.039023906 -0.0010457084 -0.02140599 -0.012695586 -0.0045698006 -0.039435577 0.021795686 0.0060057016
-0.04363054 -0.0037165168 0.036117762 0.0013476742 -0.02842774 0.04228161 0.0014661546 0.03306711
-0.042451758 -0.01690512 0.028015055 0.039746393 -0.012913222 0.040486466 0.031586025 0.042308215
-0.011259522 -0.014473552 0.037912935 -0.004776921 0.043241676 -0.016845776 -0.02866628 -0.035856098
0.04173854 -0.009537797 0.0025740424 -0.022341678 0.0025358414 -0.02929892 0.009830671 0.0056829727
0.018570952 -0.0044517107 0.02888673 -0.0026172479 0.017439036 0.01314934 -0.0112860855 -0.041053824
0.01790603 -0.031021314 -0.030749662 -0.01928785 -0.0034885234 -0.044320516 -0.03929882 -0.000704993
0.039803162 -0.028745074 -0.024910174 0.0035771478 -0.0014139081 -0.03434476 0.031890053 0.010507759
0.0034333798 -0.025232505 0.003977253 -0.006701857 -0.024033874 -0.007653707 -0.014733766 0.03012376
-0.040845383 -0.011959393 0.02100377 0.01280409 -0.034171347 -0.007373578 0.04257349 -0.038123112
0.008538986 0.0011822481 -0.034664474 0.013006568 -0.0017353517 -0.03793638 0.024992183 -0.01678697
0.03309046 -0.0029062964 -0.025217362 -0.002812446 -0.0066947555 -0.016310122 0.040453702 0.022789251
-0.037585896 0.005653695 -0.022290433 -0.014559073 0.004897909 -0.0009998872 -0.020863213 0.0016935319
-0.008948143 0.04245794 -0.010619311 0.014281552 0.040476006 0.044484288 0.01013948 0.035778962
00000000: ba93 89bb 424c 44bc f5b7 55bc e3d9 173d
00000010: bcc5 b4bb c1a4 743b c6e5 993c 61a6 b33b
00000020: 8c79 89bc dee3 883c df5b 08bd 07bc a33b
00000030: 8674 133d 12a6 36bd 145a 00bd 8aea 72bc
00000040: c165 2fbc 9d31 fdbc 79f8 85bc 4549 403c
00000050: cb0e 253d d0bd 873b 4e96 e33b ba7a 2a3d
00000060: 9532 2fbd 24cd d1bc b02f 23bd c0f0 cabb
00000070: 8a6a 793c 4541 34bc 7756 203d 2f98 a3bc
00000080: 5e53 93bc 2fd7 253d 658e 1d3d 7ad3 cf3b
00000090: 9ad8 683c 0ed8 743c 36b8 283c 5806 4f3c
000000a0: a10b cd3c 76d8 db3b c865 ce3b 7a1c 2d3d
000000b0: ceb6 4dbc fa6f fe3c af02 0a3d 0826 35bd
000000c0: e1e9 26bd be58 e83c d9ed 01bd ce44 82bb
000000d0: 0a28 053d a2e8 0fbd fc93 2d3d 01d5 15bd
000000e0: 2651 28bd 0118 1d3c cec3 bebc ccc3 38bc
000000f0: 0c15 0c3d b577 deba 957f 02bc 8fb7 0abd
00000100: 2cc4 0bbd afc2 36bc 0cbf 2f3c 0708 bd3c
00000110: 59cc 1c3d e0e7 d73c 714f 7ebc ac01 003d
00000120: 8379 373d 9c60 65bc 33b9 22bd 523c 7b3c
00000130: 4d1a 17bd 471c ff3c 60a5 f33c 8b87 133d
00000140: 1007 1bbd 1473 0ebc 59a6 28bd aa28 1cbc
00000150: b1f3 c4bc 444d a53b 4a5c e4bc 6944 08bd
00000160: 4509 393d 2034 b43c c3de efbc 567e 163d
00000170: 74e5 533c e9b3 a43c d177 37bd f0c3 60bc
00000180: 3350 6c3c e299 b13b e328 0ebb 85c8 2abd
00000190: 80fb 9cbc 934a 98bb a8b6 243d 40bf 2e3c
000001a0: dd99 3f3c fd23 8d3c d8a4 02bd fd66 523c
000001b0: 8e9f b53c 5608 b7bc 30e0 cf3c 08ae e0bb
000001c0: bf78 0d3d 0912 4bbc 0d99 1ebb 4d24 25bd
000001d0: b6df 68bb 1f88 96bc f913 88bc 7887 983c
000001e0: 1cff 2fbd 2093 013b ea88 543c 4a51 ce3c
000001f0: 4a28 f23c 3b27 0bbc c0a9 8c3c 9aea 703b
00000200: 0f23 af3b b509 e7bb 502d 9c3c e8cf f63c
00000210: dcb6 3f3c f07e 253d 9c9e bf3c 70a9 663c
00000220: 34d6 0c3d 6207 7abc 7f87 c5bc 5845 03bd
00000230: 4d73 e9bc cffe 2bbd b13c fe3b ae93 27bd
00000240: 88d7 1fbd 2710 89ba 9d5b afbc 2601 50bc
00000250: 44be 95bb 3387 21bd de8c b23c 7acb c43b
00000260: f0b5 32bd ce90 73bb 38f0 133d 71a4 b03a
00000270: 4be1 e8bc 7b2f 2d3d fc2b c03a 6171 073d
00000280: e5e1 2dbd 9b7c 8abc d47f e53c 1dcd 223d
00000290: fb91 53bc 23d5 253d 5960 013d 614b 2d3d
000002a0: dc79 38bc 7a22 6dbc 984a 1b3d b887 9cbb
000002b0: 2f1e 313d 2700 8abc 8cd5 eabc d8dd 12bd
000002c0: 08f6 2a3d 6c44 1cbc 44b1 283b e505 b7bc
000002d0: 5c30 263b 4a04 f0bc d310 213c 3b38 ba3b
000002e0: 1c22 983c a8df 91bb dda3 ec3c 2286 2bbb
000002f0: 4fdc 8e3c 5470 573c 46e9 38bc 0e28 28bd
00000300: abaf 923c 6920 febc b7e6 fbbc 8e01 9ebc
00000310: b69f 64bb 6e89 35bd cdf7 20bd 48cf 38ba
00000320: a408 233d ca7a ebbc 6c10 ccbc 956e 6a3b
00000330: e252 b9ba 17ad 0cbd 259f 023d bc28 2c3c
00000340: 8e02 613b 66b4 cebc 9e53 823b 409b dbbb
00000350: b0e2 c4bc f3cb fabb e565 71bc 1bc6 f63c
00000360: 7d4d 27bd 54f1 43bc 1910 ac3c 3fc8 513c
00000370: 41f7 0bbd 0e9e f1bb 8a61 2e3d fb26 1cbd
00000380: 1ae7 0b3c aaf5 9a3a 56fc 0dbd 8019 553c
00000390: be74 e3ba 2d63 1bbd 68bc cc3c d484 89bc
000003a0: dd89 073d 9077 3ebb a494 cebc 0451 38bb
000003b0: ae5f dbbb ce9c 85bc c8b2 253d 86b0 ba3c
000003c0: abf3 19bd a242 b93b 6d9a b6bc 2e89 6ebc
000003d0: a37e a03b a60e 83ba 54e9 aabc 80f9 dd3a
000003e0: 3b9b 12bc 60e8 2d3d 9efc 2dbc 2cfd 693c
000003f0: 2bca 253d 2835 363d 1020 263c f68c 123d

actor_critic.actor.model.1.linear.bias f4 [12]
0.0009999996 -0.0009999998 0.0009999997 -0.0009999997 0.0009999999 -0.0009999989 0.0009999999 0.0009999998
-0.0009999997 0.0009999998 -0.0009999998 0.0009999996
00000000: 6b12 833a 6d12 83ba 6c12 833a 6c12 83ba
00000010: 6e12 833a 6512 83ba 6e12 833a 6d12 833a
00000020: 6c12 83ba 6d12 833a 6d12 83ba 6b12 833a

actor_critic.critic.model.0.linear.weight f4 [512, 37]
-0.04895205 -0.038162846 0.117425084 0.06074853 0.0053367983 -0.033134833 0.07753169 0.03434273
0.06119299 -0.048703764 0.06666076 0.123366185 -0.08536367 -0.06097261 -0.033091873 -0.082509905
0.15182087 0.07213017 0.10682909 0.10652995 0.04069989 0.12063757 0.034438346 0.07070788
0.04421373 0.06765584 0.13167489 0.14984906 0.07407074 -0.10626052 -0.083235964 -0.099008046
-0.12809776 -0.16216303 0.01720034 0.07422057 -0.13260166 0.07944242 0.022221023 0.14188877
0.025446659 -0.059468627 -0.10611922 -0.14842871 -7.335489e-05 0.10514546 -0.06733771 0.032065727
-0.03238398 0.049125157 -0.0787483 -0.059155475 0.09125125 0.027742963 0.05099225 -0.10754946
0.111528985 0.10405766 0.054234367 -0.005689031 0.06422972 0.1448509 0.15134358 0.014173838
-0.1499474 0.08983161 0.058756717 0.04580322 0.08710108 0.04963329 0.1194137 -0.13358778
0.12336158 -0.13759957 0.09261606 0.09990603 0.048766907 -0.06843376 0.10214941 0.061318785
0.039556492 0.13844274 0.16000615 0.051076226 0.07144807 -0.08441076 0.05534684 0.13961244
0.058237705 0.12652545 -0.14367989 0.13520451 -0.052865453 0.098874316 -0.1088329 0.06282653
-0.044080194 0.01959483 0.13635166 -0.11166205 0.017164083 -0.15995678 -0.06986388 -0.06124365
0.07557431 0.09851313 0.0620971 0.058398996 -0.09770752 -0.124551386 0.15767989 -0.12568177
0.03432423 -0.03076092 -0.16278237 0.038118847 -0.11874334 -0.05098192 -0.13575731 -0.06781708
0.02154231 0.039190423 0.112518385 -0.032302175 -0.090115584 -0.084460616 0.043436304 -0.094955325
-0.12221885 -0.15254681 -0.012402875 -0.16146716 0.05939996 0.07424965 0.16165142 0.01169451
-0.1003046 0.14301056 -0.05563391 -0.15162162 0.079820365 -0.09471411 -0.09387552 0.10478954
-0.0043120836 -0.007060354 0.09817159 -0.14403802 0.08567202 0.04450627 -0.019844605 0.062039066
-0.030682568 0.017531622 0.018565059 -0.09743895 -0.10134467 -0.15966956 0.10329901 0.11780989
0.09861176 -0.09121746 -0.027288862 -0.09853053 0.16018447 0.16088875 -0.12938733 -0.09803037
-0.15829813 0.001250933 0.14499521 -0.13658717 -0.049524408 0.005584731 0.01292169 0.046080723
-0.120719135 -0.15569793 -0.12564458 -0.12557457 -0.010429936 -0.03362233 -0.14788932 -0.070168056
-0.0018488058 0.047351375 0.14861594 0.115561225 0.083386846 -0.16112764 0.07318023 0.15562664
0.0851904 -0.09070566 -0.15319654 0.033685315 -0.13586238 0.16083212 0.05072452 0.017786846
-0.06922407 -0.15081623 0.10084645 0.15012418 -0.1494543 0.14756039 -0.15243092 -0.09889618
0.13095729 0.06872116 -0.0021590404 0.09318032 -0.07026977 0.07732675 -0.09081825 -0.09554193
0.1521376 0.0074327136 -0.04450139 -0.06767906 -0.12963007 -0.10924881 0.052336525 0.118960656
0.025482897 0.09589144 0.03277433 0.14908637 0.07665458 -0.04346382 0.10549442 0.007653131
0.016496541 -0.0052357125 0.051315557 -0.085754976 -0.10562277 -0.02090534 -0.1121493 -0.032853737
0.060564738 0.1395362 -0.06931355 -0.10516906 0.009047129 0.03438061 -0.10898767 0.04820539
-0.15467925 -0.06335068 0.14094603 -0.10788458 -0.0079471385 -0.12643804 -0.041939065 0.061749294
00000000: f281 48bd a550 1cbd 907c f03d 73d3 783d
00000010: 4fe0 ae3b 64b8 07bd efc8 9e3d f6aa 0c3d
00000020: 80a5 7a3d 997d 47bd 7085 883d 69a7 fc3d
00000030: 26d3 aebd 6abe 79bd 588b 07bd f4fa a8bd
00000040: ee76 1b3e fcb8 933d 36c9 da3d 602c da3d
00000050: eeb4 263d d510 f73d 390f 0d3d 4bcf 903d
00000060: 7519 353d 258f 8a3d c8d5 063e 0872 193e
00000070: 66b2 973d 1e9f d9bd 9e77 aabd bbc4 cabd
00000080: 0f2c 03be 110e 26be bae7 8c3c f400 983d
00000090: bbc8 07be b5b2 a23d dd08 b63c 4a4b 113e
000000a0: 8375 d03c 6095 73bd 0955 d9bd b2fd 17be
000000b0: 1bd6 99b8 8156 d73d 5ae8 89bd 5a57 033d
000000c0: 10a5 04bd 7637 493d ca46 a1bd 034d 72bd
000000d0: efe1 ba3d 3645 e33c 40dd 503d e442 dcbd
000000e0: 4f69 e43d 2f1c d53d db24 5e3d 0d6b babb
000000f0: df8a 833d cb53 143e d0f9 1a3e 6339 683c
00000100: d08b 19be a3f9 b73d e2aa 703d 289c 3b3d
00000110: 0d62 b23d 474c 4b3d 2c8f f43d 3ccb 08be
00000120: ffa4 fc3d e7e6 0cbe 7dad bd3d 889b cc3d
00000130: cfbf 473d 0027 8cbd b633 d13d 6829 7b3d
00000140: fd05 223d efc3 0d3e a7d8 233e 4e35 513d
00000150: 5e53 923d 8cdf acbd 5eb3 623d 90f6 0e3e
00000160: a98a 6e3d e38f 013e d220 13be 0d73 0a3e
00000170: 7289 58bd 9e7e ca3d c9e3 debd 32ab 803d
00000180: 6f8d 34bd 5685 a03c c59f 0b3e 13af e4bd
00000190: b19b 8c3c b6cb 23be cb14 8fbd 9fda 7abd
000001a0: b4c6 9a3d 40c1 c93d 8759 7e3d c933 6f3d
000001b0: e11a c8bd cc14 ffbd d676 213e b9b2 00be
000001c0: 9097 0c3d 53fe fbbc 6cb0 26be 8222 1c3d
000001d0: b52f f3bd 6bd2 50bd f703 0bbe aee3 8abd
000001e0: 8079 b03c 2386 203d 0a70 e63d 494f 04bd
000001f0: 858e b8bd b0f9 acbd 44ea 313d f077 c2bd
00000200: e04d fabd 3b35 1cbe 6e35 4bbc a657 25be
00000210: 5f4d 733d 3310 983d f387 253e 549a 3f3c
00000220: 806c cdbd 5c71 123e 62e0 63bd b342 1bbe
00000230: dc78 a33d 79f9 c1bd cf41 c0bd e69b d63d
00000240: 614c 8dbb 8b5a e7bb 300e c93d b47e 13be
00000250: d074 af3d 354c 363d 2791 a2bc ad1c 7e3d
00000260: 025a fbbc 7a9e 8f3c c015 983c 128e c7bd
00000270: cb8d cfbd 6b80 23be 6e8e d33d 5046 f13d
00000280: f6f4 c93d 38d0 babd e48c dfbc 60ca c9bd
00000290: 6607 243e 05c0 243e 1d7e 04be 26c4 c8bd
000002a0: e818 22be 59f6 a33a a079 143e 82dd 0bbe
000002b0: 1bda 4abd 1f00 b73b 7fb5 533c 24bf 3c3d
000002c0: 983b f7bd 476f 1fbe f9a8 00be 9f96 00be
000002d0: 53e2 2abc 91b7 09bd 4c70 17be 45b4 8fbd
000002e0: a153 f2ba 84f3 413d c72e 183e 5dab ec3d
000002f0: b9c6 aa3d a5fe 24be 84df 953d 975c 1f3e
00000300: 4e78 ae3d e4c3 b9bd 8edf 1cbe 9df9 093d
00000310: 821f 0bbe 2db1 243e 84c4 4f3d b8b5 913c
00000320: 59c5 8dbd 926f 1abe 9588 ce3d 27ba 193e
00000330: 8c0a 19be 121a 173e da16 1cbe 158a cabd
00000340: ab19 063e aebd 8c3d b07e 0dbb 53d5 be3d
00000350: 99e9 8fbd 7d5d 9e3d ebfe b9bd 7dab c3bd
00000360: f6c9 1b3e 1f8e f33b 1747 36bd 529b 8abd
00000370: bfbd 04be d7bd dfbd d35e 563d a5a1 f33d
00000380: 82c1 d03c bb62 c43d 603e 063d 19aa 183e
00000390: 14fd 9c3d 1e07 32bd 750d d83d 1ec7 fa3b
000003a0: c123 873c 5790 abbb 4330 523d 4ea0 afbd
000003b0: c050 d8bd ad41 abbc 88ae e5bd a491 06bd
000003c0: bb12 783d 94e2 0e3e 43f4 8dbd e062 d7bd
000003d0: 693a 143c afd2 0c3d ed34 dfbd 0473 453d
000003e0: 3d64 1ebe 00be 81bd 2854 103e 97f2 dcbd
000003f0: b734 02bc f978 01be 4cc8 2bbd d4ec 7c3d

actor_critic.critic.model.0.linear.bias f4 [512]
0.0 0.0 0.0 0.0 0.0 0.0 0.0 0.0
0.0 0.0 0.0 0.0 0.0 0.0 0.0 0.0
0.0 0.0 0.0 0.0 0.0 0.0 0.0 0.0
0.0 0.0 0.0 0.0 0.0 0.0 0.0 0.0
0.0 0.0 0.0 0.0 0.0 0.0 0.0 0.0
0.0 0.0 0.0 0.0 0.0 0.0 0.0 0.0
0.0 0.0 0.0 0.0 0.0 0.0 0.0 0.0
0.0 0.0 0.0 0.0 0.0 0.0 0.0 0.0
0.0 0.0 0.0 0.0 0.0 0.0 0.0 0.0
0.0 0.0 0.0 0.0 0.0 0.0 0.0 0.0
0.0 0.0 0.0 0.0 0.0 0.0 0.0 0.0
0.0 0.0 0.0 0.0 0.0 0.0 0.0 0.0
0.0 0.0 0.0 0.0 0.0 0.0 0.0 0.0
0.0 0.0 0.0 0.0 0.0 0.0 0.0 0.0
0.0 0.0 0.0 0.0 0.0 0.0 0.0 0.0
0.0 0.0 0.0 0.0 0.0 0.0 0.0 0.0
0.0 0.0 0.0 0.0 0.0 0.0 0.0 0.0
0.0 0.0 0.0 0.0 0.0 0.0 0.0 0.0
0.0 0.0 0.0 0.0 0.0 0.0 0.0 0.0
0.0 0.0 0.0 0.0 0.0 0.0 0.0 0.0
0.0 0.0 0.0 0.0 0.0 0.0 0.0 0.0
0.0 0.0 0.0 0.0 0.0 0.0 0.0 0.0
0.0 0.0 0.0 0.0 0.0 0.0 0.0 0.0
0.0 0.0 0.0 0.0 0.0 0.0 0.0 0.0
0.0 0.0 0.0 0.0 0.0 0.0 0.0 0.0
0.0 0.0 0.0 0.0 0.0 0.0 0.0 0.0
0.0 0.0 0.0 0.0 0.0 0.0 0.0 0.0
0.0 0.0 0.0 0.0 0.0 0.0 0.0 0.0
0.0 0.0 0.0 0.0 0.0 0.0 0.0 0.0
0.0 0.0 0.0 0.0 0.0 0.0 0.0 0.0
0.0 0.0 0.0 0.0 0.0 0.0 0.0 0.0
0.0 0.0 0.0 0.0 0.0 0.0 0.0 0.0
00000000: 0000 0000 0000 0000 0000 0000 0000 0000
00000010: 0000 0000 0000 0000 0000 0000 0000 0000
00000020: 0000 0000 0000 0000 0000 0000 0000 0000
00000030: 0000 0000 0000 0000 0000 0000 0000 0000
00000040: 0000 0000 0000 0000 0000 0000 0000 0000
00000050: 0000 0000 0000 0000 0000 0000 0000 0000
00000060: 0000 0000 0000 0000 0000 0000 0000 0000
00000070: 0000 0000 0000 0000 0000 0000 0000 0000
00000080: 0000 0000 0000 0000 0000 0000 0000 0000
00000090: 0000 0000 0000 0000 0000 0000 0000 0000
000000a0: 0000 0000 0000 0000 0000 0000 0000 0000
000000b0: 0000 0000 0000 0000 0000 0000 0000 0000
000000c0: 0000 0000 0000 0000 0000 0000 0000 0000
000000d0: 0000 0000 0000 0000 0000 0000 0000 0000
000000e0: 0000 0000 0000 0000 0000 0000 0000 0000
000000f0: 0000 0000 0000 0000 0000 0000 0000 0000
00000100: 0000 0000 0000 0000 0000 0000 0000 0000
00000110: 0000 0000 0000 0000 0000 0000 0000 0000
00000120: 0000 0000 0000 0000 0000 0000 0000 0000
00000130: 0000 0000 0000 0000 0000 0000 0000 0000
00000140: 0000 0000 0000 0000 0000 0000 0000 0000
00000150: 0000 0000 0000 0000 0000 0000 0000 0000
00000160: 0000 0000 0000 0000 0000 0000 0000 0000
00000170: 0000 0000 0000 0000 0000 0000 0000 0000
00000180: 0000 0000 0000 0000 0000 0000 0000 0000
00000190: 0000 0000 0000 0000 0000 0000 0000 0000
000001a0: 0000 0000 0000 0000 0000 0000 0000 0000
000001b0: 0000 0000 0000 0000 0000 0000 0000 0000
000001c0: 0000 0000 0000 0000 0000 0000 0000 0000
000001d0: 0000 0000 0000 0000 0000 0000 0000 0000
000001e0: 0000 0000 0000 0000 0000 0000 0000 0000
000001f0: 0000 0000 0000 0000 0000 0000 0000 0000
00000200: 0000 0000 0000 0000 0000 0000 0000 0000
00000210: 0000 0000 0000 0000 0000 0000 0000 0000
00000220: 0000 0000 0000 0000 0000 0000 0000 0000
00000230: 0000 0000 0000 0000 0000 0000 0000 0000
00000240: 0000 0000 0000 0000 0000 0000 0000 0000
00000250: 0000 0000 0000 0000 0000 0000 0000 0000
00000260: 0000 0000 0000 0000 0000 0000 0000 0000
00000270: 0000 0000 0000 0000 0000 0000 0000 0000
00000280: 0000 0000 0000 0000 0000 0000 0000 0000
00000290: 0000 0000 0000 0000 0000 0000 0000 0000
000002a0: 0000 0000 0000 0000 0000 0000 0000 0000
000002b0: 0000 0000 0000 0000 0000 0000 0000 0000
000002c0: 0000 0000 0000 0000 0000 0000 0000 0000
000002d0: 0000 0000 0000 0000 0000 0000 0000 0000
000002e0: 0000 0000 0000 0000 0000 0000 0000 0000
000002f0: 0000 0000 0000 0000 0000 0000 0000 0000
00000300: 0000 0000 0000 0000 0000 0000 0000 0000
00000310: 0000 0000 0000 0000 0000 0000 0000 0000
00000320: 0000 0000 0000 0000 0000 0000 0000 0000
00000330: 0000 0000 0000 0000 0000 0000 0000 0000
00000340: 0000 0000 0000 0000 0000 0000 0000 0000
00000350: 0000 0000 0000 0000 0000 0000 0000 0000
00000360: 0000 0000 0000 0000 0000 0000 0000 0000
00000370: 0000 0000 0000 0000 0000 0000 0000 0000
00000380: 0000 0000 0000 0000 0000 0000 0000 0000
00000390: 0000 0000 0000 0000 0000 0000 0000 0000
000003a0: 0000 0000 0000 0000 0000 0000 0000 0000
000003b0: 0000 0000 0000 0000 0000 0000 0000 0000
000003c0: 0000 0000 0000 0000 0000 0000 0000 0000
000003d0: 0000 0000 0000 0000 0000 0000 0000 0000
000003e0: 0000 0000 0000 0000 0000 0000 0000 0000
000003f0: 0000 0000 0000 0000 0000 0000 0000 0000

actor_critic.critic.model.1.linear.weight f4 [1, 512]
0.008666582 0.032182865 -0.027441818 0.01926267 -0.009600183 -0.0045050606 0.03944708 0.04415351
-0.031595808 0.02882721 0.0049816733 -0.029122466 -0.042677376 -0.0050675264 0.019335562 0.024148459
-0.010622349 0.030328466 -0.036528684 -0.031545684 0.023757761 -0.030259797 0.016117265 -0.020255005
-0.032797925 -0.03152797 0.040561616 -0.033772655 0.031274833 0.038066752 -0.015972875 0.03683558
0.039472584 -0.040057227 -0.022780493 0.013023038 -0.021810325 0.004021784 0.019497843 0.027336093
-0.011286162 0.0138215 -0.042304352 0.02001246 0.003014374 0.030817706 -0.00082038314 0.03543459
0.023934688 0.04326143 0.0055807116 0.006207251 -0.021639397 0.033047713 0.018572377 -0.043618377
0.0012173696 0.019031346 0.044044174 -0.034388367 -0.023275707 -0.014574222 -0.01460609 0.036337405
-0.012090756 -0.0035114593 -0.035082746 0.043805443 0.005773059 0.042743396 -0.011594339 0.009758112
0.017961627 -0.019251188 0.021605195 0.0154444855 -0.007447759 0.008462297 -0.043131992 -0.0090840105
-0.01456123 -0.01797512 -0.0067641316 0.0070049907 -0.04249653 0.04064644 0.023904348 0.0033930636
-0.012043883 -0.029339153 0.0037369765 0.01794777 0.009016296 0.033968646 -0.028414162 0.009373043
-0.0032396754 -0.017065385 -0.0018921564 -0.020066036 0.004708941 0.0039017708 0.02403327 0.04404859
0.033546682 -0.015094472 -0.01909906 -0.010298888 0.029859757 -0.03613488 0.00028195188 0.018801603
-0.03068076 0.040846344 -0.03777218 -0.007622837 -0.024438597 0.04100944 0.0023541544 -0.008177247
-0.0427754 0.02677665 0.03961389 -0.007967298 0.013807555 -0.025451332 0.02594622 0.0052391114
0.023808865 0.006711095 0.024161428 0.0070409784 0.033164985 0.0066543077 0.014794244 0.038574956
-0.00058412895 -0.011757153 0.02888412 0.026772046 0.038590245 0.0028630565 0.034171253 0.021910334
0.00022211915 0.02681608 0.0023680627 0.03585311 -0.025315046 0.022445489 -0.018233132 0.0006143114
0.019410795 -0.02545303 0.011223158 -0.003961967 -0.04205042 0.019276708 0.010142976 -0.0031861858
0.013927078 0.040777724 -0.0027846633 -0.0062942314 0.026037617 -0.019537129 -0.008169265 0.018566882
0.038098358 -0.035874758 0.007533322 -0.0067280014 -0.035688434 -0.041113775 -0.042048056 0.037812077
0.004519628 -0.008606497 -0.024467694 -0.013076555 0.038365863 0.037619364 0.015144521 -0.010911018
-0.004930517 0.040261183 0.013979187 -0.033862017 0.01497792 0.033022918 0.0045494307 -0.034664053
0.03473104 -0.0063911956 -0.012661798 0.0094961645 -0.030302335 -0.036657106 0.014508736 0.037703354
-0.027237037 0.041370213 -0.039515395 -0.009230528 0.019447304 0.0030559204 0.02954815 0.03943382
0.004134806 0.015757905 0.0063036564 0.04091598 -0.036486242 0.008559145 -0.033973888 0.030948756
-0.03578762 0.016477142 0.015866097 0.0072221574 0.024249969 0.033325538 -0.034349866 -0.019703962
-0.020187935 0.0076857726 -0.0141785685 -0.03524325 -0.010086067 0.04203637 -0.018972324 -0.005448739
0.0015973761 0.040658254 -0.026732223 -0.007709528 -0.037296098 -0.015211161 0.018944755 -0.009083152
-0.007598281 0.008226649 0.0020374681 -0.007842064 -0.038528893 -0.0041936375 -0.00310578 0.03940732
0.005984726 0.025217222 0.040375188 0.0057027005 0.024317993 -0.032869436 -0.03877993 -0.014439584
00000000: 48fe 0d3c 2ed2 033d aacd e0bc bfcc 9d3c
00000010: 164a 1dbc 309f 93bb 4393 213d 50da 343d
00000020: 9b6a 01bd 0b27 ec3c 4e3d a33b 3d92 eebc
00000030: 79ce 2ebd 7e0d a6bb 9d65 9e3c fdd2 c53c
00000040: 5c09 2ebc 6773 f83c 1a9f 15bd 0c36 01bd
00000050: a39f c23c 65e3 f7bc 5b08 843c d3ed a5bc
00000060: 1e57 06bd 7923 01bd f023 263d 3255 0abd
00000070: 0a1a 003d e2eb 1b3d 8cd9 82bc e8e0 163d
00000080: 01ae 213d 0c13 24bd 289e babc 955e 553c
00000090: 91ab b2bc 2bc9 833b f1b9 9f3c f1ef df3c
000000a0: 98e9 38bc 9373 623c 5447 2dbd 2cf1 a33c
000000b0: ce8c 453b 6a75 fc3c fb0e 57ba dc23 113d
000000c0: ae12 c43c e632 313d 67de b63b 3266 cb3b
000000d0: 1b45 b1bc 0a5d 073d 1925 983c 2fa9 32bd
000000e0: 2590 9f3a a0e7 9b3c aa67 343d d1da 0cbd
000000f0: b2ac bebc b8c8 6ebc 624e 6fbc 88d6 143d
00000100: 4e18 46bc 8320 66bb edb2 0fbd 566d 333d
00000110: ee2b bd3b b313 2f3d 2ff6 3dbc 7de0 1f3c
00000120: 4324 933c abb4 9dbc 61fd b03c de0a 7d3c
00000130: 550c f4bb 72a5 0a3c 2cab 30bd 1ad5 14bc
00000140: 3a92 6ebc 8f40 93bc a6a5 ddbb 1f8a e53b
00000150: d710 2ebd e27c 263d 0dd3 c33c 295e 5e3b
00000160: b553 45bc aa58 f0bc 10e8 743b 3407 933c
00000170: 16b9 133c b522 0b3d d1c4 e8bc 6491 193c
00000180: bc50 54bb b5cc 8bbc 3c02 f8ba 8761 a4bc
00000190: 764d 9a3b dab4 7f3b 6ce1 c43c 4b6c 343d
000001a0: 3f68 093d ce4e 77bc a275 9cbc abbc 28bc
000001b0: 739c f43c 2b02 14bd f1d2 9339 d205 9a3c
000001c0: 3856 fbbc 7f4e 273d 00b7 1abd fec8 f9bb
000001d0: 7433 c8bc 84f9 273d 2848 1a3b dcf9 05bc
000001e0: 4235 2fbd b55a db3c 2d42 223d 4589 02bc
000001f0: 1539 623c 507f d0bc 2b8d d43c daac ab3b
00000200: cf0a c33c bfe8 db3b 30ee c53c 02b8 e63b
00000210: 02d8 073d 610c da3b 8f63 723c c600 1e3d
00000220: 3b20 19ba 13a1 40bc 649e ec3c 0d51 db3c
00000230: ce10 1e3d 1ea2 3b3b 28f7 0b3d 4d7d b33c
00000240: a8e8 6839 65ad db3c 8031 1b3b b6da 123d
00000250: 8061 cfbc 9adf b73c a65d 95bc bd09 213a
00000260: 6303 9f3c df82 d0bc 56e1 373c 63d3 81bb
00000270: 103d 2cbd 30ea 9d3c ba2e 263c 54cf 50bb
00000280: 662e 643c 8b06 273d e67e 36bb d73f cebb
00000290: d74c d53c 540c a0bc 62d8 05bc 9319 983c
000002a0: 060d 1c3d 69f1 12bd 16da f63b 9176 dcbb
000002b0: 092e 12bd eb66 28bd 953a 2cbd d6e0 1a3d
000002c0: 6319 943b 4402 0dbc 7970 c8bc 0c3f 56bc
000002d0: 8625 1d3d c316 1a3d ba20 783c 20c4 32bc
000002e0: 2d90 a1bb e9e8 243d f608 653c e6b2 0abd
000002f0: f365 753c 0a43 073d 6413 953b e5fb 0dbd
00000300: 2342 0e3d 3c6d d1bb 6e73 4fbc cd95 1b3c
00000310: 9a3c f8bc c325 16bd 0db6 6d3c d56e 1a3d
00000320: 3520 dfbc d073 293d e5da 21bd a43b 17bc
00000330: f44f 9f3c d645 483b f60e f23c 5b85 213d
00000340: 447d 873b b916 813c e78e ce3b 8497 273d
00000350: 9972 15bd a83b 0c3c 3428 0bbd 3f88 fd3c
00000360: 0a96 12bd 12fb 863c 9ef9 813c d9a7 ec3b
00000370: dfa7 c63c 5c80 083d 72b2 0cbd 346a a1bc
00000380: 2b61 a5bc efd8 fb3b 3a4d 68bc 3a5b 10bd
00000390: 0840 25bc 542e 2c3d d96b 9bbc 568b b2bb
000003a0: 0c5f d13a 4589 263d 89fd dabc 35a0 fcbb
000003b0: cbc3 18bd 3c38 79bc 0832 9b3c 80d1 14bc
000003c0: 00fb f8bb 11c9 063c 0b87 053b 007c 00bc
000003d0: 79d0 1dbd c86a 89bb 588a 4bbb 9269 213d
000003e0: 851b c43b 5994 ce3c 7460 253d b8dd ba3b
000003f0: 8736 c73c 1aa2 06bd b4d7 1ebd 0194 6cbc
