RL_Project/checkpoints/2023-12-05/17-10-47/0.pt (torch, 185545 bytes, 8 tensors)

actor_critic.std f4 [12]
0	0x3f7fbe77	0.999
1	0x3f7fbe77	0.999
2	0x3f7fbe77	0.999
3	0x3f8020c5	1.001
4	0x3f7fbe77	0.999
5	0x3f7fbe77	0.999
6	0x3f8020c5	1.001
7	0x3f8020c5	1.001
8	0x3f8020c5	1.001
9	0x3f8020c5	1.001
10	0x3f7fbe77	0.999
11	0x3f8020c5	1.001

actor_critic.actor.model.0.linear.weight f4 [512, 37]
0	0xbdaf1a59	-0.08549947
1	0xbd158f11	-0.036513392
2	0x3dcefe15	0.10107056
3	0x3df1a3ea	0.11798842
4	0x3c927470	0.017877787
5	0x3d6f58f5	0.058434445
6	0xbe149d07	-0.14513026
7	0x3c19b261	0.009380908
8	0xbd99f2e0	-0.07517028
9	0xbe071202	-0.13190463
10	0x3e0423bd	0.12904258
11	0x3c8807b3	0.016605234
12	0x3e1196c3	0.14217667
13	0xbe15dde9	-0.14635433
14	0xbd8b7dfa	-0.068111375
15	0xbc02cdf2	-0.0079836715
16	0xbd34e178	-0.044160336
17	0x3c28cd9a	0.0103029255
18	0xbe09c802	-0.13455203
19	0x3de1b38d	0.11020575
20	0xbda7cb37	-0.08193057
21	0xbc04e25b	-0.008110608
22	0xbe24d581	-0.1609707
23	0xbd9c27b5	-0.07624761
24	0xbdacb194	-0.08432308
25	0x3e22c63b	0.15895931
26	0xbdf73c1d	-0.120720126
27	0xbae110ab	-0.0017171105
28	0x3cc83898	0.024441049
29	0x3c9d2d3c	0.019186608
30	0x3d963a66	0.07335357
31	0xbde604e4	-0.112314016
32	0xbe00a8a2	-0.12564328
33	0xbe0fd62f	-0.14046548
34	0xbce708a2	-0.028202359
35	0x3e1ab5ad	0.15108366
36	0xbc173352	-0.009228544
37	0x3c8cb147	0.017174376
38	0x3ce16f66	0.02751894
39	0xbe213b96	-0.15745386
40	0x3e04328f	0.12909912
41	0x3e0fa381	0.14027216
42	0xbc473890	-0.012159482
43	0x3cc3867b	0.023867836
44	0x3deed13f	0.11661004
45	0x3de3113d	0.11087272
46	0xbd9fc084	-0.07800391
47	0x3e00b606	0.12569436
48	0xbe28e03c	-0.16491789
49	0xbd171c5a	-0.036892273
50	0x3cbf6a8e	0.023366239
51	0xbd79ddfa	-0.06100271
52	0xbd34e10c	-0.044159934
53	0x3dda9a20	0.10673928
54	0x3bc12128	0.005893845
55	0x3e0e59e8	0.13901484
56	0xbd316b03	-0.043314945
57	0x3d8fb463	0.07016828
58	0x3e0f4dd8	0.13994539
59	0xbe268aaf	-0.16263841
60	0x3dea017b	0.114260636
61	0x3e229c13	0.1587985
62	0x3d72e15b	0.059296947
63	0x3dccadc4	0.09994081
64	0x3ca9dfc1	0.020736577
65	0xbdebd975	-0.11516086
66	0xbc8702cc	-0.016480826
67	0x3d95fc00	0.07323456
68	0xbd3009cb	-0.04297809
69	0xbe088325	-0.13331278
70	0xbd49999e	-0.049218766
71	0x3b1fa9e8	0.0024362747
72	0xbd81b4fe	-0.0633335
73	0x3d9d3674	0.07676402
74	0x3dc926af	0.098218314
75	0x3d70c76f	0.058783945
76	0x3d3b1dd5	0.045682747
77	0xbdf47ad5	-0.11937491
78	0xbe20e293	-0.15711431
79	0xbdc367d5	-0.09541289
80	0xbda96a44	-0.08272222
81	0xbde92fa8	-0.11386043
82	0xbd343932	-0.04399986
83	0x3d93cd14	0.0721685
84	0x3e09020d	0.13379689
85	0x3e13a38c	0.14417857
86	0xbd850e2b	-0.06496843
87	0xbdbfefda	-0.0937192
88	0x3d9db9a0	0.07701421
89	0x3e25bbee	0.1618497
90	0xbda90c54	-0.082543045
91	0x3d5ce77f	0.05393171
92	0x3e08b166	0.13348922
93	0xbdecf944	-0.11570981
94	0x3cd81792	0.026378427
95	0x3e237ea2	0.15966275
96	0x3e073985	0.13205536
97	0xbd41564e	-0.047201447
98	0xbd8a8f4e	-0.067656144
99	0x3ddb138d	0.106970884
100	0xbda3e396	-0.08002393
101	0xbdcf0574	-0.10108462
102	0xbd81373a	-0.06309362
103	0xbc326d42	-0.010890307
104	0xbe2826f6	-0.16421112
105	0x3e21187a	0.15731993
106	0xbdc3e341	-0.095648296
107	0xbd66f09b	-0.056381803
108	0xbcc0fa76	-0.02355693
109	0x3cac063f	0.020999072
110	0x3d4dada9	0.050214443
111	0x3d883aca	0.06651838
112	0xbd30cb80	-0.043162823
113	0xbd8033f7	-0.062599115
114	0x3da0d91a	0.07853909
115	0xbbdb0406	-0.0066838292
116	0xbc9b88db	-0.018986156
117	0x3e07bce0	0.13255644
118	0x3df2fb7f	0.11864375
119	0x3e103dee	0.14086124
120	0xbdd7f5fd	-0.105449654
121	0x3dd73308	0.1050778
122	0x3cb64ae7	0.022252513
123	0xbaff9742	-0.0019500034
124	0x3e1bdc4d	0.15220757
125	0xbde23d03	-0.11046793
126	0x3b99e4ef	0.0046964805
127	0xbd4ea979	-0.05045459
128	0xbcebd592	-0.028788362
129	0x3de4ea09	0.11177451
130	0xbd82f122	-0.06393649
131	0xbd7be601	-0.061498646
132	0xbde643da	-0.112434104
133	0x3de7a58a	0.11310871
134	0x3e0786e4	0.1323505
135	0x3e19a4dc	0.15004295
136	0xbc5596ae	-0.013036413
137	0x3d6496aa	0.055807747
138	0xbd5ebf26	-0.054381512
139	0xbd929ecc	-0.07159194
140	0x3dabd66f	0.08390509
141	0x3e26390b	0.16232698
142	0xbd4289a2	-0.047494538
143	0x3c91bcf3	0.017790293
144	0x3e218ba6	0.15775928
145	0xbe19dfee	-0.15026829
146	0xbe02c3eb	-0.1277005
147	0xbe133e81	-0.14379312
148	0xbe1f98fe	-0.15585706
149	0xbe2183d6	-0.15772948
150	0xbd9f2ff5	-0.07772819
151	0xbde6f480	-0.112771034
152	0xbd8a1386	-0.06742005
153	0x3d439f65	0.047759432
154	0x3d8fcfec	0.0702208
155	0xbe14fcff	-0.14549635
156	0xbe1f666f	-0.15566419
157	0xbd336932	-0.043801494
158	0xbbf2e572	-0.007412606
159	0xbd9ac470	-0.07556999
160	0x3b6c7ae6	0.0036083995
161	0xbe00d91e	-0.12582824
162	0xbdae06b5	-0.08497373
163	0x3dbdadcc	0.09261665
164	0xbd43fbf5	-0.047847707
165	0x3d7a4820	0.06110394
166	0x3dfaa856	0.12239139
167	0xbde3cd17	-0.11123102
168	0xbe137bc9	-0.14402689
169	0xbdf51a2f	-0.11967885
170	0x3d871e0a	0.06597526
171	0x3da19680	0.07890034
172	0xbe0630ca	-0.13104549
173	0xbd8f8506	-0.07007794
174	0xbd52b616	-0.051443182
175	0x3d99b93c	0.07506034
176	0x3e1597f0	0.14608741
177	0x3df5c3f9	0.120002694
178	0x3d684f20	0.056716084
179	0xbca916eb	-0.020640811
180	0x3dc236cb	0.09483107
181	0xbdefacde	-0.11702894
182	0x3e049e76	0.12951073
183	0xbdeff7a8	-0.117171586
184	0x3dd1688c	0.10225019
185	0xbe07a257	-0.13245521
186	0xbd881219	-0.06644077
187	0x3e149c76	0.1451281
188	0x3e18eff2	0.14935282
189	0x3d9f205e	0.077698454
190	0xbd979eb5	-0.07403318
191	0xbdb02502	-0.08600809
192	0xbd43515d	-0.047685016
193	0xbdefe504	-0.11713603
194	0x3d50d10c	0.050980613
195	0x3d6b4b5d	0.05744492
196	0x3ca9f93d	0.020748729
197	0x3d7d3b85	0.06182434
198	0xbddbbf3c	-0.107298344
199	0xbdb91f19	-0.090391345
200	0x3d92a4d1	0.071603425
201	0x3ddcf049	0.10788018
202	0xbc9f4dc4	-0.019446261
203	0x3daeb7e1	0.08531166
204	0xbdf18abb	-0.11794039
205	0xbd97c58f	-0.07410728
206	0x3e1ea566	0.15492782
207	0xbbf95a80	-0.0076096654
208	0xbd154af7	-0.036448445
209	0xbd0fc9d0	-0.035104573
210	0xbdfe5e63	-0.124203466
211	0xbe1f02e6	-0.1552845
212	0xbe0e152b	-0.13875262
213	0x3df0f427	0.11765318
214	0x3e035afa	0.12827674
215	0x3da3bb87	0.079947524
216	0xbe229252	-0.1587613
217	0xbd8487f0	-0.064712405
218	0x3d3e70ae	0.04649418
219	0xbcf04f59	-0.02933471
220	0xbdfd24c5	-0.12360529
221	0xbdd0e35a	-0.10199614
222	0x3d19fcd7	0.037594642
223	0xbdf4da9a	-0.119557574
224	0xbd497a67	-0.049188998
225	0xbd47f775	-0.048819978
226	0x3de06e05	0.109584846
227	0xbd962f59	-0.073332496
228	0xbd07c427	-0.03314605
229	0x3c978cc9	0.018499749
230	0xbd5363fe	-0.05160903
231	0x3e0266a4	0.12734467
232	0x3de6a4d6	0.11261909
233	0x3d85a190	0.06524956
234	0x3dd04405	0.10169224
235	0xbdfc8eac	-0.123319
236	0x3dc29856	0.09501712
237	0x3dcf573c	0.101240605
238	0xbe1511b1	-0.1455753
239	0xbdb195dd	-0.08671162
240	0x3e0477a8	0.1293627
241	0xbdfa0d0a	-0.12209518
242	0x3ddecb87	0.108786635
243	0x3cdd47cf	0.02701178
244	0x3e1a4f26	0.15069255
245	0xbe0a5ec6	-0.13512716
246	0x3c5e6e6f	0.013576134
247	0x3e18ee09	0.14934553
248	0x3ba3c627	0.004997987
249	0x3e162073	0.14660816
250	0x3e0fc44b	0.14039724
251	0xbe0107a8	-0.12600577
252	0x3d85ab69	0.065268345
253	0xbe158d4c	-0.14604682
254	0x3dab2e13	0.08358397
255	0xbcadb825	-0.021205971

actor_critic.actor.model.0.linear.bias f4 [512]
0	0xba831268	-0.0009999992
1	0x3a83124b	0.0009999959
2	0xba831252	-0.0009999967
3	0x3a831253	0.0009999968
4	0xba831263	-0.0009999987
5	0x3a831263	0.0009999987
6	0xba83125c	-0.0009999978
7	0x3a8311e4	0.0009999839
8	0xba831252	-0.0009999967
9	0xba831229	-0.0009999919
10	0xba831264	-0.0009999988
11	0xba83125c	-0.0009999978
12	0xba83124c	-0.000999996
13	0xba831256	-0.0009999971
14	0xba831269	-0.0009999993
15	0xba831259	-0.0009999975
16	0xba83124a	-0.0009999957
17	0xba831254	-0.0009999969
18	0xba831263	-0.0009999987
19	0x3a831263	0.0009999987
20	0xba831264	-0.0009999988
21	0x3a831258	0.0009999974
22	0xba8311c8	-0.0009999806
23	0x3a83125b	0.0009999977
24	0xba831265	-0.0009999989
25	0xba83125c	-0.0009999978
26	0x3a83125f	0.0009999982
27	0xba831260	-0.0009999983
28	0xba831268	-0.0009999992
29	0x3a831250	0.0009999964
30	0x3a831242	0.0009999948
31	0x3a831267	0.0009999991
32	0xba831255	-0.000999997
33	0xba831200	-0.0009999871
34	0xba831268	-0.0009999992
35	0xba83122d	-0.0009999924
36	0xba831265	-0.0009999989
37	0x3a831263	0.0009999987
38	0x3a831249	0.0009999956
39	0xba831269	-0.0009999993
40	0xba831260	-0.0009999983
41	0xba831268	-0.0009999992
42	0x3a831146	0.0009999655
43	0x3a8310c8	0.0009999508
44	0xba831263	-0.0009999987
45	0x3a831210	0.000999989
46	0xba831212	-0.0009999892
47	0x3a831262	0.0009999985
48	0xba831264	-0.0009999988
49	0x3a831259	0.0009999975
50	0xba83125b	-0.0009999977
51	0x3a8305cb	0.0009996233
52	0xba83125d	-0.000999998
53	0x3a83125c	0.0009999978
54	0x3a831261	0.0009999984
55	0xba83124e	-0.0009999962
56	0x3a831016	0.0009999301
57	0xba831268	-0.0009999992
58	0x3a831255	0.000999997
59	0x3a831267	0.0009999991
60	0x3a831264	0.0009999988
61	0x3a831251	0.0009999966
62	0x3a83119d	0.0009999756
63	0xba831262	-0.0009999985
64	0x3a831241	0.0009999947
65	0x3a831248	0.0009999955
66	0x3a831260	0.0009999983
67	0xba831265	-0.0009999989
68	0x3a831267	0.0009999991
69	0x3a831267	0.0009999991
70	0x3a8311bc	0.0009999792
71	0x3a831264	0.0009999988
72	0x3a831257	0.0009999973
73	0x3a831256	0.0009999971
74	0x3a8310f9	0.0009999565
75	0xba831251	-0.0009999966
76	0xba83125b	-0.0009999977
77	0x3a831255	0.000999997
78	0xba831264	-0.0009999988
79	0x3a831254	0.0009999969
80	0xba831262	-0.0009999985
81	0x3a831266	0.000999999
82	0xba83125e	-0.0009999981
83	0x3a831266	0.000999999
84	0x3a831143	0.0009999651
85	0x3a831249	0.0009999956
86	0x3a831023	0.0009999316
87	0xba83124e	-0.0009999962
88	0xba83123e	-0.0009999943
89	0x3a831265	0.0009999989
90	0x3a831263	0.0009999987
91	0xba831261	-0.0009999984
92	0x3a831266	0.000999999
93	0xba83125f	-0.0009999982
94	0x3a831263	0.0009999987
95	0xba831266	-0.000999999
96	0xba83123f	-0.0009999945
97	0x3a83125c	0.0009999978
98	0x3a831235	0.0009999933
99	0x3a831245	0.0009999952
100	0xba831266	-0.000999999
101	0x3a83124f	0.0009999963
102	0xba831261	-0.0009999984
103	0xba831247	-0.0009999954
104	0x3a831267	0.0009999991
105	0xba83125f	-0.0009999982
106	0xba831260	-0.0009999983
107	0xba831260	-0.0009999983
108	0x3a83124c	0.000999996
109	0x3a831265	0.0009999989
110	0xba831257	-0.0009999973
111	0xba831262	-0.0009999985
112	0xba83125f	-0.0009999982
113	0x3a831182	0.0009999725
114	0x3a831263	0.0009999987
115	0x3a831213	0.0009999893
116	0x3a831267	0.0009999991
117	0xba831222	-0.0009999911
118	0xba831269	-0.0009999993
119	0x3a831261	0.0009999984
120	0x3a8310ca	0.000999951
121	0x3a83125e	0.0009999981
122	0xba83125f	-0.0009999982
123	0x3a8311ff	0.000999987
124	0xba8311bb	-0.0009999791
125	0xba831201	-0.0009999872
126	0xba831264	-0.0009999988
127	0x3a83125d	0.000999998
128	0xba831231	-0.0009999928
129	0xba831265	-0.0009999989
130	0xba831240	-0.0009999946
131	0xba831264	-0.0009999988
132	0xba831252	-0.0009999967
133	0x3a83124a	0.0009999957
134	0x3a831264	0.0009999988
135	0xba83125c	-0.0009999978
136	0xba83122c	-0.0009999922
137	0x3a831268	0.0009999992
138	0x3a83123b	0.000999994
139	0x3a831259	0.0009999975
140	0x3a83125e	0.0009999981
141	0xba831230	-0.0009999927
142	0x3a831248	0.0009999955
143	0xba831229	-0.0009999919
144	0xba831252	-0.0009999967
145	0x3a831260	0.0009999983
146	0xba831264	-0.0009999988
147	0x3a831268	0.0009999992
148	0xba83121b	-0.0009999903
149	0x3a831269	0.0009999993
150	0xba831261	-0.0009999984
151	0x3a831260	0.0009999983
152	0xba83125b	-0.0009999977
153	0xba83124c	-0.000999996
154	0xba831257	-0.0009999973
155	0x3a831240	0.0009999946
156	0x3a831260	0.0009999983
157	0x3a831253	0.0009999968
158	0x3a831260	0.0009999983
159	0xba831250	-0.0009999964
160	0x3a831257	0.0009999973
161	0xba831242	-0.0009999948
162	0xba831266	-0.000999999
163	0x3a83125e	0.0009999981
164	0x3a831267	0.0009999991
165	0x3a83125b	0.0009999977
166	0xba831260	-0.0009999983
167	0xba831256	-0.0009999971
168	0x3a831257	0.0009999973
169	0xba831266	-0.000999999
170	0xba831259	-0.0009999975
171	0xba83124b	-0.0009999959
172	0xba83124e	-0.0009999962
173	0xba8311f4	-0.0009999857
174	0x3a831261	0.0009999984
175	0xba831261	-0.0009999984
176	0xba83113d	-0.0009999644
177	0xba831238	-0.0009999936
178	0x3a83125d	0.000999998
179	0xba831263	-0.0009999987
180	0x3a831261	0.0009999984
181	0x3a830dbe	0.0009998602
182	0xba831015	-0.00099993
183	0xba831234	-0.0009999932
184	0xba831263	-0.0009999987
185	0xba8311c3	-0.00099998
186	0x3a831263	0.0009999987
187	0xba831269	-0.0009999993
188	0xba8310dc	-0.0009999531
189	0xba83122f	-0.0009999926
190	0x3a831253	0.0009999968
191	0x3a831254	0.0009999969
192	0x3a831264	0.0009999988
193	0xba831268	-0.0009999992
194	0x3a83113f	0.0009999647
195	0xba83123f	-0.0009999945
196	0xba831263	-0.0009999987
197	0xba831250	-0.0009999964
198	0x3a831262	0.0009999985
199	0xba831266	-0.000999999
200	0xba83125d	-0.000999998
201	0xba8311ca	-0.0009999808
202	0xba83124f	-0.0009999963
203	0x3a831260	0.0009999983
204	0xba831221	-0.000999991
205	0xba83123e	-0.0009999943
206	0x3a831243	0.0009999949
207	0xba831238	-0.0009999936
208	0xba831254	-0.0009999969
209	0xba8311fc	-0.0009999867
210	0xba831262	-0.0009999985
211	0x3a83125e	0.0009999981
212	0x3a83125a	0.0009999976
213	0x3a831250	0.0009999964
214	0x3a83121d	0.0009999905
215	0xba831254	-0.0009999969
216	0xba831263	-0.0009999987
217	0x3a8310d7	0.0009999526
218	0xba831262	-0.0009999985
219	0xba831263	-0.0009999987
220	0xba830f53	-0.0009999074
221	0xba831261	-0.0009999984
222	0x3a831239	0.0009999938
223	0x3a83122d	0.0009999924
224	0x3a831265	0.0009999989
225	0x3a831077	0.0009999414
226	0x3a831265	0.0009999989
227	0xba831257	-0.0009999973
228	0x3a831264	0.0009999988
229	0xba831230	-0.0009999927
230	0xba831265	-0.0009999989
231	0xba831262	-0.0009999985
232	0x3a83125a	0.0009999976
233	0x3a831264	0.0009999988
234	0x3a831255	0.000999997
235	0xba831254	-0.0009999969
236	0xba831219	-0.00099999
237	0x3a83125f	0.0009999982
238	0xba831260	-0.0009999983
239	0x3a83125b	0.0009999977
240	0x3a830e7f	0.0009998827
241	0xba831265	-0.0009999989
242	0x3a831266	0.000999999
243	0xba831260	-0.0009999983
244	0xba83125d	-0.000999998
245	0x3a831263	0.0009999987
246	0xba831265	-0.0009999989
247	0xba831263	-0.0009999987
248	0x3a831255	0.000999997
249	0x3a831264	0.0009999988
250	0xba83125e	-0.0009999981
251	0x3a831265	0.0009999989
252	0xba831135	-0.0009999635
253	0x3a83125b	0.0009999977
254	0x3a831264	0.0009999988
255	0x3a83125e	0.0009999981

actor_critic.actor.model.1.linear.weight f4 [12, 512]
0	0x3d18e937	0.037331786
1	0x3c9f9341	0.019479396
2	0x3a9264f4	0.0011169002
3	0x3bbd7dd8	0.005782824
4	0xbb77f796	-0.0037836782
5	0x3ccff586	0.02538563
6	0xbca919eb	-0.020642241
7	0x3d17a716	0.03702458
8	0x3c712b5c	0.01471981
9	0x3d0902c4	0.033449903
10	0x3c7e9b52	0.015539961
11	0xbc350dd2	-0.011050658
12	0xbcb35a81	-0.021893742
13	0x3cb7de2e	0.02244481
14	0xbd0cb6c3	-0.034353983
15	0x3c18e6cb	0.009332369
16	0xbcd1af3b	-0.025596252
17	0xbc40a65e	-0.011758415
18	0xbd1d7465	-0.03844108
19	0xbd200972	-0.039071508
20	0x3d0a6708	0.033789665
21	0x3d26c4a1	0.040714864
22	0xbc78b606	-0.0151801165
23	0x3c0ebc43	0.008711877
24	0xbcb596da	-0.022166658
25	0xbd27631c	-0.040866002
26	0x3d113cb0	0.035458267
27	0xbcb33320	-0.021874964
28	0x3d025208	0.031816512
29	0xbc4084fa	-0.011750454
30	0xbc1efc1b	-0.009703661
31	0x3d1b2320	0.037875295
32	0xbced264d	-0.028948927
33	0x3ca2b80b	0.01986315
34	0xbd31a4ea	-0.043370165
35	0x3ca5f646	0.020259034
36	0xbd27c836	-0.04096242
37	0xbc5111ee	-0.012760622
38	0x3c406d1c	0.011744764
39	0x3cee9652	0.029124413
40	0x3ba9b9b4	0.0051796082
41	0xbce45916	-0.02787451
42	0xbd2ef5fe	-0.042715065
43	0x3d386131	0.045014564
44	0xbccb74c5	-0.024835953
45	0x3cba77a0	0.02276212
46	0xbd2186ec	-0.039435312
47	0xbc0d9a4e	-0.008642746
48	0xbcc0a59b	-0.023516467
49	0x3cb75191	0.022377761
50	0xbc8f8ac1	-0.017522218
51	0x3cba7011	0.022758516
52	0xbc8d734c	-0.017266892
53	0x3d1dab2c	0.03849332
54	0x3d22b3dd	0.039722312
55	0x3c37d44a	0.011220047
56	0x3cc05601	0.02347851
57	0x3d2a6e0c	0.041608855
58	0xbcf4a54a	-0.029863972
59	0x3c5c8c6e	0.013461215
60	0x3bceb14f	0.006307758
61	0x3b3a3a12	0.002841596
62	0x3d07e10b	0.033173602
63	0xbce8920b	-0.028389951
64	0x3d0fa8a3	0.035072934
65	0x3d2132ae	0.039354973
66	0x3d19d419	0.037555788
67	0x3c9fd07a	0.019508589
68	0xb9c8c688	-0.0003829489
69	0x3c4b0eca	0.012393663
70	0xbd0957e1	-0.033531073
71	0x3c84349c	0.016138367
72	0x3d2cf759	0.042228077
73	0x3d03dc23	0.03219236
74	0xbc7cd0e0	-0.015430659
75	0xba27bcaa	-0.00063986576
76	0xbd2f70c0	-0.042832136
77	0xbc6281f8	-0.013824932
78	0x3a5d52e2	0.00084428315
79	0x3cb30938	0.021854982
80	0xbd08d772	-0.03340859
81	0x3d24fd36	0.040280543
82	0xbc62b3ce	-0.013836814
83	0x3d0bfcc7	0.034176614
84	0xbcdaa266	-0.026688766
85	0xbd032e0e	-0.032026343
86	0xbcf66a73	-0.030080056
87	0x3d0474a6	0.032337807
88	0x3ce7fce2	0.028318826
89	0x3cd176aa	0.025569279
90	0x3cf586c8	0.029971495
91	0xbd1da6ec	-0.038489267
92	0x3d0dfb01	0.034663204
93	0x3bec9019	0.007219326
94	0x3c7c25fa	0.015389914
95	0xbd2045ea	-0.039129175
96	0x3cedc942	0.029026631
97	0x3c06604f	0.008201673
98	0xbc9d100b	-0.019172689
99	0x3d0d49a7	0.03449407
100	0xbce8dfc2	-0.028427009
101	0xbc2c7323	-0.010525498
102	0x3d05c927	0.032662537
103	0xbb517df0	-0.0031965934
104	0xbb3643b9	-0.0027811362
105	0x3bb8e094	0.005642006
106	0xbd2e8899	-0.04261074
107	0x3b510504	0.0031893859
108	0xbc5a5314	-0.013325471
109	0xbca3cd70	-0.019995421
110	0x3c1e077e	0.009645341
111	0xbd2421f2	-0.040071435
112	0x3d114090	0.035461962
113	0xbcf2a1bc	-0.029618137
114	0x3c86cb8b	0.016454479
115	0x3d1a0cc5	0.037609834
116	0x3d07db38	0.033168048
117	0xbcbafad1	-0.022824677
118	0xbb12b374	-0.0022384794
119	0xbca351f0	-0.019936532
120	0x3d341951	0.043969456
121	0xbc3cd4ef	-0.011525377
122	0xbd2a5f7b	-0.041594964
123	0x3d2900c0	0.04126048
124	0xbc17b4db	-0.009259428
125	0xbc54faa6	-0.012999212
126	0x3c9a2d79	0.018820511
127	0x3d34d47b	0.04414795
128	0xbc93d8d3	-0.018047726
129	0xbd2b1620	-0.041769147
130	0x3cc9b0c4	0.024620421
131	0xbc28b727	-0.010297573
132	0x3c7e0280	0.015503526
133	0x3d1d37d3	0.038383316
134	0xbc6e7bbd	-0.014555869
135	0x3bb1984a	0.0054197656
136	0x3caa3442	0.020776872
137	0x3d14f73c	0.036368594
138	0x3c85ea68	0.016347125
139	0x3d138ddd	0.036023963
140	0xbc7d7fa5	-0.015472327
141	0x3ce552b4	0.027993537
142	0x3c42f9a3	0.011900338
143	0xbcba25a0	-0.02272302
144	0x3c94589f	0.018108664
145	0xbce65f56	-0.028121632
146	0xbd0c0fa2	-0.034194596
147	0x3d32b3ed	0.04362862
148	0xbbd4aac6	-0.0064900843
149	0x3ce552d1	0.027993592
150	0x3baf42c9	0.0053485376
151	0xbd2838b0	-0.041069686
152	0xba064d26	-0.00051231903
153	0xbcf4325b	-0.029809168
154	0x3cceab74	0.02522824
155	0xbc04c432	-0.008103417
156	0x3d28aa2d	0.041177917
157	0xbcebd255	-0.028786818
158	0x3ca2bed6	0.019866388
159	0x3cc24bc1	0.023717763
160	0xbbc64968	-0.006051231
161	0x3ce62a7f	0.028096436
162	0x3cde77e3	0.027156776
163	0xbd0d3bc5	-0.03448083
164	0xbbf7beeb	-0.007560601
165	0xbd2f3d82	-0.042783268
166	0xbd19d9c3	-0.03756119
167	0x3c608589	0.013703712
168	0xbcf5a538	-0.029986009
169	0xbc7d09a4	-0.015444193
170	0x3ca680b3	0.02032504
171	0x3d1ec18d	0.038758803
172	0xbc33091a	-0.010927463
173	0x3c76edc3	0.015071335
174	0x3d35a75c	0.04434906
175	0xbca6f2a5	-0.020379374
176	0x3cfaec2e	0.030630197
177	0xbcb3f82b	-0.021968922
178	0x3d2af964	0.041741744
179	0x3cc0277a	0.023456324
180	0x3d13e586	0.036107562
181	0x3ceded39	0.02904378
182	0xbc86095b	-0.016361883
183	0x3d0fb137	0.035081115
184	0x3d38e4e9	0.04514018
185	0xbc1eb89e	-0.009687571
186	0x3c2c12b0	0.010502502
187	0xbbaf8799	-0.0053567407
188	0xbd130cbf	-0.035900827
189	0x3d38c572	0.045110174
190	0xbc864ed2	-0.016395006
191	0xbd1eebbe	-0.03879904
192	0x3a62abd7	0.0008646822
193	0xbd014a08	-0.031564742
194	0xbc6f3f14	-0.014602441
195	0xbd14e916	-0.0363551
196	0x3baa4068	0.005195666
197	0xbd0ffc38	-0.035152644
198	0xbc78d040	-0.015186369
199	0xbcc55fd8	-0.024093553
200	0xbcaa3066	-0.020775031
201	0x3cfdbc85	0.030973682
202	0xbd1abca9	-0.037777577
203	0xbcd6ab10	-0.026204616
204	0xbd14ebb5	-0.0363576
205	0xbd036cc8	-0.032086164
206	0xbc066292	-0.008202212
207	0x3c427c3c	0.01187044
208	0x3a835297	0.001001912
209	0xbcebab65	-0.02876825
210	0x3d13d221	0.036089066
211	0xbcb06f31	-0.021537395
212	0x3c2c6eec	0.010524493
213	0xba9b4c4a	-0.0011848297
214	0x3bee923f	0.0072806175
215	0xbbb46b46	-0.005505952
216	0xbd2bc90a	-0.041939773
217	0xbc187aac	-0.009306591
218	0xbc7a580e	-0.015279783
219	0xbc93dc07	-0.018049253
220	0xbd117ce7	-0.035519507
221	0xba5317da	-0.00080525654
222	0xbd31f8c2	-0.043450125
223	0xbc9e7ce3	-0.01934666
224	0x3ceb1966	0.028698634
225	0xbd32c161	-0.04364145
226	0x3c3168ee	0.01082824
227	0xbcf4635e	-0.029832538
228	0x3d369064	0.044571295
229	0xbce1b109	-0.027550237
230	0x3c8cbecc	0.017180823
231	0x3cc8a7da	0.0244941
232	0x3d0ac255	0.033876736
233	0xbce831fd	-0.028344149
234	0x3c164ec6	0.0091740545
235	0x3d023a68	0.03179398
236	0xbaf500ce	-0.0018692256
237	0x3d30d7bb	0.043174487
238	0xbcc59d2d	-0.024122799
239	0xbcf37f8d	-0.029723907
240	0xba8b5eee	-0.001063315
241	0xbc80e963	-0.015736287
242	0x3c25f511	0.010129229
243	0xbc845167	-0.016152097
244	0xbc79836b	-0.015229086
245	0x3cb91d27	0.022596909
246	0xbd0777a7	-0.033073094
247	0x3ce1aa03	0.027546888
248	0x3d2c517b	0.042069893
249	0x3d19db83	0.03756286
250	0xbbab8032	-0.005233788
251	0xbcba822f	-0.022767154
252	0xbc37e406	-0.011223799
253	0x3cf553c0	0.029947162
254	0x3c866f6f	0.016410558
255	0x3c27c838	0.010240607

actor_critic.actor.model.1.linear.bias f4 [12]
0	0x3a83126e	0.0009999999
1	0xba83126d	-0.0009999998
2	0x3a83126c	0.0009999997
3	0x3a83126d	0.0009999998
4	0xba83126c	-0.0009999997
5	0x3a83126c	0.0009999997
6	0xba83126d	-0.0009999998
7	0xba83126d	-0.0009999998
8	0x3a83126b	0.0009999996
9	0x3a83126c	0.0009999997
10	0x3a83126d	0.0009999998
11	0x3a83126b	0.0009999996

actor_critic.critic.model.0.linear.weight f4 [512, 37]
0	0xbafac133	-0.0019131064
1	0xbbc29882	-0.0059385905
2	0xbdd0f2f8	-0.102025926
3	0x3e1606f4	0.1465109
4	0xbd958b60	-0.07301974
5	0xbdace169	-0.08441431
6	0xbdd4ecbe	-0.103967175
7	0xbd7bc959	-0.061471317
8	0xbe117682	-0.14205363
9	0x3c4bb8dd	0.012434212
10	0xbd5d0079	-0.05395553
11	0x3e2411bb	0.16022389
12	0x3e1f6373	0.1556528
13	0xbcfd8283	-0.030946022
14	0x3dda65d3	0.10663953
15	0x3d1dbd62	0.038510688
16	0x3de061c9	0.10956151
17	0xbda7d80a	-0.08195503
18	0xbc7e5fac	-0.01552574
19	0x3cd0bf0a	0.02548172
20	0xbb17375b	-0.0023073766
21	0xbd2dc841	-0.042427305
22	0xbe0ba2dc	-0.13636345
23	0x3b8b8c8e	0.004258699
24	0xbbd2d068	-0.0064335354
25	0x3d32613b	0.043549757
26	0xbd73c0d2	-0.05951006
27	0xbddc7a65	-0.107655324
28	0x3b6e0f5c	0.0036325073
29	0xbe1a5200	-0.15070343
30	0x3df3255f	0.11872362
31	0xbda25487	-0.079262786
32	0x3d171607	0.03688624
33	0x3cc6c095	0.024261752
34	0x3e054be8	0.13017237
35	0xbd9a17a1	-0.07524038
36	0xbdf73c0c	-0.12072
37	0x3ad133ee	0.0015960911
38	0x3e112ea6	0.14177951
39	0x3e0457fc	0.12924188
40	0xbdf1a08c	-0.117982
41	0x3dc981ff	0.09839248
42	0x3e1d2138	0.15344703
43	0x3dd6e249	0.10492379
44	0xbd9a9218	-0.075473964
45	0x3e141c1e	0.14463851
46	0xbc8df3e7	-0.017328216
47	0xbd3e750a	-0.046498336
48	0xbcc4e882	-0.02403665
49	0xbd266d60	-0.040631652
50	0xbd392a10	-0.04520613
51	0xbdb53115	-0.08847252
52	0xbdf970df	-0.121797316
53	0xbd86635b	-0.06561919
54	0xbe12563a	-0.14290705
55	0xbda47cb7	-0.080316
56	0x3d4daf3a	0.050215937
57	0xbd86268f	-0.06550323
58	0xbe0e42bd	-0.13892646
59	0xbe0ba4fa	-0.13637152
60	0xbdc68082	-0.0969248
61	0xbe18c1af	-0.14917634
62	0xbcae46a3	-0.021273917
63	0xbe091d1d	-0.13390012
64	0x3c568bf9	0.0130948955
65	0x3db446e8	0.08802587
66	0xbb5398cf	-0.0032287126
67	0xbd327ca4	-0.043575898
68	0xb930e4b0	-0.0001686986
69	0xbd74100a	-0.05958561
70	0x3dfa2ed3	0.12215962
71	0x3b2c261b	0.002626783
72	0xbdf70cbe	-0.12062977
73	0xbe10c94d	-0.1413929
74	0x3de4f323	0.11179187
75	0x3e078a73	0.13236408
76	0xbdba0520	-0.09083009
77	0xbd5877a6	-0.05284848
78	0x3d87b49e	0.06626247
79	0xbdfbed2d	-0.12301097
80	0x3e283832	0.16427687
81	0x3cc772ea	0.024346787
82	0xbe21ca44	-0.15799814
83	0x3d959366	0.07303505
84	0x3ccedce6	0.025251817
85	0x3c2dcc88	0.010607846
86	0x3c8d46ea	0.017245729
87	0x3b9caf8b	0.0047816685
88	0xbde5e263	-0.112248205
89	0x3d926718	0.0714857
90	0x3e20e67d	0.15712924
91	0xbd654e56	-0.05598291
92	0xbe171760	-0.1475501
93	0x3de33a2d	0.110950805
94	0xbe0e1d1d	-0.13878293
95	0xbd0c18a0	-0.03420317
96	0x3e2240d0	0.15845037
97	0x3dd0488f	0.101700895
98	0xbc9e2b4e	-0.019307759
99	0xbdc74e14	-0.09731689
100	0xbd51166b	-0.05104677
101	0xbd360c27	-0.044445183
102	0xbdd16031	-0.10223425
103	0x3d92060a	0.07130058
104	0xbdd99b83	-0.10625365
105	0x3e2849cb	0.164344
106	0xbc4a2ab1	-0.01233928
107	0x3d6a1b5d	0.057155002
108	0xbc3a262b	-0.011361639
109	0xbda34f7c	-0.07974145
110	0xbe093337	-0.13398443
111	0x3b3fa5eb	0.0029243182
112	0xbdc37c04	-0.095451385
113	0xbe2009ce	-0.1562874
114	0xbccd09b8	-0.025029048
115	0xbca53848	-0.020168439
116	0xbdee9a08	-0.11650473
117	0xbdb66bda	-0.0890729
118	0xbdab704b	-0.083710276
119	0x3e23425a	0.1594328
120	0x39c1bbe3	0.00036951815
121	0x3cd758b1	0.026287409
122	0xbd2b81ef	-0.04187196
123	0x3c9276ee	0.017878976
124	0x3d310465	0.04321708
125	0x3d072032	0.03298969
126	0xbc2c6b3d	-0.0105236145
127	0x3d0fd7ab	0.035117786
128	0x3db31caa	0.087457016
129	0x3daaa775	0.08332721
130	0xbdaf34c8	-0.08554989
131	0x3c180ce9	0.009280422
132	0x3dbc68b3	0.09199657
133	0xbd2a1968	-0.041528136
134	0x3e26b7c7	0.16281043
135	0xbe1b582c	-0.15170354
136	0xbdd110dc	-0.10208294
137	0xbdf61ee8	-0.12017614
138	0xbe1d1a34	-0.15342027
139	0x3dbdcfc4	0.09268144
140	0xbd0244e9	-0.031804
141	0x3c058838	0.008150153
142	0xbc89d7c0	-0.01682651
143	0xbe10d461	-0.14143516
144	0xbd02581a	-0.0318223
145	0x3d1ef337	0.038806166
146	0x3db855e8	0.0900076
147	0x3cb82bd2	0.022481833
148	0x3deec2a9	0.11658222
149	0x3df4dee8	0.119565785
150	0x3e211e14	0.1573413
151	0x3e21a53a	0.15785685
152	0x3cf3107b	0.029670944
153	0x3d8b8e80	0.06814289
154	0xbd8eaf00	-0.06966972
155	0xbd91006b	-0.07080158
156	0xbdd54f6f	-0.104155414
157	0x3e1554e1	0.1458316
158	0x3b8ee344	0.0043605883
159	0xbdfc0cce	-0.1230713
160	0x3e059a4a	0.13047138
161	0xbdd9f2ac	-0.10641989
162	0x3e13bee5	0.14428289
163	0xbd485a8d	-0.04891448
164	0x3d40f3ff	0.047107693
165	0x3e129616	0.14315066
166	0xbc775e3e	-0.015098153
167	0xbd4edf2e	-0.05050581
168	0x3dc4357d	0.095805146
169	0xbd256d52	-0.04038746
170	0x3d9a2d8b	0.07528218
171	0x3d9d5068	0.07681352
172	0xbe1de9c9	-0.15421213
173	0x3d3eb237	0.046556678
174	0x3e275e94	0.16344672
175	0xbdabf6cd	-0.08396683
176	0x3df7f41f	0.12107109
177	0xbdff9410	-0.124794126
178	0xbd25f73b	-0.04051898
179	0x3d52371a	0.05132208
180	0xbcb283eb	-0.021791419
181	0x3caa6f73	0.020805096
182	0x3e170b2d	0.14750357
183	0x3db62e7b	0.08895584
184	0x3d4fa24d	0.05069189
185	0xbd4ced3c	-0.05003093
186	0x3d9cb9ee	0.07652651
187	0x3de8268d	0.11335478
188	0x3d96e1e1	0.07367302
189	0x3e19a8be	0.15005776
190	0xbe181481	-0.14851572
191	0xbd52e025	-0.051483292
192	0xbdb748eb	-0.08949455
193	0x3dc84405	0.09778599
194	0x3d9a1bab	0.075248085
195	0x3e119955	0.14218648
196	0xbe1735df	-0.14766644
197	0x3c38e49b	0.011284973
198	0xbcda54c7	-0.026651753
199	0xbda10810	-0.07862866
200	0x3e0a3e59	0.13500346
201	0x3e139e40	0.14415836
202	0x3d971ea0	0.07378888
203	0x3dd896ac	0.105756134
204	0xbd48f826	-0.049064778
205	0xbad0ed91	-0.0015939941
206	0xbe20c824	-0.15701348
207	0x3dcdc307	0.10046964
208	0x3d13266d	0.035925318
209	0xbbf58bc2	-0.007493467
210	0x3cd7204e	0.026260521
211	0xbd4ea1c2	-0.050447233
212	0xbcd31e94	-0.025771417
213	0xbcaa4833	-0.02078638
214	0x3c29d630	0.010366008
215	0xbe17499c	-0.14774173
216	0xbd4712f2	-0.048602052
217	0x3d9c9ec6	0.07647471
218	0x3def925e	0.11697839
219	0xbd4ddacb	-0.050257485
220	0x3e02b731	0.12765194
221	0xbd6d3b2a	-0.05791775
222	0xbd5bee6b	-0.05369417
223	0x3d4f1d53	0.050565075
224	0x3c4c3f82	0.012466313
225	0x3dadd3a4	0.08487633
226	0xbda3fc4a	-0.08007105
227	0xbd85e17d	-0.06537149
228	0x3dbe0f17	0.09280222
229	0x3d515c3f	0.051113363
230	0x3e26ea0a	0.16300216
231	0x3dafbda9	0.08581097
232	0x3c91119b	0.01770859
233	0xbc29999b	-0.010351564
234	0xbd61869a	-0.055060007
235	0x3dcff2f6	0.10153763
236	0xbc2c3d1f	-0.010512619
237	0x3e07a95d	0.132482
238	0xbd327ddb	-0.043577056
239	0x3e1a88b4	0.1509121
240	0xbdb7c3c9	-0.0897289
241	0x3ce4c1d6	0.02792446
242	0x3e12ef98	0.1434921
243	0xbdcf6641	-0.10126925
244	0xbe01ad8a	-0.12663856
245	0x3d8f6720	0.070020914
246	0x3cf249ee	0.029576268
247	0xbc7455f3	-0.01491307
248	0x3dd31ba6	0.10308008
249	0xbc9344d7	-0.017977161
250	0xbdc3581e	-0.095382914
251	0x3e1f21ef	0.15540288
252	0x3e07f01f	0.13275193
253	0xbdc9861b	-0.09840032
254	0x3e11445a	0.1418623
255	0xbcf05b40	-0.029340386

actor_critic.critic.model.0.linear.bias f4 [512]
0	0x00000000	0.0
1	0x00000000	0.0
2	0x00000000	0.0
3	0x00000000	0.0
4	0x00000000	0.0
5	0x00000000	0.0
6	0x00000000	0.0
7	0x00000000	0.0
8	0x00000000	0.0
9	0x00000000	0.0
10	0x00000000	0.0
11	0x00000000	0.0
12	0x00000000	0.0
13	0x00000000	0.0
14	0x00000000	0.0
15	0x00000000	0.0
16	0x00000000	0.0
17	0x00000000	0.0
18	0x00000000	0.0
19	0x00000000	0.0
20	0x00000000	0.0
21	0x00000000	0.0
22	0x00000000	0.0
23	0x00000000	0.0
24	0x00000000	0.0
25	0x00000000	0.0
26	0x00000000	0.0
27	0x00000000	0.0
28	0x00000000	0.0
29	0x00000000	0.0
30	0x00000000	0.0
31	0x00000000	0.0
32	0x00000000	0.0
33	0x00000000	0.0
34	0x00000000	0.0
35	0x00000000	0.0
36	0x00000000	0.0
37	0x00000000	0.0
38	0x00000000	0.0
39	0x00000000	0.0
40	0x00000000	0.0
41	0x00000000	0.0
42	0x00000000	0.0
43	0x00000000	0.0
44	0x00000000	0.0
45	0x00000000	0.0
46	0x00000000	0.0
47	0x00000000	0.0
48	0x00000000	0.0
49	0x00000000	0.0
50	0x00000000	0.0
51	0x00000000	0.0
52	0x00000000	0.0
53	0x00000000	0.0
54	0x00000000	0.0
55	0x00000000	0.0
56	0x00000000	0.0
57	0x00000000	0.0
58	0x00000000	0.0
59	0x00000000	0.0
60	0x00000000	0.0
61	0x00000000	0.0
62	0x00000000	0.0
63	0x00000000	0.0
64	0x00000000	0.0
65	0x00000000	0.0
66	0x00000000	0.0
67	0x00000000	0.0
68	0x00000000	0.0
69	0x00000000	0.0
70	0x00000000	0.0
71	0x00000000	0.0
72	0x00000000	0.0
73	0x00000000	0.0
74	0x00000000	0.0
75	0x00000000	0.0
76	0x00000000	0.0
77	0x00000000	0.0
78	0x00000000	0.0
79	0x00000000	0.0
80	0x00000000	0.0
81	0x00000000	0.0
82	0x00000000	0.0
83	0x00000000	0.0
84	0x00000000	0.0
85	0x00000000	0.0
86	0x00000000	0.0
87	0x00000000	0.0
88	0x00000000	0.0
89	0x00000000	0.0
90	0x00000000	0.0
91	0x00000000	0.0
92	0x00000000	0.0
93	0x00000000	0.0
94	0x00000000	0.0
95	0x00000000	0.0
96	0x00000000	0.0
97	0x00000000	0.0
98	0x00000000	0.0
99	0x00000000	0.0
100	0x00000000	0.0
101	0x00000000	0.0
102	0x00000000	0.0
103	0x00000000	0.0
104	0x00000000	0.0
105	0x00000000	0.0
106	0x00000000	0.0
107	0x00000000	0.0
108	0x00000000	0.0
109	0x00000000	0.0
110	0x00000000	0.0
111	0x00000000	0.0
112	0x00000000	0.0
113	0x00000000	0.0
114	0x00000000	0.0
115	0x00000000	0.0
116	0x00000000	0.0
117	0x00000000	0.0
118	0x00000000	0.0
119	0x00000000	0.0
120	0x00000000	0.0
121	0x00000000	0.0
122	0x00000000	0.0
123	0x00000000	0.0
124	0x00000000	0.0
125	0x00000000	0.0
126	0x00000000	0.0
127	0x00000000	0.0
128	0x00000000	0.0
129	0x00000000	0.0
130	0x00000000	0.0
131	0x00000000	0.0
132	0x00000000	0.0
133	0x00000000	0.0
134	0x00000000	0.0
135	0x00000000	0.0
136	0x00000000	0.0
137	0x00000000	0.0
138	0x00000000	0.0
139	0x00000000	0.0
140	0x00000000	0.0
141	0x00000000	0.0
142	0x00000000	0.0
143	0x00000000	0.0
144	0x00000000	0.0
145	0x00000000	0.0
146	0x00000000	0.0
147	0x00000000	0.0
148	0x00000000	0.0
149	0x00000000	0.0
150	0x00000000	0.0
151	0x00000000	0.0
152	0x00000000	0.0
153	0x00000000	0.0
154	0x00000000	0.0
155	0x00000000	0.0
156	0x00000000	0.0
157	0x00000000	0.0
158	0x00000000	0.0
159	0x00000000	0.0
160	0x00000000	0.0
161	0x00000000	0.0
162	0x00000000	0.0
163	0x00000000	0.0
164	0x00000000	0.0
165	0x00000000	0.0
166	0x00000000	0.0
167	0x00000000	0.0
168	0x00000000	0.0
169	0x00000000	0.0
170	0x00000000	0.0
171	0x00000000	0.0
172	0x00000000	0.0
173	0x00000000	0.0
174	0x00000000	0.0
175	0x00000000	0.0
176	0x00000000	0.0
177	0x00000000	0.0
178	0x00000000	0.0
179	0x00000000	0.0
180	0x00000000	0.0
181	0x00000000	0.0
182	0x00000000	0.0
183	0x00000000	0.0
184	0x00000000	0.0
185	0x00000000	0.0
186	0x00000000	0.0
187	0x00000000	0.0
188	0x00000000	0.0
189	0x00000000	0.0
190	0x00000000	0.0
191	0x00000000	0.0
192	0x00000000	0.0
193	0x00000000	0.0
194	0x00000000	0.0
195	0x00000000	0.0
196	0x00000000	0.0
197	0x00000000	0.0
198	0x00000000	0.0
199	0x00000000	0.0
200	0x00000000	0.0
201	0x00000000	0.0
202	0x00000000	0.0
203	0x00000000	0.0
204	0x00000000	0.0
205	0x00000000	0.0
206	0x00000000	0.0
207	0x00000000	0.0
208	0x00000000	0.0
209	0x00000000	0.0
210	0x00000000	0.0
211	0x00000000	0.0
212	0x00000000	0.0
213	0x00000000	0.0
214	0x00000000	0.0
215	0x00000000	0.0
216	0x00000000	0.0
217	0x00000000	0.0
218	0x00000000	0.0
219	0x00000000	0.0
220	0x00000000	0.0
221	0x00000000	0.0
222	0x00000000	0.0
223	0x00000000	0.0
224	0x00000000	0.0
225	0x00000000	0.0
226	0x00000000	0.0
227	0x00000000	0.0
228	0x00000000	0.0
229	0x00000000	0.0
230	0x00000000	0.0
231	0x00000000	0.0
232	0x00000000	0.0
233	0x00000000	0.0
234	0x00000000	0.0
235	0x00000000	0.0
236	0x00000000	0.0
237	0x00000000	0.0
238	0x00000000	0.0
239	0x00000000	0.0
240	0x00000000	0.0
241	0x00000000	0.0
242	0x00000000	0.0
243	0x00000000	0.0
244	0x00000000	0.0
245	0x00000000	0.0
246	0x00000000	0.0
247	0x00000000	0.0
248	0x00000000	0.0
249	0x00000000	0.0
250	0x00000000	0.0
251	0x00000000	0.0
252	0x00000000	0.0
253	0x00000000	0.0
254	0x00000000	0.0
255	0x00000000	0.0

actor_critic.critic.model.1.linear.weight f4 [1, 512]
0	0xbc94b79f	-0.018153964
1	0x3d0d49b6	0.034494124
2	0x3ce70d10	0.02820447
3	0x3cf706c2	0.03015459
4	0xbccfd771	-0.025371285
5	0x3d17bb52	0.037043877
6	0x3cfa421b	0.0305491
7	0xbba25e4d	-0.004955089
8	0xbc88fd4d	-0.016722346
9	0x3cf6161c	0.03003984
10	0x3d1fc6c9	0.039007936
11	0xbd1e3f24	-0.038634434
12	0x3d1dac85	0.038494606
13	0x3cff6578	0.031176314
14	0x3c3043b0	0.010758325
15	0x3d109e34	0.035307124
16	0x3d24bfaa	0.040221848
17	0x3d2b275a	0.041785575
18	0xbd3361d8	-0.043794483
19	0x3d1bf166	0.038072012
20	0x3cc322fc	0.023820393
21	0x3d0ac01b	0.033874612
22	0x3cdcc3e5	0.026948879
23	0xbbdf0ece	-0.006807185
24	0x3cb08aa7	0.02155049
25	0x3d18009c	0.037109956
26	0x3aca675f	0.0015442184
27	0xbd141fc4	-0.036163107
28	0x3cf04b8d	0.0293329
29	0x3c980553	0.018557226
30	0xbd285726	-0.041098736
31	0xbce2eda9	-0.027701216
32	0xbca5b638	-0.02022849
33	0xbcba5731	-0.022746654
34	0x3c6c9b2a	0.014441291
35	0xbd1bd6c4	-0.038046613
36	0x3c214e81	0.009845377
37	0xbd1f8b67	-0.038951304
38	0x3c98a9f8	0.018635735
39	0xbcd69668	-0.026194766
40	0x3978f931	0.00023743954
41	0x3c16625d	0.009178725
42	0xbd2b9007	-0.041885402
43	0xbcaa5908	-0.020794407
44	0xbd04a374	-0.032382444
45	0x3c802a57	0.01564519
46	0xbb2fe18e	-0.0026837322
47	0xbca84dd1	-0.020544918
48	0x3c621ddc	0.013801064
49	0x3b024f5a	0.0019883723
50	0x3ce5b091	0.028038295
51	0x3d11020e	0.03540235
52	0xbd282710	-0.041052878
53	0xbb192216	-0.0023366264
54	0x3c069ca6	0.008216059
55	0x3ca57df0	0.020201653
56	0xbd151b22	-0.03640283
57	0xbcff56a4	-0.031169243
58	0xbd0c0dd8	-0.03419289
59	0xbd179a6c	-0.037012503
60	0xbcfc5ce9	-0.030806022
61	0xbd21f209	-0.039537463
62	0x3ccb116e	0.024788585
63	0x3b7cedf2	0.0038593975
64	0x3c682710	0.0141694695
65	0xbd161303	-0.036639225
66	0xbc731061	-0.014835448
67	0x3ccf5b20	0.025312006
68	0xbbbf936c	-0.0058464315
69	0x3b125d69	0.0022333509
70	0xbd30af4e	-0.043135934
71	0x3d287ed7	0.04113659
72	0x3a0a05c6	0.00052651425
73	0x3cb61968	0.022228912
74	0xbccf6574	-0.025316931
75	0x3cdb28ab	0.02675279
76	0x3cd97046	0.026542794
77	0xbcc440da	-0.023956705
78	0xbc4dd560	-0.01256308
79	0x3989bd4b	0.0002627171
80	0xbd12addf	-0.035810348
81	0xbcf9c432	-0.030489061
82	0x3c027671	0.007962809
83	0x3d023acb	0.03179435
84	0x3ce497a6	0.027904343
85	0xbc4a6447	-0.01235301
86	0x3b0a2b29	0.0021082854
87	0xbc9d8129	-0.019226627
88	0xbd209060	-0.039200187
89	0xbcb5ab10	-0.022176296
90	0xbb8344cf	-0.0040060054
91	0xbcabc120	-0.020966113
92	0xb8a01514	-7.633321e-05
93	0xbb7829d5	-0.003786673
94	0xbd28e03a	-0.041229464
95	0x3d246eaf	0.04014462
96	0xbc91cbe4	-0.017797418
97	0x3c97d2b3	0.018533086
98	0xbcada51b	-0.021196892
99	0xbc46aa31	-0.012125538
100	0x3c8b161e	0.01697832
101	0xbcc190ea	-0.02362867
102	0xbd12c38d	-0.035831023
103	0x3d2ec1bd	0.042665232
104	0x3d337de7	0.04382124
105	0x3bc868a9	0.006115992
106	0x3c25311e	0.010082511
107	0x3b4b705c	0.0031042313
108	0xbd318bb5	-0.043346126
109	0x3c414d85	0.011798267
110	0xbb8e476c	-0.0043420102
111	0xbc73dce9	-0.014884212
112	0x3c81cfe3	0.015846198
113	0xbd1d7045	-0.038437147
114	0x3cd0b648	0.025477543
115	0xba78a456	-0.0009484937
116	0x3b9f3247	0.0048582884
117	0xbacfd6f5	-0.0015856909
118	0x3d177c7b	0.03698395
119	0x3ca4cf04	0.020118244
120	0x3cce6943	0.025196677
121	0x3cd83b77	0.026395543
122	0xbcaf359b	-0.021387866
123	0x3bc2adfd	0.005941151
124	0xbce50ce2	-0.027960245
125	0xbce39b5e	-0.027784046
126	0xbc8b5381	-0.017007591
127	0x3847c1f6	4.7625937e-05
128	0xbccf4f5b	-0.025306394
129	0xbd0d7dcb	-0.034543794
130	0xbcd0cfc5	-0.025489697
131	0xba45f055	-0.0007550766
132	0x3b39a14a	0.0028324896
133	0xbcccec13	-0.025014913
134	0x3b828178	0.003982719
135	0x3d1ac705	0.037787456
136	0xbcdac91f	-0.02670723
137	0xbc2f3631	-0.010694073
138	0xbd2b0feb	-0.041763227
139	0xbbf43f55	-0.007453839
140	0x3c84086c	0.016117297
141	0x3cbd0ab2	0.023076389
142	0x3c38350a	0.011243114
143	0x3d05e7e1	0.03269184
144	0xbc78de90	-0.015189782
145	0x3c4fc640	0.012681544
146	0x3c38792a	0.0112593565
147	0x3c5270c3	0.012844267
148	0x3d02f57d	0.031972397
149	0xbbc0b76a	-0.0058812397
150	0x3cd2104a	0.025642533
151	0x3d016162	0.031587012
152	0x3bee40ff	0.0072709317
153	0xbc94621b	-0.018113187
154	0x3d0332d1	0.032030884
155	0x3cbfde96	0.023421567
156	0xbd01ec2a	-0.031719364
157	0xbcc898a2	-0.024486843
158	0x3c8c38bd	0.017116899
159	0xbceade4e	-0.028670456
160	0x3cacf427	0.021112515
161	0x3c1467c4	0.009057943
162	0x3c78e2c3	0.015190783
163	0xba0bfbd1	-0.0005339953
164	0xbb0e316a	-0.0021696934
165	0xbc8687e9	-0.016422229
166	0xbc72b5ac	-0.014813822
167	0x3d053b1b	0.03252707
168	0x3d08bc39	0.033382628
169	0x3bc10e1f	0.005891576
170	0xbd167a0b	-0.036737483
171	0xbc849cd6	-0.016188066
172	0x3d1c72ff	0.038195606
173	0x3d146bd4	0.036235645
174	0xbcf46000	-0.029830933
175	0xba76109b	-0.00093866297
176	0x3d1d31bd	0.038377512
177	0xbca31ea7	-0.019912077
178	0xbd03fab9	-0.03222153
179	0xbcc8132b	-0.024423202
180	0xbceb6637	-0.028735263
181	0x3d0b3e79	0.033995125
182	0x3b89d391	0.004206129
183	0xbb98bfa0	-0.0046615154
184	0xbcfd52d4	-0.030923285
185	0x3c3d33b0	0.011547968
186	0xbc75ca29	-0.015001812
187	0xbd07d283	-0.033159744
188	0xbcac38e1	-0.021023216
189	0xbcf934c4	-0.030420668
190	0xbcb44dcc	-0.022009753
191	0xbbb90942	-0.0056468556
192	0xbcab2e86	-0.020896208
193	0x3cd9cc3e	0.026586648
194	0xbba1aaa6	-0.004933673
195	0xbd0e34c5	-0.034718294
196	0xbb88e3a3	-0.004177527
197	0xbce5e0eb	-0.02806135
198	0xbc14b0bb	-0.009075339
199	0x3d2f397c	0.04277943
200	0xbc4fb67f	-0.012677788
201	0xbcb2f00e	-0.021842983
202	0xbd21c715	-0.0394965
203	0xbcaea62c	-0.021319471
204	0x3d1a3a72	0.037653394
205	0x3d1af1b3	0.03782816
206	0x3c6ca127	0.014442719
207	0xbc89116c	-0.01673194
208	0xbc1ed0d4	-0.009693343
209	0xbb32095d	-0.0027166225
210	0xbb4efb50	-0.00315829
211	0x3cd8cd13	0.026464975
212	0x3b8fbf6d	0.0043868334
213	0xbcc93071	-0.024559231
214	0xbb811128	-0.0039388128
215	0x3d348811	0.044075076
216	0x3d19aed4	0.037520245
217	0xbc3af0b3	-0.011409926
218	0xbcce60d2	-0.025192652
219	0x3d2497d4	0.040183857
220	0xbd0bf273	-0.034166764
221	0xbc1f1b07	-0.009711034
222	0x3cdb4847	0.026767863
223	0xbd1ca42a	-0.038242497
224	0x3ce62d6e	0.028097834
225	0x3d0e61a7	0.034761097
226	0xbcce4a7b	-0.025182
227	0x3cb2d083	0.021827942
228	0x3d26e9cb	0.040750306
229	0xbc19ab44	-0.009379212
230	0x3c68bfb6	0.014205864
231	0xbd06aa76	-0.032877408
232	0xbc034b70	-0.008013591
233	0x3b670395	0.0035249938
234	0xbc755e7b	-0.014976139
235	0xbc61130f	-0.013737454
236	0x3cc46246	0.023972642
237	0xbc4b3688	-0.012403138
238	0xbb69ccf7	-0.0035675147
239	0xbd0f3467	-0.034962084
240	0xbc5cb180	-0.013470054
241	0xbcf2e128	-0.029648378
242	0xbcc7785e	-0.024349388
243	0x3cfeef59	0.03111999
244	0x3c85b6c3	0.0163225
245	0xbc7fe69d	-0.015618947
246	0xbd254357	-0.040347423
247	0x3cc63004	0.024192818
248	0xbd2ccf03	-0.04218961
249	0xbd32e830	-0.043678463
250	0x3d2a1bed	0.04153054
251	0x3c354267	0.011063195
252	0x3bee6a3b	0.0072758473
253	0xbd1ffad7	-0.03905758
254	0x3c86884f	0.016422419
255	0xbcc54574	-0.02408097
