RL_Project/checkpoints/2023-12-05/16-11-49/0.pt (torch, 185545 bytes, 8 tensors)

actor_critic.std f4 [12]
00000000: c520 803f 77be 7f3f 77be 7f3f c520 803f
00000010: 77be 7f3f c520 803f c520 803f 77be 7f3f
00000020: 77be 7f3f c520 803f 77be 7f3f c520 803f
1.001 0.999 0.999 1.001 0.999 1.001 1.001 0.999
0.999 1.001 0.999 1.001

actor_critic.actor.model.0.linear.weight f4 [512, 37]
00000000: b956 a4bd 8c91 e43d 15c9 0d3d 3332 e4bd
00000010: 2c5b 99bd 5230 183e 9075 1cbe 3682 c43d
00000020: 26bb 22be 0ced e7bb faa2 233e 668a f6bc
00000030: 9d87 3a3d aeb1 75bb dbaf 3fbd 6601 0cbe
00000040: dc2b 0a3e b76e a3bd 8521 b23d 1ced 56bd
00000050: 49da 0d3e 2c03 0dbe 2c3d e43c b75d 21be
00000060: 1aac 183e 90ff 92bc d69d 3fbd a7c2 a8ba
00000070: c3b5 4a3d 8013 e43d 64f0 05be 9cd3 a2bd
00000080: 7849 143d a432 113e 695a 43bd 1d6d 0cbc
00000090: 0c50 8f3d c46d 3a3d 261e eabd 9aac e03d
000000a0: eff9 1b3e 53dd d93d 2fd8 b13d 79ff 9abd
000000b0: 49f6 773c c7a0 c6bd 0cf7 733d 5c22 1c3e
000000c0: b0a7 f3bd 553e 33bd a854 91bd f986 f63d
000000d0: ece3 aa3d d681 563d 0705 cf3d b10b 01ba
000000e0: 94d8 10be bcb3 af3b c65f 9fbd f044 41bc
000000f0: 645c 173d 5aad 95bd 4ff9 dcbd 1faa d0bd
00000100: 242e 5a3d 1d59 0c3e 47bb 57bb fb1d 8e3c
00000110: 17ec 1f3e 2c87 823d 9aee bbbd c4bc 013e
00000120: 938d 0dbe 496d f83d bd7d d83d 49c0 fabc
00000130: 0687 9d3d fc90 e43d a05d 0a3e eaf8 603d
00000140: 5b81 d03d 06fa 86bd b4e8 fcbd e4cd 06be
00000150: 7f56 20bd f03e 243e c6d5 a5bd 1f88 243e
00000160: bd29 e5bd 3a81 0b3c 8a7e 853d c258 1fbe
00000170: 0fac f9bc 9ca3 0abe 3d77 8f3d cfdc 003e
00000180: 5290 debd b168 08be 532c e0bd 2c13 03bd
00000190: 25b4 52bd bf5b 103d 4ecb e2bd 088c 113e
000001a0: e957 1f3e b18a 22be d1aa b9bc 6028 fbbd
000001b0: bf7f ddbd 94a0 0bbe 9c10 85bd 0366 9c3d
000001c0: b02c a13d 2c6f f13c ccd6 11be f147 c03d
000001d0: 792d 4ebd c96b 453d c4f4 0b3d 1c4f b2bc
000001e0: dca6 783d 4233 0dbe be0f a5bd 0c30 1a3e
000001f0: f137 963d 9ac9 5c3b 960e b7bd 2fcb 10be
00000200: 723a bfbd 6eee 073e dd7b de3d 73f9 0c3e
00000210: be1c 18be 2b8b 973d 8f27 a4bd 0f81 503d
00000220: 4a7c 3ebc 3805 ed3d 54e4 11bd 5d81 25be
00000230: d821 e53d f441 fdbd 137d a23d c46c a63d
00000240: a7d0 a63b f3e4 25be 6b30 33bd 49e9 233e
00000250: d998 b6bd 9c15 4ebc bd00 0cbe 8f68 13be
00000260: 4162 b3bd 7815 de3d 5c05 51bd 98d2 c53d
00000270: 27a3 213e e03d 95b8 a912 8dbd 1f65 debd
00000280: b950 ac3d 6108 133e 3c5b ddbd ac3e c7bd
00000290: 9e8e adbc d335 1b3e f1df 843d 786a cabd
000002a0: e9f9 213e 4abb 1abe 9551 dd3d 3988 2f3c
000002b0: 43b1 aabd 9054 e9bd 8277 17be f15a 1c3e
000002c0: aa84 b43d 9f16 adbd 6bcb 98bd 0177 093e
000002d0: 9c80 c23d c962 063e c839 18bc 01cd 79bd
000002e0: 6938 27be a2e0 a6bd 2e09 e3bd f611 223d
000002f0: 35e6 cabc e924 c9bd 5886 ecbd 8f1a 9cbd
00000300: c0a6 9e3d a811 f739 f3eb fc3d 75d8 8ebc
00000310: 6a66 b83c 6cf5 afbd d0e2 b5bd 562b ebbd
00000320: dba9 053e 2aa6 123e c861 1d3e abdf c53d
00000330: ace9 42bd 6cb2 a93d a5e7 353d 7743 e3bd
00000340: 899d da3d 3f5e 413c 9fe3 103e 4638 1e3e
00000350: de21 5ebc 8316 edbd 0a4d 8c3d aec1 bdbd
00000360: 57d2 f8bd 0b8c a43a f813 f93d 7d50 613d
00000370: be61 f6bd 43ef 1d3e e85e fb3c 175c 8d3d
00000380: 7959 823d 400c d13d a2b9 06be 553e c1bb
00000390: c26d 073e c299 103e d710 323d 1f84 063e
000003a0: f163 cdbb a100 0c3e 31b4 21be 8a1b 3dbd
000003b0: cfa7 79bd 55db 61bd 0995 17bd 40bf 28be
000003c0: 526d 11ba d891 1abe 9136 973c a67b 02be
000003d0: 374f 213e 2522 9bbd b3ba b03d 621e fd3d
000003e0: ba0f 95bd e11f 68bc ac8d c43c 74e7 103e
000003f0: e252 8d3a 2e01 a03d 807f d2bd 418e d93d
-0.080243535 0.11160573 0.034615595 -0.11142387 -0.07488093 0.14862183 -0.15279222 0.09595148
-0.15891704 -0.0070778187 0.1598014 -0.03009529 0.045539487 -0.0037489939 -0.04679857 -0.13672408
0.13493294 -0.079801016 0.086977996 -0.05247222 0.138528 -0.13770741 0.0278612 -0.15758406
0.14909402 -0.017944127 -0.046781383 -0.0012875394 0.049489748 0.11136532 -0.13079983 -0.079505175
0.036202878 0.14179474 -0.047693644 -0.0085709365 0.069976896 0.045514837 -0.114315316 0.10970421
0.15232061 0.10637917 0.08683812 -0.07568259 0.015134403 -0.096986346 0.059561774 0.15247482
-0.11897218 -0.043760616 -0.07096225 0.12037463 0.08344254 0.052369915 0.10108381 -0.00049227016
-0.14145118 0.005362002 -0.07781939 -0.011796221 0.036953345 -0.07308455 -0.10789739 -0.10188698
0.05326666 0.13705869 -0.0032918022 0.01734828 0.15617405 0.06373438 -0.09176369 0.12669665
-0.13823538 0.121302195 0.10570858 -0.030609267 0.07691769 0.11160466 0.13512278 0.054924883
0.101809226 -0.06590657 -0.12349072 -0.13164479 -0.03914499 0.16039634 -0.08097415 0.16067551
-0.111896016 0.008514697 0.06518276 -0.15561202 -0.030477552 -0.13538975 0.07005165 0.12584232
-0.10867371 -0.13321187 -0.10945954 -0.032000706 -0.05144133 0.035243746 -0.110739335 0.14213574
0.15560879 -0.15873219 -0.02266446 -0.1226356 -0.10815381 -0.13635474 -0.064973086 0.07636645
0.078698516 0.029471956 -0.14242095 0.09388722 -0.050336335 0.048198495 0.034168974 -0.021766238
0.060706005 -0.13789085 -0.08059643 0.15057391 0.07334889 0.00336895 -0.08938329 -0.14140008
-0.093373194 0.13274547 0.10863469 0.13767032 -0.14854714 0.07399591 -0.08015358 0.05090433
-0.0116263125 0.11573261 -0.03561814 -0.1616263 0.11188096 -0.12366095 0.07934012 0.08126214
0.0050907913 -0.16200618 -0.043747347 0.1600696 -0.08915872 -0.012578394 -0.13672157 -0.14395355
-0.08758975 0.108439386 -0.0510305 0.09659308 0.15784894 -7.116399e-05 -0.06888325 -0.10859131
0.08413834 0.14358665 -0.10808417 -0.097287506 -0.02118617 0.15157251 0.06488026 -0.098835886
0.1581799 -0.15110508 0.10806576 0.01071363 -0.08334591 -0.11393082 -0.14791682 0.15269066
0.08814366 -0.0845158 -0.07460674 0.13424303 0.094971865 0.13123621 -0.00929112 -0.060986523
-0.16330113 -0.08148314 -0.11085735 0.03956791 -0.024767974 -0.09821493 -0.115490615 -0.07622253
0.07746649 0.00047124666 0.12349691 -0.0174372 0.022509772 -0.085917324 -0.08881152 -0.11482875
0.13053076 0.14321199 0.15369332 0.09661802 -0.047586128 0.082859844 0.044410367 -0.11096852
0.10674579 0.011802255 0.1414933 0.15451154 -0.013557879 -0.115765594 0.068506315 -0.09265457
-0.12149494 0.0012553943 0.12162012 0.0550084 -0.120303616 0.15423302 0.030684903 0.0690233
0.06364722 0.102074146 -0.13156751 -0.005897323 0.13225463 0.14121154 0.04347309 0.13136338
-0.0062680175 0.13672115 -0.15791394 -0.04616884 -0.06095105 -0.055140812 -0.037007365 -0.16479206
-0.0005547601 -0.15094697 0.018458636 -0.1274248 0.15752874 -0.07574872 0.0862936 0.12359311
-0.0727839 -0.014167757 0.023993336 0.14150792 0.0010782147 0.07812725 -0.10278225 0.10622836

actor_critic.actor.model.0.linear.bias f4 [512]
00000000: 5c12 83ba 2112 83ba 3f12 833a 5412 833a
00000010: bc11 833a 4a12 833a 5d12 83ba 4c12 83ba
00000020: 1012 83ba 5f12 833a 6112 833a 3812 833a
00000030: 2012 833a 5612 83ba 3d12 83ba 5f12 833a
00000040: 6712 83ba 6512 833a 6412 83ba 4412 833a
00000050: f211 833a 3312 833a d510 83ba 2e12 83ba
00000060: 6012 83ba 3a12 83ba 5612 83ba 1512 833a
00000070: 0612 83ba 5712 833a 2912 83ba 3112 833a
00000080: dd11 83ba 5e12 83ba 5512 83ba 4512 83ba
00000090: 5712 83ba ea10 833a 3e12 83ba 4b12 833a
000000a0: 5b12 83ba 6412 83ba 5812 833a 6112 83ba
000000b0: 5412 833a 3d12 833a 5a12 833a 5712 833a
000000c0: e211 83ba 4c12 833a 5a11 83ba fa11 83ba
000000d0: 5912 833a 5d12 833a 6312 833a eb11 83ba
000000e0: 5712 833a 6312 83ba b811 83ba 4a12 833a
000000f0: 4b12 83ba 0e12 833a 5c12 833a 6312 833a
00000100: 6212 83ba 1712 833a 0d12 83ba 6212 83ba
00000110: 5712 833a 3f12 833a 3812 83ba 0311 833a
00000120: 5912 833a 5c12 833a 5e12 83ba 5612 833a
00000130: 5c12 83ba 5c12 833a 4712 83ba 5512 833a
00000140: 4012 833a 5412 833a 5412 83ba 6412 83ba
00000150: 5612 833a 5e12 833a 5912 833a 5c12 83ba
00000160: 6012 833a 5d12 83ba 4912 83ba 5b12 83ba
00000170: 5312 83ba 5a12 833a 5c12 833a 2a12 833a
00000180: 4f12 833a 6212 83ba cf11 83ba 4312 83ba
00000190: 5d12 833a 4d12 833a 6212 833a 6512 83ba
000001a0: 2b12 83ba e211 833a 5d12 833a d110 83ba
000001b0: 6212 833a 6212 83ba 5f12 833a 4f12 833a
000001c0: 6312 833a 1f12 833a 4f12 83ba 3d12 83ba
000001d0: 6412 83ba 2d10 83ba 2f11 833a 3e12 83ba
000001e0: 5812 83ba 5d12 833a 3412 833a 5a12 833a
000001f0: 4c12 83ba 5212 833a 5d12 83ba 6212 833a
00000200: 5412 833a 5512 83ba 4c12 83ba 5412 833a
00000210: 4112 833a 6012 83ba 3a12 833a 3612 83ba
00000220: 5f12 83ba 3e12 833a 2212 83ba 4211 83ba
00000230: 3b12 83ba 4410 833a 5f12 83ba 6412 83ba
00000240: 0b12 83ba 5e12 83ba 4c12 83ba 6312 833a
00000250: 5512 83ba 5e12 83ba 2b12 833a 6212 83ba
00000260: 6412 833a 4812 833a 5f12 833a 5912 83ba
00000270: 6012 833a 3611 83ba 6412 833a 6512 833a
00000280: 6412 833a ac10 83ba 6712 833a 5f12 83ba
00000290: 6212 83ba 5312 833a 5912 83ba 5412 83ba
000002a0: 3612 83ba 1c12 83ba 5612 83ba 5c12 833a
000002b0: 2012 83ba 4212 83ba 5f12 83ba 3b12 833a
000002c0: 7f11 833a 0612 83ba 2512 83ba 5512 833a
000002d0: 5412 833a 5112 833a f511 83ba 5a12 83ba
000002e0: 4c12 83ba 6412 833a 0612 833a 4812 83ba
000002f0: 4112 833a 4512 83ba 1912 83ba 7f11 83ba
00000300: 6212 833a 5e12 833a 6512 833a 4012 833a
00000310: 5e12 833a 4812 83ba 4812 833a 8610 83ba
00000320: 4812 83ba 6012 833a 6312 833a 6112 833a
00000330: 5f12 833a 5712 83ba ec11 833a 4b12 833a
00000340: 5812 833a 4412 83ba 5912 833a 5012 83ba
00000350: 5d12 83ba 5712 833a 6312 833a 2f12 833a
00000360: 3112 833a 3c12 83ba 6012 83ba 5312 833a
00000370: 3212 833a 5212 83ba c310 833a 6512 833a
00000380: 5312 83ba 5b12 83ba ee10 83ba 4412 833a
00000390: 2611 833a c111 833a 5412 83ba 7310 833a
000003a0: 5e12 83ba 0112 833a 4112 833a 5b12 83ba
000003b0: 6112 83ba 5b12 833a 5e12 83ba 5212 833a
000003c0: 450f 83ba 6212 83ba 4a12 833a 5b12 833a
000003d0: 5c12 83ba 5f12 83ba 5a12 833a a906 833a
000003e0: 5812 83ba 0712 833a 5312 83ba 6212 83ba
000003f0: ed11 83ba 4312 83ba 6012 833a 4d12 833a
-0.0009999978 -0.000999991 0.0009999945 0.0009999969 0.0009999792 0.0009999957 -0.000999998 -0.000999996
-0.000999989 0.0009999982 0.0009999984 0.0009999936 0.0009999909 -0.0009999971 -0.0009999942 0.0009999982
-0.0009999991 0.0009999989 -0.0009999988 0.000999995 0.0009999855 0.0009999931 -0.0009999523 -0.0009999925
-0.0009999983 -0.0009999939 -0.0009999971 0.0009999896 -0.0009999878 0.0009999973 -0.0009999919 0.0009999928
-0.000999983 -0.0009999981 -0.000999997 -0.0009999952 -0.0009999973 0.0009999548 -0.0009999943 0.0009999959
-0.0009999977 -0.0009999988 0.0009999974 -0.0009999984 0.0009999969 0.0009999942 0.0009999976 0.0009999973
-0.0009999836 0.000999996 -0.0009999678 -0.0009999864 0.0009999975 0.000999998 0.0009999987 -0.0009999847
0.0009999973 -0.0009999987 -0.0009999787 0.0009999957 -0.0009999959 0.0009999888 0.0009999978 0.0009999987
-0.0009999985 0.0009999898 -0.0009999886 -0.0009999985 0.0009999973 0.0009999945 -0.0009999936 0.0009999577
0.0009999975 0.0009999978 -0.0009999981 0.0009999971 -0.0009999978 0.0009999978 -0.0009999954 0.000999997
0.0009999946 0.0009999969 -0.0009999969 -0.0009999988 0.0009999971 0.0009999981 0.0009999975 -0.0009999978
0.0009999983 -0.000999998 -0.0009999956 -0.0009999977 -0.0009999968 0.0009999976 0.0009999978 0.000999992
0.0009999963 -0.0009999985 -0.0009999814 -0.0009999949 0.000999998 0.0009999961 0.0009999985 -0.0009999989
-0.0009999921 0.0009999836 0.000999998 -0.0009999519 0.0009999985 -0.0009999985 0.0009999982 0.0009999963
0.0009999987 0.0009999907 -0.0009999963 -0.0009999942 -0.0009999988 -0.0009999328 0.0009999628 -0.0009999943
-0.0009999974 0.000999998 0.0009999932 0.0009999976 -0.000999996 0.0009999967 -0.000999998 0.0009999985
0.0009999969 -0.000999997 -0.000999996 0.0009999969 0.0009999947 -0.0009999983 0.0009999939 -0.0009999934
-0.0009999982 0.0009999943 -0.0009999911 -0.000999965 -0.000999994 0.0009999354 -0.0009999982 -0.0009999988
-0.0009999884 -0.0009999981 -0.000999996 0.0009999987 -0.000999997 -0.0009999981 0.0009999921 -0.0009999985
0.0009999988 0.0009999955 0.0009999982 -0.0009999975 0.0009999983 -0.0009999636 0.0009999988 0.0009999989
0.0009999988 -0.0009999475 0.0009999991 -0.0009999982 -0.0009999985 0.0009999968 -0.0009999975 -0.0009999969
-0.0009999934 -0.0009999904 -0.0009999971 0.0009999978 -0.0009999909 -0.0009999948 -0.0009999982 0.000999994
0.0009999721 -0.0009999878 -0.0009999914 0.000999997 0.0009999969 0.0009999966 -0.0009999858 -0.0009999976
-0.000999996 0.0009999988 0.0009999878 -0.0009999955 0.0009999947 -0.0009999952 -0.00099999 -0.0009999721
0.0009999985 0.0009999981 0.0009999989 0.0009999946 0.0009999981 -0.0009999955 0.0009999955 -0.0009999431
-0.0009999955 0.0009999983 0.0009999987 0.0009999984 0.0009999982 -0.0009999973 0.0009999848 0.0009999959
0.0009999974 -0.000999995 0.0009999975 -0.0009999964 -0.000999998 0.0009999973 0.0009999987 0.0009999926
0.0009999928 -0.0009999941 -0.0009999983 0.0009999968 0.000999993 -0.0009999967 0.0009999502 0.0009999989
-0.0009999968 -0.0009999977 -0.0009999552 0.000999995 0.0009999617 0.0009999798 -0.0009999969 0.0009999409
-0.0009999981 0.0009999872 0.0009999947 -0.0009999977 -0.0009999984 0.0009999977 -0.0009999981 0.0009999967
-0.0009999058 -0.0009999985 0.0009999957 0.0009999977 -0.0009999978 -0.0009999982 0.0009999976 0.0009996492
-0.0009999974 0.0009999879 -0.0009999968 -0.0009999985 -0.0009999849 -0.0009999949 0.0009999983 0.0009999961

actor_critic.actor.model.1.linear.weight f4 [12, 512]
00000000: 806a b139 4971 2bbc fdda dbbc 72bd 93bb
00000010: 6a08 21bd 46f6 be3c 5065 cabb 8a74 d7ba
00000020: c494 683c f8a4 d8bb 2b15 10bd c2e6 7a3c
00000030: 248d ff3b 72ab df3c d699 80bc 9dc9 35bd
00000040: 7cab 2c3d b502 78bc 7fe4 083d 2289 f53c
00000050: d192 c4bc 2682 993c 491c 0bbd b497 abbb
00000060: 64eb 0a3d b12b deba b75a 533c 815d 1fbd
00000070: 68f0 e2bc 4e75 dbba 7b4e 043d 2761 95bb
00000080: bf8d a03c d663 e0bc b594 dabc 6e86 bc3c
00000090: cd5e 153d 072e 103d b549 6b3c c92c 07bd
000000a0: fab2 1b3c c4dc ce3c 522a 02bd 4757 dd3c
000000b0: 4c8a 1b3c 2243 9cbc 5b75 e7bc 75f8 643b
000000c0: c854 623c bf5c dbbc 478e b3bc 20fc c3bc
000000d0: 2d46 b1bb 28c7 f2bc 14ff 42bc 4292 c3bc
000000e0: 435d 9dbc 2a05 17bc eee7 19bc a3b1 0bbd
000000f0: 8211 9fbb 8989 a93c 9fb7 b1bc aa33 32bd
00000100: 2e4f f63c 40dd 0c3d 88d6 5dbb 2e0b 8fbb
00000110: 9aff 153d 6861 e6bc 87fc 17bd 5279 543a
00000120: 0749 0bbd fc9d 12bd 1af2 57bc 0df1 2abd
00000130: 98d4 8bbb 8caa 793b 8f20 c63a d89d 98bc
00000140: fd8c b63c a590 0d3d fd6f 8abc 2756 e33c
00000150: ccc1 7aba 3423 02bb bd37 90bc 66e7 253d
00000160: 47c9 0cbd 4e0a b53c d7b7 7d3c 4bd0 b73c
00000170: c346 db3c a230 84ba 1a1e f0bc 4cf1 1f3c
00000180: 7be6 0dbd 6767 f53c d972 3a3c a78c 9a3c
00000190: 6722 87ba c87a acbc a501 a2bb 35c6 513c
000001a0: b4d9 053d ba7e 01bc e83f 5fb9 c041 d13c
000001b0: 70d4 27bd 1c96 9b3b 37f5 e1bc d097 b93c
000001c0: b227 16bd d947 ba3c 9c72 043b 3c19 0fbd
000001d0: 7b2a 013d 8765 0a3c 6c49 553b d6dd 3bbc
000001e0: a9a6 653c 8e40 743c 34c1 e53c 1ce2 e43c
000001f0: 66c3 87bc 766b 1dbd 3741 143d 546f 263c
00000200: 14a2 8bbc 7343 313d 3443 6c3c db24 88bc
00000210: 7d89 19bd b1ad 333b ce61 2dbd 8e4f 9ebc
00000220: 587e adbc d257 60bc 38e5 c6bc 8569 4f3c
00000230: b95b 993c 2334 4e3c 9a1f d33c af65 fa3c
00000240: 758f a4bb b9f8 113d b53e fe3c 5b8b 03bd
00000250: 02b2 d93c 6597 95bc 7804 e43a 0d50 d43b
00000260: cb0c 35bd 4ac2 cfbc f856 ecbc 54b2 37ba
00000270: 637f 823c 602c 0cbc 3001 06bd 4a69 25bd
00000280: 4fdc 33bd c272 0d3a 29d6 23bd 6ca6 303d
00000290: ca58 303d 29af 8cbc 1195 ac3c bba3 28bc
000002a0: 56e6 c73a 05aa 24bd d900 b23c 69ea 1fbd
000002b0: d8a9 d4bc 539f 203d 8235 0b3d c24e 87bc
000002c0: 9c29 9dbc 049d 4f3b d2df 053d 4fe0 2fbd
000002d0: 8abc 6c3a 6508 12bc 1fdd b3ba ed5a 0b3d
000002e0: 5c07 113d d0e4 2cbd 34de 443c a612 17bd
000002f0: 3b66 2dbc 1ffa d3bc 12f6 ebbc 0631 0c3a
00000300: 721c c8bc 6f98 3e3c 1743 25bd 1694 b6bc
00000310: 478e 05bd 8f21 c6bc 120c 69bc 5f86 703b
00000320: 0b10 92bc 83e3 f9ba 6579 30bd c170 cabc
00000330: a4d6 37bd 1280 01bc 3811 f43c ae66 b9bc
00000340: a2ca f5bc 5b01 3a3c a112 c33a 39bb 0a3d
00000350: 5164 303d f9e1 2dbd 6a0c 1abc 6290 0a3d
00000360: 863c ca3b a34d e7bc 099d 9c3c f758 37bd
00000370: aa47 31bd 8ac0 493b 9f24 f43c 0571 0bbd
00000380: f10d b0bc 4ee5 873c dd6c c7bb ec10 e8bb
00000390: 4a28 283d e4c2 5e3c 861f 043b 02f1 90bb
000003a0: b0f9 4b39 0562 fa3c 385d 73bc db0a 04bd
000003b0: 28a2 bd3c 7f15 d7bb 8ac1 babc 97ca be3c
000003c0: 9a33 9a3c 41fa 3a3c 372a d6bc ce8a 33bd
000003d0: 128c 5a3c 1976 26bc 3f10 febc 14d0 333d
000003e0: 7feb bfbc e3a5 c6bc 0b13 283d 9582 0d3d
000003f0: 16ac 2c3c 081d a2bc 5513 e4bc e2ff f63c
0.0003383942 -0.010464021 -0.02683782 -0.0045086676 -0.039314665 0.023310792 -0.006176628 -0.001643793
0.014195625 -0.0066114627 -0.035176437 0.015313806 0.0077988077 0.027303431 -0.015698355 -0.044381727
0.042155728 -0.015137364 0.033421036 0.029972617 -0.023995789 0.018738817 -0.03396252 -0.0052365903
0.033915892 -0.0016950277 0.012900046 -0.03890753 -0.027702525 -0.0016743334 0.032301407 -0.0045587006
0.01959884 -0.027391355 -0.026682237 0.02301332 0.036467362 0.035200145 0.014360835 -0.033001695
0.009503121 0.025251754 -0.03177864 0.027019156 0.009493422 -0.01907498 -0.028254202 0.003493813
0.013814159 -0.026777623 -0.021918429 -0.023923934 -0.005409977 -0.02963598 -0.011901636 -0.023873452
-0.01920951 -0.00921754 -0.009393675 -0.034104954 -0.004854382 0.020695465 -0.021694003 -0.043506302
0.030067053 0.034390688 -0.0033849794 -0.0043653464 0.036620714 -0.028122619 -0.037106063 0.00081052363
-0.03400519 -0.035795197 -0.01318028 -0.04173379 -0.0042672865 0.0038096039 0.0015115904 -0.018629953
0.022284025 0.034561772 -0.016899103 0.027751042 -0.0009565621 -0.0019857408 -0.017604703 0.040503882
-0.03437164 0.02209964 0.015485725 0.022438189 0.02676714 -0.0010085294 -0.029311229 0.0097621195
-0.03464363 0.029956533 0.011379921 0.018865896 -0.0010309935 -0.02105464 -0.0049440437 0.012803604
0.03267832 -0.007903749 -0.00021290744 0.025544047 -0.04097408 0.004748119 -0.027582748 0.022655398
-0.03665895 0.022739338 0.0020209914 -0.034936175 0.031534653 0.008447058 0.0032544984 -0.011466464
0.014016786 0.014907969 0.028046228 0.027939849 -0.016572665 -0.03843256 0.036195006 0.010158379
-0.017045058 0.043277215 0.014420319 -0.016619137 -0.037484635 0.002741676 -0.042329602 -0.019325044
-0.02117841 -0.013692813 -0.024279222 0.012659435 0.018720495 0.012585673 0.025771905 0.030566065
-0.005021984 0.03563759 0.03103576 -0.03211532 0.026574139 -0.018260667 0.0017396351 0.0064792694
-0.044201653 -0.025361199 -0.028850064 -0.0007007469 0.015929883 -0.008555502 -0.032715976 -0.040383615
-0.043911275 0.00053958234 -0.03999916 0.043127462 0.043053426 -0.017173367 0.021067174 -0.010292943
0.001525114 -0.040201206 0.02172892 -0.03904191 -0.025959894 0.039214443 0.033986576 -0.016517047
-0.01918488 0.0031679282 0.032684155 -0.042938527 0.000903078 -0.008913134 -0.0013722515 0.03402226
0.03540741 -0.0422104 0.012015868 -0.03688302 -0.010583456 -0.025876103 -0.028803859 0.0005347881
-0.024427626 0.011633023 -0.040347185 -0.02228741 -0.03260639 -0.024185924 -0.014224069 0.0036701185
-0.017829916 -0.0019064996 -0.04308452 -0.024711968 -0.04488243 -0.0079040695 0.029793367 -0.02263197
-0.03000385 0.011352862 0.0014882871 0.033869956 0.04306442 -0.042451832 -0.009402374 0.0338291
0.0061717657 -0.028235262 0.019117849 -0.044762578 -0.043281235 0.0030784928 0.029802619 -0.03404333
-0.021491023 0.016588833 -0.0060859756 -0.0070820954 0.041054048 0.01359627 0.002016039 -0.0044232616
0.00019452604 0.030564317 -0.014853768 -0.032236915 0.023148611 -0.006563842 -0.022797365 0.023289962
0.018823434 0.011412204 -0.026143176 -0.043833546 0.013339059 -0.010159993 -0.031013606 0.04389961
-0.023427723 -0.024249023 0.041033786 0.03454836 0.010539075 -0.019789234 -0.02784125 0.030151311

actor_critic.actor.model.1.linear.bias f4 [12]
00000000: 6e12 83ba 6c12 833a 6c12 833a 6d12 833a
00000010: 6c12 83ba 6b12 83ba 6a12 833a 6b12 833a
00000020: 6d12 833a 6d12 833a 6d12 83ba 6b12 83ba
-0.0009999999 0.0009999997 0.0009999997 0.0009999998 -0.0009999997 -0.0009999996 0.0009999995 0.0009999996
0.0009999998 0.0009999998 -0.0009999998 -0.0009999996

actor_critic.critic.model.0.linear.weight f4 [512, 37]
00000000: b077 9c3d 1398 053e aa07 edbd 67e3 233e
00000010: d1d3 e43d 87eb 1ebe 9bc8 9fbc 2a62 353d
00000020: c2b5 08be 5793 09bd e385 89bd 4929 01be
00000030: fb5d 28bd ce62 0a3e 1046 1f3e abb8 14bc
00000040: 9ef6 3b3d 8f07 b0bd 9200 03bc 80cf ae3c
00000050: fdff 2dbc 3205 09be b216 e73d 7cc1 5abd
00000060: 4994 bbbb 5497 bf3d 5466 febb dbc1 fabd
00000070: 129a c2bd 985f 8fbd d6d8 07be 9f6c 12be
00000080: 4f8d 643d 1c5d 65bd 47e1 64bc efd8 c83c
00000090: 6c2a a6bd 842a 1b3d ce05 6e3d 5092 4b3c
000000a0: 9ddb 1d3d e144 963d f67c 1b3e 493a 1d3e
000000b0: 21f7 b23d 31e2 e73d b510 073e 35dc 1c3e
000000c0: 78e0 233e 3802 f13d 1d15 b13d d79e ef3d
000000d0: 55b4 d33d 13d6 24be d9be f9bd 3a16 fdbd
000000e0: 942d efbc 4a6b 6dbc c43e bcbd 012a 27be
000000f0: cc8f 403d fb91 963d c650 11be 0b67 23be
00000100: 1014 06be c742 1cbe b673 9f3d 866e 1fbe
00000110: 9a19 833d e60a 12bd 1e6e f8bd abf0 24bd
00000120: 87f6 1a3e 63a8 e83d 90eb 6fbd 1433 133e
00000130: a503 d53d 7ddc 60bd d61e 22be beb5 0e3e
00000140: 4197 b1bd da26 febd 63ad cd3d e5d7 d0bd
00000150: c2d2 ad3d ab54 1e3e f2ce 98bd 640e 863d
00000160: 0bbc 1abe f123 5bbd 002d 2fbd 59b9 cebc
00000170: 21ab 62bd cffe f03d 1ac2 173e 4943 20bd
00000180: 96fc cf3d 12cf d2bd 5d4e 0b3e fa37 da3d
00000190: 9c30 abbd c864 90b9 a476 9e3d a06c 2dbd
000001a0: a260 8c3c 28d6 32bd 2e89 0dbe 7144 efbd
000001b0: f9e4 243e e1bc 87bd 01f1 83bd bc39 72bc
000001c0: ea37 e5bb 2c47 c73d 3d15 25be b091 bbbd
000001d0: e6c7 d63d 35dd c0bd 95ea 96bb dffb 04be
000001e0: f18d 23be d410 353d 5d7c 24be fe60 a3bd
000001f0: 8c5e 873d 14c9 ebbd 04aa a6bd 43fe 253e
00000200: ac71 debb 0d0c cc3d 0d88 073e 6cb0 03be
00000210: 2da9 d63d 3c4b 01be 7a5d a83d 5b1c 03bd
00000220: 74db eebd 6bde 07be d604 483d db59 043e
00000230: 5b9c 16be c42f 2c3d 2dcd 08bd 41c6 d43d
00000240: 5ecf 55bd aa0d f53b 2a6e 87bd 1c3e a83c
00000250: 97c7 d4bd c479 323d a26c bf3d ee16 9bbc
00000260: a68a e93d 1368 c53d 462c 44bb e880 8bbd
00000270: d105 fcbd e800 233e 64a3 e7bd 1f92 1d3e
00000280: 0607 25be 5616 a4bd 6cd1 f63d 39ad d73d
00000290: f186 7c3b 27de 24bb c9ac f63d 4044 883d
000002a0: 2d08 11be 9ce2 26bd 7095 f53d ef1b bf3d
000002b0: 503e aebd 7d3e ac3d 7c09 20be 89da 3c3c
000002c0: bdfd dabc 1df3 ecbd 1e58 c63d fd12 17be
000002d0: b31e 37ba 0ae2 fe3c 431f 86bd 4635 9cbd
000002e0: 9993 20be 5953 bb3b 2f12 133d a1be 60bd
000002f0: 8388 d2bd af06 90bd e46c 33bd 28e7 013e
00000300: a6bc dbbc 5e7b bebd 8270 21bd a0f6 0abc
00000310: e040 e53d 6ada e0bc 8327 99bb 6ce7 60bd
00000320: 4a77 b8bd eb84 083e cc83 173e 0a25 6cbc
00000330: fd68 353c f625 0a3d 3ad0 8dbc 1044 033e
00000340: f1b6 c73d 5a1c 1bbe c29a 243e 8e12 ec3d
00000350: b9a5 e03d 74af d7bd b400 813d 7a08 f8bc
00000360: f35f f8bd 8dab 123e 6047 02be b72c 24be
00000370: ca2f f63c d719 e13d 4ca4 213e c129 0cbe
00000380: 0045 87bb 1f5c b4bd c58b d0bd bc24 23be
00000390: d0f3 cb3d 24a6 873d 2979 ddbd 85aa d33c
000003a0: 1240 83bd 38c1 f4bb 58e2 c8bd ecff 813d
000003b0: 04f2 ffbd 6743 7b3d a222 82bb 33da 04be
000003c0: dc32 b8bd 41c0 153e b1f5 0d3d b3dd 04be
000003d0: 7fe8 00be 9c8a fdbc 2616 9f3d 96a9 d4bc
000003e0: a152 ae3d 2867 9c3d e91c 09be b344 f2bd
000003f0: 6672 193d 1ce5 eebd 6a1e 6fbd ba7c 72bb
0.07640016 0.13046293 -0.115737274 0.16004716 0.11173213 -0.15519534 -0.019504836 0.04428307
-0.13350585 -0.03358778 -0.0671499 -0.12613405 -0.04110525 0.13514253 0.1555407 -0.009077231
0.04588949 -0.08595192 -0.007995741 0.021339178 -0.010620114 -0.13380888 0.11283626 -0.053407177
-0.005724464 0.093550354 -0.0077636633 -0.12244006 -0.09502043 -0.07000655 -0.1326631 -0.14299248
0.055798825 -0.055997 -0.013969726 0.024517504 -0.0811356 0.037882343 0.058111005 0.01242502
0.038539518 0.07337356 0.15184388 0.15354265 0.08738542 0.113224395 0.13189967 0.15318377
0.16003597 0.11768001 0.08646605 0.11700218 0.1033713 -0.16097288 -0.121946044 -0.12357755
-0.029196538 -0.014490912 -0.09191659 -0.16324617 0.047012135 0.07352062 -0.14190969 -0.15957277
-0.1309359 -0.15259849 0.07785742 -0.15569505 0.064013675 -0.035654925 -0.12130378 -0.04026858
0.15133105 0.11360242 -0.05857426 0.14374954 0.10401086 -0.054897774 -0.15832075 0.13936517
-0.086714275 -0.12409754 0.100428365 -0.101974286 0.084874645 0.15461986 -0.07461347 0.065457135
-0.15110795 -0.053501073 -0.042767525 -0.025234865 -0.055338982 0.11767351 0.14820138 -0.039126668
0.10155599 -0.10293402 0.13604112 0.10655208 -0.08358881 -0.00027540908 0.07737473 -0.04233992
0.017135922 -0.043661267 -0.13821861 -0.11682976 0.16102971 -0.06627823 -0.06442452 -0.014784273
-0.006995191 0.09730372 -0.16121383 -0.09158647 0.10487346 -0.09417192 -0.004605601 -0.12986706
-0.15972115 0.0442055 -0.16063066 -0.07977484 0.0660983 -0.11512962 -0.08137897 0.16210274
-0.006788453 0.09963236 0.13235493 -0.12860268 0.104814865 -0.12626356 0.08220954 -0.032009464
-0.11662951 -0.1326844 0.048832737 0.12924902 -0.14708082 0.04203774 -0.033398796 0.103893764
-0.052199714 0.0074784355 -0.06612809 0.020537429 -0.10389631 0.043573156 0.09346892 -0.018931832
0.11403398 0.09638991 -0.0029933616 -0.06811696 -0.12305797 0.15918314 -0.11310461 0.15387772
-0.1611596 -0.08012073 0.12051663 0.105310865 0.003853258 -0.0025156827 0.12044675 0.06653643
-0.14163275 -0.040743455 0.119913936 0.093315 -0.08507979 0.08410356 -0.15628618 0.011526712
-0.02673232 -0.11569808 0.09684776 -0.14753337 -0.00069854705 0.031113643 -0.065489314 -0.076273486
-0.15681304 0.005716723 0.035906013 -0.054869298 -0.10279944 -0.07032525 -0.043805018 0.12685835
-0.026823353 -0.09300874 -0.039413936 -0.008481652 0.111940145 -0.027447898 -0.0046738996 -0.0549082
-0.090071276 0.13331954 0.1479637 -0.014413128 0.011072394 0.03372761 -0.017311204 0.12818933
0.0975169 -0.15147534 0.1607466 0.115269765 0.10969109 -0.10531512 0.06298962 -0.03027748
-0.12127676 0.14323254 -0.1272254 -0.16032682 0.030052084 0.10991257 0.1578533 -0.13687803
-0.0041280985 -0.08806633 -0.10182909 -0.15931982 0.09958613 0.06623486 -0.10814125 0.025838146
-0.06408705 -0.0074693225 -0.09808797 0.06347641 -0.12497333 0.061343577 -0.0039714137 -0.12973861
-0.08994076 0.1462412 0.034658138 -0.12975197 -0.1258869 -0.030949883 0.07767896 -0.025959771
0.08511854 0.07636863 -0.13389935 -0.118295096 0.037462614 -0.11664793 -0.058378614 -0.0037000612

actor_critic.critic.model.0.linear.bias f4 [512]
00000000: 0000 0000 0000 0000 0000 0000 0000 0000
00000010: 0000 0000 0000 0000 0000 0000 0000 0000
00000020: 0000 0000 0000 0000 0000 0000 0000 0000
00000030: 0000 0000 0000 0000 0000 0000 0000 0000
00000040: 0000 0000 0000 0000 0000 0000 0000 0000
00000050: 0000 0000 0000 0000 0000 0000 0000 0000
00000060: 0000 0000 0000 0000 0000 0000 0000 0000
00000070: 0000 0000 0000 0000 0000 0000 0000 0000
00000080: 0000 0000 0000 0000 0000 0000 0000 0000
00000090: 0000 0000 0000 0000 0000 0000 0000 0000
000000a0: 0000 0000 0000 0000 0000 0000 0000 0000
000000b0: 0000 0000 0000 0000 0000 0000 0000 0000
000000c0: 0000 0000 0000 0000 0000 0000 0000 0000
000000d0: 0000 0000 0000 0000 0000 0000 0000 0000
000000e0: 0000 0000 0000 0000 0000 0000 0000 0000
000000f0: 0000 0000 0000 0000 0000 0000 0000 0000
00000100: 0000 0000 0000 0000 0000 0000 0000 0000
00000110: 0000 0000 0000 0000 0000 0000 0000 0000
00000120: 0000 0000 0000 0000 0000 0000 0000 0000
00000130: 0000 0000 0000 0000 0000 0000 0000 0000
00000140: 0000 0000 0000 0000 0000 0000 0000 0000
00000150: 0000 0000 0000 0000 0000 0000 0000 0000
00000160: 0000 0000 0000 0000 0000 0000 0000 0000
00000170: 0000 0000 0000 0000 0000 0000 0000 0000
00000180: 0000 0000 0000 0000 0000 0000 0000 0000
00000190: 0000 0000 0000 0000 0000 0000 0000 0000
000001a0: 0000 0000 0000 0000 0000 0000 0000 0000
000001b0: 0000 0000 0000 0000 0000 0000 0000 0000
000001c0: 0000 0000 0000 0000 0000 0000 0000 0000
000001d0: 0000 0000 0000 0000 0000 0000 0000 0000
000001e0: 0000 0000 0000 0000 0000 0000 0000 0000
000001f0: 0000 0000 0000 0000 0000 0000 0000 0000
00000200: 0000 0000 0000 0000 0000 0000 0000 0000
00000210: 0000 0000 0000 0000 0000 0000 0000 0000
00000220: 0000 0000 0000 0000 0000 0000 0000 0000
00000230: 0000 0000 0000 0000 0000 0000 0000 0000
00000240: 0000 0000 0000 0000 0000 0000 0000 0000
00000250: 0000 0000 0000 0000 0000 0000 0000 0000
00000260: 0000 0000 0000 0000 0000 0000 0000 0000
00000270: 0000 0000 0000 0000 0000 0000 0000 0000
00000280: 0000 0000 0000 0000 0000 0000 0000 0000
00000290: 0000 0000 0000 0000 0000 0000 0000 0000
000002a0: 0000 0000 0000 0000 0000 0000 0000 0000
000002b0: 0000 0000 0000 0000 0000 0000 0000 0000
000002c0: 0000 0000 0000 0000 0000 0000 0000 0000
000002d0: 0000 0000 0000 0000 0000 0000 0000 0000
000002e0: 0000 0000 0000 0000 0000 0000 0000 0000
000002f0: 0000 0000 0000 0000 0000 0000 0000 0000
00000300: 0000 0000 0000 0000 0000 0000 0000 0000
00000310: 0000 0000 0000 0000 0000 0000 0000 0000
00000320: 0000 0000 0000 0000 0000 0000 0000 0000
00000330: 0000 0000 0000 0000 0000 0000 0000 0000
00000340: 0000 0000 0000 0000 0000 0000 0000 0000
00000350: 0000 0000 0000 0000 0000 0000 0000 0000
00000360: 0000 0000 0000 0000 0000 0000 0000 0000
00000370: 0000 0000 0000 0000 0000 0000 0000 0000
00000380: 0000 0000 0000 0000 0000 0000 0000 0000
00000390: 0000 0000 0000 0000 0000 0000 0000 0000
000003a0: 0000 0000 0000 0000 0000 0000 0000 0000
000003b0: 0000 0000 0000 0000 0000 0000 0000 0000
000003c0: 0000 0000 0000 0000 0000 0000 0000 0000
000003d0: 0000 0000 0000 0000 0000 0000 0000 0000
000003e0: 0000 0000 0000 0000 0000 0000 0000 0000
000003f0: 0000 0000 0000 0000 0000 0000 0000 0000
0.0 0.0 0.0 0.0 0.0 0.0 0.0 0.0
0.0 0.0 0.0 0.0 0.0 0.0 0.0 0.0
0.0 0.0 0.0 0.0 0.0 0.0 0.0 0.0
0.0 0.0 0.0 0.0 0.0 0.0 0.0 0.0
0.0 0.0 0.0 0.0 0.0 0.0 0.0 0.0
0.0 0.0 0.0 0.0 0.0 0.0 0.0 0.0
0.0 0.0 0.0 0.0 0.0 0.0 0.0 0.0
0.0 0.0 0.0 0.0 0.0 0.0 0.0 0.0
0.0 0.0 0.0 0.0 0.0 0.0 0.0 0.0
0.0 0.0 0.0 0.0 0.0 0.0 0.0 0.0
0.0 0.0 0.0 0.0 0.0 0.0 0.0 0.0
0.0 0.0 0.0 0.0 0.0 0.0 0.0 0.0
0.0 0.0 0.0 0.0 0.0 0.0 0.0 0.0
0.0 0.0 0.0 0.0 0.0 0.0 0.0 0.0
0.0 0.0 0.0 0.0 0.0 0.0 0.0 0.0
0.0 0.0 0.0 0.0 0.0 0.0 0.0 0.0
0.0 0.0 0.0 0.0 0.0 0.0 0.0 0.0
0.0 0.0 0.0 0.0 0.0 0.0 0.0 0.0
0.0 0.0 0.0 0.0 0.0 0.0 0.0 0.0
0.0 0.0 0.0 0.0 0.0 0.0 0.0 0.0
0.0 0.0 0.0 0.0 0.0 0.0 0.0 0.0
0.0 0.0 0.0 0.0 0.0 0.0 0.0 0.0
0.0 0.0 0.0 0.0 0.0 0.0 0.0 0.0
0.0 0.0 0.0 0.0 0.0 0.0 0.0 0.0
0.0 0.0 0.0 0.0 0.0 0.0 0.0 0.0
0.0 0.0 0.0 0.0 0.0 0.0 0.0 0.0
0.0 0.0 0.0 0.0 0.0 0.0 0.0 0.0
0.0 0.0 0.0 0.0 0.0 0.0 0.0 0.0
0.0 0.0 0.0 0.0 0.0 0.0 0.0 0.0
0.0 0.0 0.0 0.0 0.0 0.0 0.0 0.0
0.0 0.0 0.0 0.0 0.0 0.0 0.0 0.0
0.0 0.0 0.0 0.0 0.0 0.0 0.0 0.0

actor_critic.critic.model.1.linear.weight f4 [1, 512]
00000000: 613a 7dbc 25ca 25bd f084 d4bc abbd d9bc
00000010: 7e46 1d3d 1d23 023c e899 70bc 84da 29bd
00000020: ffa2 1e3b bca6 e93c a47f 6e3c ead8 053d
00000030: ad1b 6abc 8011 f03c 5241 d63c 74f2 0fbd
00000040: 1e20 b3bc 6d97 cd3c 1a20 dc3c 43ca 96bc
00000050: 5ecc 9bbc a9c8 e63c e544 113d 07fa db3b
00000060: bb86 2ebd 0121 043d fc8a 2ebc cea9 723c
00000070: 9488 b63b 57fe 393c 98be 0d3d 090b 7b3c
00000080: 8b50 2dbd f35f 06bd 4da1 e93b ce8d b8bc
00000090: 1dd3 b53b 6036 43bc 0ff4 ea3c edb9 bd3c
000000a0: 8958 6dbb d2cc 0a3b 3d06 e63c 9e7b 623c
000000b0: 81bf 6e3c b9c5 ec3c 098f 20bc 1a7d 043d
000000c0: 84d9 043d 5f36 f23b d1d3 343d 4eb0 843c
000000d0: 8a8d 44bc 13c5 2ebd 784a dfbc cf21 93ba
000000e0: 4ba1 163c 2be1 223d 183f bc3a 0510 23bd
000000f0: 0f93 efbc e9f8 b53c 0685 4ebc 5110 33bb
00000100: 2de7 753c c28d eb3c 067b 1abc 46d9 bfbc
00000110: ff8d dd3c c4c1 e0bb f4f7 523c 289c 0f3d
00000120: 66e9 14bd 0c2c 043d e270 27bd be45 d43c
00000130: 6d3d 13bd 01d3 a23c 8f60 883b fa50 273d
00000140: e619 2abd 9595 293d 0042 04bd e036 9cbc
00000150: 65ed b4bb 0108 063d 7e4c 2abb a1b7 5abc
00000160: dfc6 423b 9f1a 1d3c f870 1f3d 639c 27bc
00000170: 8485 5ebc 68b4 233d 4961 033d ebef 043d
00000180: 4b6b 2a3c 2642 023d e0f9 05bd 7b2c eabc
00000190: 64d3 f4bc 4b82 c03b f58a 27bd bf19 3dbc
000001a0: 0dc4 0dbd 483c 7c3c 8570 e3bc 303d dd3c
000001b0: 52df 073d 9fd4 0a3c ea1c 22bd d527 2ebc
000001c0: c079 a73c d37b 32ba 4805 153d e8bb efbc
000001d0: 7025 9fbc 2ab3 35bb fe91 293b abf0 85bb
000001e0: 8b4e 223c 00ed 2a3d e4db 14bd 3143 b6bb
000001f0: 992d a4bc fe47 ce3c 2c7a db3a 20c4 aabb
00000200: 2fea 1b3d dadd 283d 74c3 1c3d 3262 a5bc
00000210: b8f4 0cba e8dc 803c 7591 54bc 216f 97b9
00000220: b419 84bc f3db 20bd 55a3 763a 433b e63c
00000230: 43ec bb3c 41f5 31bd 4ccc 1d3d 626d 17bc
00000240: a988 113b 5d2d d3bb 7bee 08bd 2f8f 0a3d
00000250: f724 87bc d8f8 c43b 5095 313d b2e7 1abc
00000260: 0954 f8bb 5b37 efbc 3bef 123d 169c 023d
00000270: b450 2e3d fec2 a33b d88d b0bc 81fe b3bc
00000280: 24fd 853c d9ae 693c 3c15 c43c ffde 1e3d
00000290: a362 013d 9c84 62bc 84ed da3c 95a9 983c
000002a0: e5c6 1e3d 8ce0 07bc a0d6 14bb 91dc b2bc
000002b0: 10bb 14bd 4b08 ab3c 3b83 233d 7412 2d3d
000002c0: 371f 8abc e885 b5bb db03 2fbc 6c10 b2bc
000002d0: fe40 0dbd be9c 51bc d4ec cebc c497 34bc
000002e0: b600 da3c 6fc7 06bd 3483 2ebc 2135 2bbd
000002f0: 5538 c93c 24c4 fd3c 95ba b4bc c698 b03c
00000300: 4db0 26bc 013a dbbc 8671 5dbc aa76 95bc
00000310: 7699 c0bc 900a a03c 68f8 ce3c d995 2c3d
00000320: b2ef fb3b 74ed 8b3b 046f 4e3c e1de e4bc
00000330: a486 0a3d 4c53 edbc a12c 323d 3399 b3bc
00000340: 12ce 47bb fa14 233c acc6 eebc df8e ae3c
00000350: 70ab c83c e7a8 15bd 929a 4ebc 0bc3 fe3c
00000360: 6ce0 acbc 8880 69bc 57df cfbc bcd9 22bd
00000370: 9a60 0e3d 55b4 ad3c 9407 7d3b 9031 213d
00000380: 811d 2d3d 72cf 0bbd e9c8 013d ccdb 2d3d
00000390: cd58 0e3d ef59 24bc 5024 f93c 1edb 803c
000003a0: dd0d 2f3d 1134 b83c 8759 0fbd a238 323d
000003b0: 2d25 313d 3cc7 e8bc 4013 163d 2606 1fbc
000003c0: b0d0 97bc 39d9 fdbc 71a9 41bc 8c5f 1c3c
000003d0: 3686 883c 59ec 793b 7626 043d 86d5 c6bb
000003e0: 144f c7bc 2e27 a4bb bcf8 d33c 9386 303c
000003f0: f7f6 873c cb5a ea3c 84a6 203d 9389 b5bc
-0.015455813 -0.040475983 -0.025942296 -0.026579699 0.038397305 0.007942942 -0.014685132 -0.04146816
0.002420604 0.028521888 0.014556799 0.03267757 -0.014288825 0.02930522 0.026154194 -0.03514333
-0.0218659 0.02509662 0.026870776 -0.018406993 -0.019018348 0.028171854 0.035466094 0.006713155
-0.042608958 0.032258037 -0.010653254 0.014810992 0.0055704806 0.011352143 0.034605592 0.015322455
-0.04231314 -0.032806348 0.0071298243 -0.022528555 0.0055488483 -0.0119148195 0.02868083 0.023159945
-0.00362161 0.0021179211 0.028079147 0.013823418 0.014572025 0.028902875 -0.009799727 0.03234587
0.032434 0.0073917354 0.044147316 0.01619735 -0.011996636 -0.042668413 -0.02725719 -0.0011225286
0.009193729 0.03976552 0.0014362065 -0.0398102 -0.029244928 0.022213416 -0.012604957 -0.0027322958
0.01500873 0.028754119 -0.009428745 -0.023419034 0.027045248 -0.006859036 0.012876499 0.03506103
-0.0363554 0.03226857 -0.040879138 0.025912162 -0.035947252 0.019876005 0.0041619013 0.04084871
-0.041528605 0.04140242 -0.032289505 -0.019069135 -0.0055214637 0.032722477 -0.0025985534 -0.013349445
0.0029720587 0.0095888665 0.038926095 -0.010230157 -0.013581637 0.03996697 0.0320752 0.032455366
0.010401557 0.031801365 -0.032709002 -0.028585663 -0.029885955 0.005874907 -0.040904004 -0.011541783
-0.034610797 0.015395232 -0.027763614 0.027006716 0.03317196 0.008473544 -0.039578356 -0.010629614
0.020443797 -0.00068086124 0.03638199 -0.029264405 -0.019427031 -0.0027725198 0.0025874372 -0.0040875277
0.009906421 0.041729927 -0.036342517 -0.005562209 -0.020041274 0.025180813 0.0016744784 -0.005211368
0.03806513 0.0412272 0.038272336 -0.020188425 -0.0005377042 0.015730336 -0.012974133 -0.00028883762
-0.016125537 -0.03927226 0.00094084936 0.02810443 0.022939807 -0.043446783 0.03852491 -0.0092423875
0.00222067 -0.0064446167 -0.033430558 0.033827957 -0.016497118 0.00601111 0.043355286 -0.0094546545
-0.007578377 -0.0292012 0.03587268 0.031887136 0.042557433 0.00499761 -0.021552011 -0.021971943
0.016356058 0.014262878 0.023935907 0.038786884 0.031588208 -0.013825562 0.026724584 0.01863555
0.0387639 -0.008293282 -0.0022710934 -0.02183369 -0.03631121 0.020877978 0.039920073 0.042253926
-0.016860588 -0.0055396445 -0.010682072 -0.021736346 -0.03448581 -0.012793718 -0.025259413 -0.011022512
0.026611667 -0.03290504 -0.010651398 -0.041798715 0.024562994 0.030977316 -0.022061625 0.021557223
-0.010173869 -0.026761057 -0.013515836 -0.01824506 -0.023510676 0.019536287 0.025264934 0.042135093
0.007688486 0.00427025 0.01259971 -0.027938308 0.03381981 -0.028970383 0.043499593 -0.021923637
-0.0030487818 0.009953732 -0.029147469 0.02130836 0.02449581 -0.03653803 -0.012610095 0.031098863
-0.021103106 -0.014251836 -0.025375051 -0.03975843 0.034760095 0.021204153 0.0038609253 0.039353907
0.042264465 -0.034133382 0.031685743 0.042445943 0.034752656 -0.010031207 0.030412823 0.015729483
0.04273783 0.022485765 -0.03499749 0.04351104 0.043248344 -0.028415315 0.036639452 -0.009706056
-0.018532127 -0.030987369 -0.011820183 0.0095442645 0.01666556 0.003813526 0.03226324 -0.0060679344
-0.0243297 -0.0050095534 0.025875442 0.0107742725 0.016597254 0.028607747 0.0392213 -0.022160327
