RL_Project/checkpoints/2023-12-01/15-02-27/0.pt (torch, 185545 bytes, 8 tensors)

actor_critic.std f4 [12]
1.001 0.999 1.001 0.999 1.001 0.999 1.001 1.001
1.001 1.001 0.99900013 0.999
00000000: c520 803f 77be 7f3f c520 803f 77be 7f3f
00000010: c520 803f 77be 7f3f c520 803f c520 803f
00000020: c520 803f c520 803f 79be 7f3f 77be 7f3f

actor_critic.actor.model.0.linear.weight f4 [512, 37]
0.0669432 -0.08332319 -0.097519375 0.09713233 0.01758302 -0.15071476 0.055309553 0.14077018
-0.091579184 0.14305441 -0.0073274868 0.12276091 -0.124735944 0.15789022 0.053259566 -0.071784504
-0.10969306 -0.14516813 0.12746502 -0.04614986 -0.109788604 -0.08902139 -0.05422216 -0.084286086
-0.14122114 0.026700357 0.0048443843 0.15643138 0.038224425 -0.16000684 -0.011745932 0.03355197
0.092265375 -0.06754792 -0.118284695 -0.0763285 -0.049401604 0.036337286 -0.039704803 -0.07535237
-0.10389737 -0.08825971 0.01899593 0.15881848 0.11965692 -0.15399349 0.03877154 -0.059753105
0.16183063 -0.033990238 -0.14089063 -0.16232115 -0.057416454 0.1409934 0.041469026 -0.037639227
0.15042561 -0.05100561 -0.11564628 0.046235837 -0.046509355 -0.11440656 0.026917838 -0.06867511
0.08366373 -0.09100947 0.028849795 -0.04746541 0.1261593 0.07965959 0.14365876 0.071845025
-0.11106155 0.13015601 -0.12830524 -0.13396741 -0.16277617 0.15627293 0.092734836 0.1536969
0.15913643 -0.020560598 -0.06063292 -0.12106918 -0.15331121 -0.09071909 0.067484036 -0.08843155
-0.09646803 -0.1523328 -0.09190424 -0.0055780937 0.047360744 0.025997581 -0.07854001 0.010301436
-0.025895355 0.04582423 -0.042931553 0.11418806 -0.16203162 0.12604916 -0.15640004 -0.11353457
0.01824171 0.10767747 0.012588346 0.14205551 0.13282369 -0.02385498 0.08452229 -0.14114904
0.0683386 0.15689789 -0.15969041 -0.07671931 -0.07761944 -0.12565286 -0.016493583 -0.07680154
-0.015651757 -0.08008562 0.14360157 -0.07732783 -0.080085866 0.15930232 0.12333052 -0.04421113
0.00037542172 0.043129575 -0.125004 0.02232235 -0.015434594 0.15839957 0.01751018 0.1544954
-0.01808904 0.0076174065 0.03831234 -0.10749478 -0.11269778 0.018431019 0.08335457 -0.04256436
-0.06407527 -0.01406611 -0.030214626 0.018710086 0.009303203 0.09117128 -0.043247707 -0.08267159
-0.07460006 0.078020975 0.059771925 -0.10563165 -0.1571593 0.11902714 -0.09447017 0.10133651
-0.017454872 0.11079575 0.12821169 -0.095563695 -0.10835794 0.08811466 -0.11930036 0.11518093
0.16000251 -0.033320732 0.052393533 0.032944404 -0.08477442 -0.058944736 0.114735715 0.1411832
-0.04851402 0.07237742 0.015608852 -0.09217258 -0.112712614 -0.14987093 -0.11730299 -0.046922065
0.0080961 -0.16467465 0.067877345 -0.015086646 -0.059335228 -0.025389584 -0.050216835 -0.13929658
-0.049883783 0.1372798 0.15592586 -0.043090466 0.03956223 0.03922687 -0.012784728 -0.006550872
0.11475784 -0.055442326 0.12579139 0.09594581 -0.1418581 -0.14094484 -0.08869502 -0.11720212
0.027373029 0.13397293 0.15234496 0.15784192 -0.11456178 -0.11361316 0.1333956 -0.15359588
-0.084615424 0.055998296 0.11928697 -0.05827626 0.016259015 -0.15677246 -0.047413334 0.009034012
-0.14290471 0.065019965 0.04467367 0.020356923 -0.06322974 0.09076715 0.11589759 -0.0275181
-0.088561304 0.13587455 -0.1449481 -0.16344483 -0.1519877 -0.15268147 0.093611 -0.032035034
-0.12978552 -0.0887872 -0.15569635 0.024898333 -0.026979422 -0.027169846 -0.07592428 0.09795135
0.067308255 -0.07065798 0.089946985 -0.07593356 -0.14931315 0.009114 0.061262634 0.106202215
00000000: 8419 893d 59a5 aabd 3db8 c7bd 51ed c63d
00000010: 440a 903c f854 1abe 458c 623d 0f26 103e
00000020: de8d bbbd db7c 123e 6a1b f0bb 126a fb3d
00000030: 8f75 ffbd f9ad 213e b426 5a3d c103 93bd
00000040: c1a6 e0bd f4a6 14be 3186 023e a307 3dbd
00000050: d9d8 e0bd d950 b6bd 0e18 5ebd 2f9e acbd
00000060: 469c 10be b5ba da3c a4bd 9e3b 8c2f 203e
00000070: 3791 1c3d d5d8 23be 0272 40bc ca6d 093d
00000080: a1f5 bc3d 9056 8abd 3f3f f2bd 1e52 9cbd
00000090: 5659 4abd 68d6 143d 81a1 22bd 5852 9abd
000000a0: 25c8 d4bd 82c1 b4bd 5a9d 9b3c 50a1 223e
000000b0: b00e f53d 78b0 1dbe e8ce 1e3d acbf 74bd
000000c0: eeb6 253e 5939 0bbd a245 10be 8437 26be
000000d0: 842d 6bbd 9360 103e 6ddb 293d 972b 1abd
000000e0: 2c09 1a3e 42eb 50bd f5d7 ecbd ca61 3d3d
000000f0: 9880 3ebd fd4d eabd cc82 dc3c 89a5 8cbd
00000100: e457 ab3d 2c63 babd 6856 ec3c 176b 42bd
00000110: e72f 013e 9124 a33d 481b 133e 7c23 933d
00000120: 3d74 e3bd 9e47 053e 7362 03be c12e 09be
00000130: ccae 26be 0306 203e c3eb bd3d b862 1d3e
00000140: a9f4 223e b36e a8bc 3a5a 78bd 1ef3 f7bd
00000150: 9dfd 1cbe eeca b9bd 1235 8a3d 9a1b b5bd
00000160: 0891 c5bd 21fd 1bbe 4a38 bcbd 71c8 b6bb
00000170: 57fd 413d e1f8 d43c 96d9 a0bd 5bc7 283c
00000180: 7f22 d4bc 30b2 3b3d ffd8 2fbd 6edb e93d
00000190: 9eeb 25be 0813 013e 5527 20be d084 e8bd
000001a0: a36f 953c 0186 dc3d 5a3f 4e3c 0077 113e
000001b0: ef02 083e 856b c3bc 061a ad3d 6089 10be
000001c0: 1cf5 8b3d d7a9 203e e285 23be 031f 9dbd
000001d0: f1f6 9ebd 25ab 00be 8d1d 87bc 204a 9dbd
000001e0: 1d38 80bc ee03 a4bd 4a0c 133e 0e5e 9ebd
000001f0: 0f04 a4bd 2620 233e b694 fc3d bb16 35bd
00000200: 40d4 c439 a3a8 303d 0c01 00be 5cdd b63c
00000210: 61e1 7cbc 7f33 223e 8271 8f3c 0b34 1e3e
00000220: 772f 94bc 709b f93b 66ed 1c3d 3926 dcbd
00000230: 18ce e6bd a6fc 963c cdb5 aa3d f757 2ebd
00000240: e539 83bd 8b75 66bc aa84 f7bc e545 993c
00000250: 766c 183c 02b8 ba3d 8224 31bd b94f a9bd
00000260: ebc7 98bd 76c9 9f3d 68d3 743d 6855 d8bd
00000270: 5eee 20be 80c4 f33d 9479 c1bd 8489 cf3d
00000280: 85fd 8ebc e2e8 e23d ed49 033e e6b6 c3bd
00000290: c5ea ddbd 7575 b43d bf53 f4bd fbe3 eb3d
000002a0: b3d7 233e 527b 08bd 9a9a 563d b6f0 063d
000002b0: 369e adbd 0970 71bd 8ffa ea3d 5492 103e
000002c0: a3b6 46bd 9d3a 943d 45bc 7f3c fac4 bcbd
000002d0: dfd5 e6bd c477 19be 8d3c f0bd 5a31 40bd
000002e0: 81a5 043c 79a0 28be 4703 8b3d fb2d 77bc
000002f0: 7f09 73bd d1fd cfbc 2bb0 4dbd c3a3 0ebe
00000300: f052 4cbd 1393 0c3e 07ab 1f3e a17f 30bd
00000310: 010c 223d 5bac 203d 0977 51bc b3a8 d6bb
00000320: 2906 eb3d 7e17 63bd 75cf 003e 3d7f c43d
00000330: 4043 11be d853 10be bca5 b5bd aa07 f0bd
00000340: 673d e03c 3330 093e 5100 1c3e 50a1 213e
00000350: 5e9f eabd 04ae e8bd db98 083e 3d48 1dbe
00000360: da4a adbd 785e 653d ba4c f43d 16b3 6ebd
00000370: a031 853c f688 20be 7c34 42bd 6503 143c
00000380: 9d55 12be 3029 853d bdfb 363d 90c3 a63c
00000390: 987e 81bd 21e4 b93d b75b ed3d a36d e1bc
000003a0: a15f b5bd b322 0b3e 466d 14be 155e 27be
000003b0: aaa2 1bbe 8858 1cbe 20b7 bf3d 2b37 03bd
000003c0: 7fe6 04be 10d6 b5bd dd6e 1fbe 97f7 cb3c
000003d0: f303 ddbc 4c93 debc 307e 9bbd b89a c83d
000003e0: e9d8 893d 22b5 90bd 2036 b83d 0e83 9bbd
000003f0: 8ce5 18be e352 153c 87ee 7a3d 8c80 d93d

actor_critic.actor.model.0.linear.bias f4 [512]
0.0009999617 0.000999999 0.000999998 -0.0009999981 0.0009999957 -0.0009999374 -0.0009999988 0.0009999988
-0.0009999968 -0.0009999969 -0.0009999975 -0.0009999968 0.0009999992 -0.0009999995 0.0009999957 0.0009998411
0.0009999984 -0.0009999955 0.0009999899 0.000999996 -0.000999999 0.0009999989 -0.0009999938 -0.0009999946
0.0009999975 -0.0009999932 -0.0009999959 -0.0009999987 0.0009999969 -0.0009999976 0.0009999954 0.0009999973
-0.0009999978 0.0009996345 0.000999995 -0.0009999988 0.0009999991 0.0009999976 0.0009999964 -0.0009998701
-0.0009999988 -0.0009999983 0.0009999984 -0.0009999904 0.0009999982 -0.0009999971 -0.0009999985 0.0009999988
0.0009999988 0.0009999985 -0.0009999977 0.0009999981 -0.000999998 -0.0009999849 -0.0009999882 0.0009999963
0.0009999976 0.0009999992 0.0009999957 0.0009999985 -0.0009999981 0.0009999992 -0.0009999992 0.0009999967
0.0009999772 0.0009999912 -0.0009999948 -0.0009999847 0.0009999949 0.0009999872 0.0009999988 0.0009999985
-0.0009999985 0.0009999988 -0.0009999982 -0.0009999935 0.0009999988 -0.0009999977 -0.0009999992 0.0009999974
-0.0009999957 0.0009999818 -0.0009999943 0.0009999987 -0.0009999552 -0.00099999 0.0009999989 0.0009999991
0.0009999987 -0.0009999953 -0.0009999969 0.0009999964 -0.0009999945 -0.0009999985 -0.0009999984 -0.0009999945
0.0009999989 -0.0009999989 0.0009999982 -0.0009999928 -0.0009999959 0.0009999977 -0.0009999987 -0.0009999985
-0.0009999988 0.0009999974 -0.0009999983 -0.0009999847 0.0009999978 0.0009999964 0.0009999976 -0.0009999783
-0.000999997 0.0009999742 -0.0009999981 0.0009999969 -0.0009999941 -0.0009999229 0.0009999961 0.0009999987
-0.0009999995 -0.000999998 -0.0009999982 0.000999999 0.000999982 -0.0009999963 0.0009999773 -0.0009999967
0.0009999985 -0.0009999983 -0.0009999961 0.0009999989 -0.0009999964 0.0009999918 -0.0009999984 0.0009999985
-0.0009999988 0.0009999969 -0.0009999989 -0.0009999711 0.0009999927 0.0009999919 -0.0009999985 -0.0009999928
0.000999996 -0.0009999991 0.000999993 -0.0009999982 0.0009999984 -0.0009999984 -0.0009999973 -0.0009999963
-0.0009999977 -0.0009999975 0.0009999987 -0.0009999891 -0.0009996501 -0.0009999955 0.0009999956 0.0009999977
-0.0009999982 0.0009999858 0.0009999456 -0.0009999985 0.0009999982 0.0009999931 0.000999997 0.000999999
0.0009999988 -0.0009999981 0.000999997 0.0009999968 0.000999999 0.0009999982 0.0009999976 -0.000999995
0.0009999988 0.0009999975 -0.0009999989 0.0009999991 -0.0009999932 0.0009999978 -0.0009999978 0.0009999975
-0.0009999984 0.0009999983 -0.000999999 0.0009999988 -0.0009999989 -0.0009999969 -0.0009999987 0.0009999987
0.0009999955 0.0009999988 0.0009999981 -0.0009999991 -0.0009999734 -0.0009999964 0.0009999969 0.0009999919
0.000999999 0.0009999982 0.0009999981 -0.0009999991 0.0009999976 0.0009999954 0.00099999 0.0009999956
0.0009999904 -0.0009999952 0.0009999973 0.000999985 0.0009999984 -0.0009999984 0.0009999959 -0.0009999956
0.000999997 -0.0009999987 -0.0009999995 0.0009999971 0.0009999864 0.0009999987 -0.0009999976 -0.0009999967
0.000999997 0.000999998 0.0009999985 -0.0009999985 -0.0009999973 -0.0009999952 -0.0009999949 -0.0009999983
0.0009999981 0.0009999925 0.0009999985 -0.0009999992 -0.0009999949 -0.0009999978 0.0009999989 -0.0009999991
0.0009999892 0.0009999969 0.0009999976 0.0009999953 -0.0009984307 -0.0009999987 0.0009999948 0.000999996
0.0009999983 -0.000999998 -0.000999993 0.0009999961 -0.000999996 0.0009999978 0.0009999991 -0.0009999943
00000000: 2611 833a 6612 833a 5d12 833a 5e12 83ba
00000010: 4a12 833a 5510 83ba 6412 83ba 6412 833a
00000020: 5312 83ba 5412 83ba 5912 83ba 5312 83ba
00000030: 6812 833a 6a12 83ba 4a12 833a 1a0d 833a
00000040: 6112 833a 4812 83ba 1812 833a 4c12 833a
00000050: 6612 83ba 6512 833a 3912 83ba 4012 83ba
00000060: 5912 833a 3412 83ba 4b12 83ba 6312 83ba
00000070: 5412 833a 5a12 83ba 4712 833a 5712 833a
00000080: 5c12 83ba 2b06 833a 4412 833a 6412 83ba
00000090: 6712 833a 5a12 833a 5012 833a 130e 83ba
000000a0: 6412 83ba 6012 83ba 6112 833a 1c12 83ba
000000b0: 5f12 833a 5612 83ba 6212 83ba 6412 833a
000000c0: 6412 833a 6212 833a 5b12 83ba 5e12 833a
000000d0: 5d12 83ba ed11 83ba 0912 83ba 4f12 833a
000000e0: 5a12 833a 6812 833a 4a12 833a 6212 833a
000000f0: 5e12 83ba 6812 833a 6812 83ba 5212 833a
00000100: ab11 833a 2312 833a 4212 83ba eb11 83ba
00000110: 4312 833a 0112 833a 6412 833a 6212 833a
00000120: 6212 83ba 6412 833a 5f12 83ba 3712 83ba
00000130: 6412 833a 5b12 83ba 6812 83ba 5812 833a
00000140: 4a12 83ba d211 833a 3e12 83ba 6312 833a
00000150: ee10 83ba 1912 83ba 6512 833a 6712 833a
00000160: 6312 833a 4612 83ba 5412 83ba 5012 833a
00000170: 3f12 83ba 6212 83ba 6112 83ba 3f12 83ba
00000180: 6512 833a 6512 83ba 5f12 833a 3112 83ba
00000190: 4b12 83ba 5b12 833a 6312 83ba 6212 83ba
000001a0: 6412 83ba 5812 833a 6012 83ba eb11 83ba
000001b0: 5c12 833a 5012 833a 5a12 833a b411 83ba
000001c0: 5512 83ba 9111 833a 5e12 83ba 5412 833a
000001d0: 3c12 83ba d80f 83ba 4d12 833a 6312 833a
000001e0: 6a12 83ba 5d12 83ba 5f12 83ba 6612 833a
000001f0: d411 833a 4f12 83ba ac11 833a 5212 83ba
00000200: 6212 833a 6012 83ba 4d12 83ba 6512 833a
00000210: 5012 83ba 2812 833a 6112 83ba 6212 833a
00000220: 6412 83ba 5412 833a 6512 83ba 7611 83ba
00000230: 3012 833a 2912 833a 6212 83ba 3112 83ba
00000240: 4c12 833a 6712 83ba 3212 833a 5f12 83ba
00000250: 6112 833a 6112 83ba 5712 83ba 4f12 83ba
00000260: 5b12 83ba 5912 83ba 6312 833a 1112 83ba
00000270: b106 83ba 4812 83ba 4912 833a 5b12 833a
00000280: 5f12 83ba f511 833a 9b10 833a 6212 83ba
00000290: 5f12 833a 3312 833a 5512 833a 6612 833a
000002a0: 6412 833a 5e12 83ba 5512 833a 5312 833a
000002b0: 6612 833a 5f12 833a 5a12 833a 4412 83ba
000002c0: 6412 833a 5912 833a 6512 83ba 6712 833a
000002d0: 3412 83ba 5c12 833a 5c12 83ba 5912 833a
000002e0: 6112 83ba 6012 833a 6612 83ba 6412 833a
000002f0: 6512 83ba 5412 83ba 6312 83ba 6312 833a
00000300: 4812 833a 6412 833a 5e12 833a 6712 83ba
00000310: 8a11 83ba 5012 83ba 5412 833a 2912 833a
00000320: 6612 833a 5f12 833a 5e12 833a 6712 83ba
00000330: 5a12 833a 4712 833a 1912 833a 4912 833a
00000340: 1c12 833a 4512 83ba 5712 833a ee11 833a
00000350: 6112 833a 6112 83ba 4b12 833a 4912 83ba
00000360: 5512 833a 6312 83ba 6a12 83ba 5612 833a
00000370: fa11 833a 6312 833a 5a12 83ba 5212 83ba
00000380: 5512 833a 5d12 833a 6212 833a 6212 83ba
00000390: 5712 83ba 4512 83ba 4312 83ba 6012 83ba
000003a0: 5e12 833a 2e12 833a 6212 833a 6812 83ba
000003b0: 4312 83ba 5c12 83ba 6512 833a 6712 83ba
000003c0: 1212 833a 5412 833a 5a12 833a 4612 833a
000003d0: c6dd 82ba 6312 83ba 4212 833a 4c12 833a
000003e0: 6012 833a 5d12 83ba 3212 83ba 4d12 833a
000003f0: 4c12 83ba 5c12 833a 6712 833a 3e12 83ba

actor_critic.actor.model.1.linear.weight f4 [12, 512]
-0.009469424 0.0016101509 0.015423105 -0.016947074 0.028586334 0.030051595 -0.012111577 0.020073947
-0.026568022 0.011691691 0.028617997 -0.03286019 0.015009871 -0.029511636 0.014810649 0.008230735
0.038346514 -0.0029219068 0.01336313 -0.007475378 -0.00097263046 0.035849318 -0.03574116 -0.022591392
0.03166326 0.038808923 0.005323475 -0.021820463 0.019064907 -0.030907085 0.021337837 -0.040718723
-0.016724303 -0.035979897 0.023588525 0.0107233515 0.02977792 0.03144027 0.030250883 0.009347889
-0.01633946 0.028630683 0.0019092759 -0.04370873 0.03436571 -0.014043796 -0.0057729566 0.039347127
0.029862283 0.017309234 0.009641436 0.03241523 -0.04294843 -0.04112072 -0.022031834 -0.021068843
0.003982248 -0.028381484 -0.03984555 0.008922391 -0.001010178 0.03392479 -0.04040471 -0.0014881289
-0.04228956 0.0057299244 -0.03889618 -0.020498203 0.003410757 -0.022026066 0.011597683 0.015355091
-0.021853665 -0.005271304 -0.03647992 0.024417615 0.037502892 -0.022775432 -0.026443973 -0.0335133
-0.03753957 -0.028829753 0.012869737 0.03721657 0.030004261 -0.0011440209 0.0022190078 -0.039698172
0.024865031 0.0048776576 -0.045102987 -0.031292763 -0.009873322 -0.03647779 -0.015969912 -0.038772233
0.011324013 -0.031100858 0.029542089 0.03019195 -0.0142955175 0.03157786 -0.032363918 -0.02722883
-0.006369966 0.022670403 -0.007904987 0.025719058 0.034902435 -0.034280676 0.0025923024 0.01312146
-0.021244146 -0.04264346 -0.030932 -0.03973952 -0.03153888 0.0186133 0.0027032488 0.017524673
0.026535664 0.037600707 -0.032459006 -0.02193761 0.01176393 -0.017154343 -0.019929135 0.032583363
-0.025295757 0.010984219 -0.025124297 0.036324903 0.018905677 0.0060198456 0.033390354 0.04425299
-0.009547201 -0.044944055 -0.0017099897 -0.022977142 -0.02244539 0.015765084 -0.042647 -0.011086779
0.0059394944 0.0009989357 0.03535359 0.032363337 -0.002399743 -0.018686514 -0.0009442132 -0.0039605103
-0.021390982 0.040107593 0.0156074595 0.0034295653 -0.0041944413 0.03006738 -0.018704968 -0.0010447486
0.00091415725 0.013060036 0.03663256 0.03913434 0.032350462 0.007591591 -0.0026686674 0.03756562
0.023421032 0.0034607644 -0.02657828 0.0416229 0.031200778 -0.0068871556 0.017661534 0.016326543
0.041645706 0.03149469 -0.014409171 0.025693221 0.03751061 0.026263237 0.027722271 0.033480927
0.006993082 -0.019557219 -0.010701061 0.023499079 -0.0021172443 -0.042634085 0.02358875 -0.042330116
-0.012000518 0.03143192 -0.006694845 0.03852383 -0.020977642 -0.010735622 -0.033000447 0.018875495
0.012096727 0.0014211944 0.021495122 -0.032170475 0.019541524 0.016014636 -0.009238038 0.042263586
-0.03915775 0.0057407627 -0.034213033 0.002730718 0.020836988 0.022351349 0.010458464 0.03456296
-0.031826127 0.019116797 -0.037103288 -0.009644739 -0.03263419 0.039415583 -0.004426702 -0.018543573
0.00048691465 0.002214909 0.026023358 -0.030116297 -0.035976984 -0.030324303 0.042787652 0.004715292
-0.0013599199 -0.015943803 -0.004061725 -0.011679927 0.0022084287 -0.022049548 0.03275824 -0.031717777
-0.041016486 0.0029080822 -0.021865217 0.04244491 -0.010606816 -0.0067078643 0.031566963 -0.029475654
0.04286046 -0.040603314 0.012719263 -0.026402047 0.022099027 0.012769507 0.037635677 -0.018407907
00000000: a525 1bbc b30b d33a 31b1 7c3c 97d4 8abc
00000010: e32d ea3c c32e f63c a36f 46bc 1e72 a43c
00000020: 2ea5 d9bc 828e 3f3c 4a70 ea3c 6898 06bd
00000030: f6eb 753c 63c2 f1bc 5da8 723c 34da 063c
00000040: 3c11 1d3d 767d 3fbb 08f1 5a3c 04f4 f4bb
00000050: 20f8 7eba bcd6 123d 5365 12bd 9511 b9bc
00000060: 56b1 013d 1bf6 1e3d 8c70 ae3b d4c0 b2bc
00000070: 022e 9c3c db30 fdbc b0cc ae3c adc8 26bd
00000080: 6801 89bc a85f 13bd b93c c13c ffb0 2f3c
00000090: d3f0 f33c 83c7 003d b3d0 f73c e327 193c
000000a0: 55da 85bc e58a ea3c ab40 fa3a ed07 33bd
000000b0: 0fc3 0c3d f317 66bc 122b bdbb 742a 213d
000000c0: bfa1 f43c 18cc 8d3c 1df7 1d3c d5c5 043d
000000d0: b1ea 2fbd 336e 28bd 1b7c b4bc 9198 acbc
000000e0: 847d 823b 4980 e8bc 1635 23bd 382f 123c
000000f0: f367 84ba b8f4 0a3d 697f 25bd 520d c3ba
00000100: d137 2dbd 17c2 bb3b 9a51 1fbd d9eb a7bc
00000110: 0287 5f3b 0270 b4bc 3504 3e3c eb93 7b3c
00000120: 7506 b3bc e7ba acbb f86b 15bd 7307 c83c
00000130: a29c 193d 8b93 babc 08a1 d8bc 3e45 09bd
00000140: 18c3 19bd 602c ecbc 97db 523c 6770 183d
00000150: 7fcb f53c f9f2 95ba c66c 113b 8d9a 22bd
00000160: c0b1 cb3c c2d4 9f3b e9bd 38bd d72c 00bd
00000170: b7c3 21bc bc69 15bd 55d3 82bc a2cf 1ebd
00000180: 5a88 393c 3ac7 febc 4002 f23c 1c55 f73c
00000190: bf37 6abc c957 013d 0790 04bd ff0e dfbc
000001a0: 26bb d0bb 48b7 b93c eb83 01bc c6b0 d23c
000001b0: dbf5 0e3d e569 0cbd 9ee3 293b 64fb 563c
000001c0: 3408 aebc e9aa 2ebd 1b65 fdbc e8c5 22bd
000001d0: ea2e 01bd eb7a 983c fd28 313b e78f 8f3c
000001e0: 5261 d93c 3303 1a3d bcf3 04bd 81b6 b3bc
000001f0: 80bd 403c 4487 8cbc 6d42 a3bc 2276 053d
00000200: 0c39 cfbc 27f7 333c 78d1 cdbc 6cc9 143d
00000210: 14e0 9a3c 2042 c53b 53c4 083d a042 353d
00000220: dd6b 1cbc 4217 38bd bc21 e0ba 8f3a bcbc
00000230: 65df b7bc c725 813c 9fae 2ebd 52a5 35bc
00000240: 17a0 c23b b8ee 823a edce 103d 6b8f 043d
00000250: 0245 1dbb 7614 99bc 1385 77ba 2bc7 81bb
00000260: 243c afbc dc47 243d 6eb6 7f3c 8fc2 603b
00000270: 8671 89bb de4f f63c 293b 99bc f2ef 88ba
00000280: 0ea4 6f3a c3f9 553c 060c 163d 544b 203d
00000290: eb81 043d e2c2 f83b cfe4 2ebb 68de 193d
000002a0: 77dd bf3c fecd 623b b1ba d9bc c67c 2a3d
000002b0: c698 ff3c a6ad e1bb ecae 903c 3ebf 853c
000002c0: b094 2a3d 9300 013d 7214 6cbc 977a d23c
000002d0: baa4 193d 0026 d73c d119 e33c 4c23 093d
000002e0: 3926 e53b 7636 a0bc 8153 2fbc 2481 c03c
000002f0: 77c1 0abb 14a1 2ebd 323d c13c 5862 2dbd
00000300: d29d 44bc c2be 003d 6e60 dbbb 2acb 1d3d
00000310: 4ed9 abbc 76e4 2fbc 7a2b 07bd c8a0 9a3c
00000320: 5a31 463c 5f47 ba3a 8a16 b03c 30c5 03bd
00000330: 8c15 a03c 2031 833c 245b 17bc 951c 2d3d
00000340: e063 20bd 021d bc3b f722 0cbd d9f5 323b
00000350: 55b2 aa3c 2d1a b73c fa59 2b3c e491 0d3d
00000360: 1d5c 02bd d49a 9c3c 9ef9 17bd f804 1ebc
00000370: 6eab 05bd 3c72 213d de0d 91bb b1e8 97bc
00000380: 9448 ff39 0228 113b f02e d53c 74b6 f6bc
00000390: 9a5c 13bd ac6a f8bc 1b42 2f3d bc82 9a3b
000003a0: 573f b2ba 949c 82bc 3818 85bb 2a5d 3fbc
000003b0: 49bb 103b 41a1 b4bc 812d 063d 80ea 01bd
000003c0: e700 28bd 8695 3e3b af1e b3bc b7da 2d3d
000003d0: 36c8 2dbc a5cd dbbb 5c4c 013d ed76 f1bc
000003e0: 738e 2f3d a94f 26bd 7564 503c 1b49 d8bc
000003f0: 0509 b53c 3237 513c de27 1a3d 2ecc 96bc

actor_critic.actor.model.1.linear.bias f4 [12]
0.0009999998 0.0009999996 -0.0009999997 -0.0009999997 -0.0009999995 0.0009999997 0.0009999997 0.0009999997
0.0009999998 0.0009999998 -0.0009999999 -0.0009999984
00000000: 6d12 833a 6b12 833a 6c12 83ba 6c12 83ba
00000010: 6a12 83ba 6c12 833a 6c12 833a 6c12 833a
00000020: 6d12 833a 6d12 833a 6e12 83ba 6112 83ba

actor_critic.critic.model.0.linear.weight f4 [512, 37]
-0.051741417 -0.05510565 0.15336673 -0.07898313 -0.054281577 0.037356313 -0.0073392713 -0.13909213
0.104239844 -0.14066043 -0.0473696 0.0021487318 0.16140658 0.008342781 0.15455389 -0.08397359
0.04210898 0.07660096 0.008569685 0.15672964 -0.03975331 0.13070399 -0.095531344 -0.006952389
-0.10787597 0.10114757 0.038947426 0.029715158 -0.032753497 -0.14215116 0.11832902 0.037235003
0.11313836 -0.112153016 -0.15146098 0.10594542 -0.07549958 -0.10304145 0.010515423 -0.06559101
0.06248445 -0.03466082 -0.13552843 -0.016995776 -0.011806648 -0.0047842753 -0.14224449 0.13111946
-0.028102506 -0.13934931 0.13299282 -0.03064937 -0.11954701 -0.098055296 -0.15773909 0.024370225
-0.023210796 0.11758214 -0.1475908 -0.01393537 0.011737742 0.031084677 0.0565769 -0.0425553
0.06600284 0.1366317 -0.07668527 -0.03562874 -0.04383132 -0.051643252 0.013044216 0.1290715
0.13334593 -0.13989396 0.094190635 0.08152897 -0.12803158 0.14869994 -0.06747487 0.035618804
-0.118985504 0.12019352 0.06334797 0.15703419 -0.06375151 -0.13711445 0.065713204 0.0901333
-0.10659014 -0.01869897 -0.08083491 -0.059686106 0.05788698 0.14663762 -0.0735199 -0.07150792
-0.06792127 -0.15518297 0.0003084707 0.016292114 -0.01877544 0.09327398 0.08085366 0.00608579
-0.009007208 -0.13938068 0.07170455 -0.1188612 0.10343229 -0.12192472 0.06355339 0.044754457
0.11247409 0.025150536 -0.13604362 0.12991396 0.09403742 -0.15598609 0.049072556 0.016141407
0.07481926 -0.008097435 -0.08056042 -0.032355405 -0.15869293 -0.0152241085 0.027099838 0.13625948
0.06331632 -0.13250977 0.0544765 0.14681304 0.1617284 0.103778645 -0.1163432 0.097043246
-0.11236603 0.09067707 -0.017560098 -0.021845018 0.13252223 0.1367028 0.017650092 -0.10308763
0.000569397 0.13381231 -0.076665364 -0.10171585 -0.1374198 -0.15957613 0.13833971 -0.118981056
0.15899426 -0.14754394 -0.023873283 0.1033373 -0.035787504 -0.068559594 -0.13352105 -0.114827715
0.15570587 0.08370686 0.12389899 0.08839152 0.025339087 0.0799016 0.15951578 0.09022222
0.12595515 -0.051275674 -0.06827263 0.021536725 0.16169728 0.10487548 -0.12626235 -0.10977893
-0.13036135 -0.025246564 -0.037286095 -0.121496916 -0.055056185 0.11884046 0.16247956 0.021765256
-0.08408567 0.1423624 -0.009150822 -0.13103746 -0.154896 0.060840227 0.088383235 -0.14643735
0.15801495 0.14553915 -0.001793187 0.09979161 -0.12933733 -0.15601718 -0.09527042 -0.12664947
-0.02472099 0.07234395 -0.10867402 0.11568579 0.054924387 0.023902345 -0.004931573 0.0638947
0.07174196 0.049264576 0.0038218817 -0.04497315 0.13026021 -0.0022527573 -0.14518902 -0.08615536
-0.081169955 -0.09609018 -0.12472465 0.11094446 -0.13741264 -0.03580408 -0.093386985 -0.06535722
-0.02046911 -0.0086155245 -0.002641109 -0.1614856 -0.018136255 -0.046180636 0.06378473 0.06299099
0.030864554 -0.040683135 0.0119070485 0.13213626 -0.04672301 -0.14559461 -0.06518408 -0.14728597
0.11730804 0.042661913 -0.11370225 0.07796974 -0.08420177 -0.037813984 0.009853131 0.083340384
-0.03198177 -0.03271779 -0.15621741 -0.13706887 0.028803425 -0.04189497 0.12514657 -0.13332166
00000000: cfee 53bd 76b6 61bd 2b0c 1d3e e8c1 a1bd
00000010: 5c56 5ebd ef02 193d 457e f0bb 2b6e 0ebe
00000020: b37b d53d 4a09 10be a006 42bd bdd1 0c3b
00000030: c447 253e 29b0 083c 6043 1e3e 58fa abbd
00000040: 777a 2c3d f7e0 9c3d dd67 0c3c bc7d 203e
00000050: 5ed4 22bd 44d7 053e f0a5 c3bd ded0 e3bb
00000060: 14ee dcbd 7526 cf3d 5687 1f3d 346d f33c
00000070: 8828 06bd 1390 11be 7c56 f23d bb83 183d
00000080: 16b5 e73d 7bb0 e5bd 9618 1bbe eaf9 d83d
00000090: 869f 9abd 6507 d3bd e148 2c3c 9454 86bd
000000a0: b2ef 7f3d 81f8 0dbd f7c7 0abe ba3a 8bbc
000000b0: ac70 41bc 69c5 9cbb 8aa8 11be 2e44 063e
000000c0: 3a37 e6bc 96b1 0ebe 452f 083e 6314 fbbc
000000d0: 10d5 f4bd 37d1 c8bd 5b86 21be 11a4 c73c
000000e0: 9124 bebc e8ce f03d 0b22 17be 2e51 64bc
000000f0: a94f 403c 4ba5 fe3c 2ebd 673d 774e 2ebd
00000100: 7f2c 873d 2ee9 0b3e 2b0d 9dbd 71ef 11bd
00000110: 7888 33bd e087 53bd 68b7 553c 522b 043e
00000120: d68b 083e 5d40 0fbe 05e7 c03d a9f8 a63d
00000130: b61a 03be cc44 183e 4430 8abd 06e5 113d
00000140: acae f3bd 0528 f63d 95bc 813d 92cd 203e
00000150: 2790 82bd bb67 0cbe a594 863d cf97 b83d
00000160: ee4b dabd 952e 99bc c68c a5bd 6b79 74bd
00000170: e61a 6d3d 2c28 163e 9a91 96bd bf72 92bd
00000180: 4f1a 8bbd 49e8 1ebe 3dba a139 0a77 853c
00000190: f4ce 99bc 6e06 bf3d 9b96 a53d 4f6b c73b
000001a0: f892 13bc cfb9 0ebe d6d9 923d 806d f3bd
000001b0: 4fd4 d33d abb3 f9bd 4828 823d 7350 373d
000001c0: d158 e63d 7f08 ce3c 054f 0bbe 2a08 053e
000001d0: b196 c03d d1ba 1fbe 4e00 493d fc3a 843c
000001e0: d73a 993d 1bab 04bc ddfc a4bd 1a87 04bd
000001f0: 6680 22be 8a6e 79bc 7b00 de3c 9b87 0b3e
00000200: fdab 813d a4b0 07be c022 5f3d 2856 163e
00000210: 219c 253e e689 d43d 5845 eebd 9cbe c63d
00000220: 2920 e6bd e6b4 b93d 32da 8fbc 53f4 b2bc
00000230: e8b3 073e d2fb 0b3e ed96 903c 9b1f d3bd
00000240: 9643 153a 1806 093e bb02 9dbd 6650 d0bd
00000250: c7b7 0cbe ed67 23be eda8 0d3e 57ac f3bd
00000260: 64cf 223e c215 17be e791 c3bc 82a2 d33d
00000270: eb95 12bd f968 8cbd beb9 08be cb2a ebbd
00000280: 5c71 1f3e 816e ab3d c1be fd3d 9d06 b53d
00000290: eb93 cf3c 73a3 a33d 1b58 233e 6dc6 b83d
000002a0: 63fa 003e 7106 52bd 85d2 8bbd c96d b03c
000002b0: f993 253e f5c8 d63d eb4a 01be c7d3 e0bd
000002c0: 727d 05be e2d1 cebc 4eb9 18bd 60d3 f8bd
000002d0: 9882 61bd a162 f33d 0b61 263e 0d4d b23c
000002e0: 1c35 acbd 73c7 113e 54ed 15bc af2e 06be
000002f0: 0f9d 1ebe 9a33 793d 4502 b53d acf3 15be
00000300: acce 213e 3708 153e 5f09 ebba 8b5f cc3d
00000310: 0171 04be f8c2 1fbe 231d c3bd 66b0 01be
00000320: ac83 cabc 1129 943d 7c90 debd acec ec3d
00000330: 65f8 603d dace c33c 0899 a1bb 39db 823d
00000340: 73ed 923d a7c9 493d 8978 7a3b c435 38bd
00000350: ef62 053e ffa2 13bb 6eac 14be 3972 b0bd
00000360: 6f3c a6bd eeca c4bd a36f ffbd d936 e33d
00000370: e6b5 0cbe 4da7 12bd ad41 bfbd 02da 85bd
00000380: d6ae a7bc 2128 0dbc 7516 2dbb 7b5c 25be
00000390: 7c92 94bc e827 3dbd 92a1 823d 6c01 813d
000003a0: a9d7 fc3c 5ca3 26bd c815 433c ba4e 073e
000003b0: a060 3fbd c116 15be 3b7f 85bd 22d2 16be
000003c0: 333f f03d 42be 2e3d badc e8bd 99ae 9f3d
000003d0: fa71 acbd d6e2 1abd 076f 213c 5dae aa3d
000003e0: 51ff 02bd 1703 06bd 75f7 1fbe c85b 0cbe
000003f0: 29f5 eb3c 0f9a 2bbd 6c26 003e 7985 08be

actor_critic.critic.model.0.linear.bias f4 [512]
0.0 0.0 0.0 0.0 0.0 0.0 0.0 0.0
0.0 0.0 0.0 0.0 0.0 0.0 0.0 0.0
0.0 0.0 0.0 0.0 0.0 0.0 0.0 0.0
0.0 0.0 0.0 0.0 0.0 0.0 0.0 0.0
0.0 0.0 0.0 0.0 0.0 0.0 0.0 0.0
0.0 0.0 0.0 0.0 0.0 0.0 0.0 0.0
0.0 0.0 0.0 0.0 0.0 0.0 0.0 0.0
0.0 0.0 0.0 0.0 0.0 0.0 0.0 0.0
0.0 0.0 0.0 0.0 0.0 0.0 0.0 0.0
0.0 0.0 0.0 0.0 0.0 0.0 0.0 0.0
0.0 0.0 0.0 0.0 0.0 0.0 0.0 0.0
0.0 0.0 0.0 0.0 0.0 0.0 0.0 0.0
0.0 0.0 0.0 0.0 0.0 0.0 0.0 0.0
0.0 0.0 0.0 0.0 0.0 0.0 0.0 0.0
0.0 0.0 0.0 0.0 0.0 0.0 0.0 0.0
0.0 0.0 0.0 0.0 0.0 0.0 0.0 0.0
0.0 0.0 0.0 0.0 0.0 0.0 0.0 0.0
0.0 0.0 0.0 0.0 0.0 0.0 0.0 0.0
0.0 0.0 0.0 0.0 0.0 0.0 0.0 0.0
0.0 0.0 0.0 0.0 0.0 0.0 0.0 0.0
0.0 0.0 0.0 0.0 0.0 0.0 0.0 0.0
0.0 0.0 0.0 0.0 0.0 0.0 0.0 0.0
0.0 0.0 0.0 0.0 0.0 0.0 0.0 0.0
0.0 0.0 0.0 0.0 0.0 0.0 0.0 0.0
0.0 0.0 0.0 0.0 0.0 0.0 0.0 0.0
0.0 0.0 0.0 0.0 0.0 0.0 0.0 0.0
0.0 0.0 0.0 0.0 0.0 0.0 0.0 0.0
0.0 0.0 0.0 0.0 0.0 0.0 0.0 0.0
0.0 0.0 0.0 0.0 0.0 0.0 0.0 0.0
0.0 0.0 0.0 0.0 0.0 0.0 0.0 0.0
0.0 0.0 0.0 0.0 0.0 0.0 0.0 0.0
0.0 0.0 0.0 0.0 0.0 0.0 0.0 0.0
00000000: 0000 0000 0000 0000 0000 0000 0000 0000
00000010: 0000 0000 0000 0000 0000 0000 0000 0000
00000020: 0000 0000 0000 0000 0000 0000 0000 0000
00000030: 0000 0000 0000 0000 0000 0000 0000 0000
00000040: 0000 0000 0000 0000 0000 0000 0000 0000
00000050: 0000 0000 0000 0000 0000 0000 0000 0000
00000060: 0000 0000 0000 0000 0000 0000 0000 0000
00000070: 0000 0000 0000 0000 0000 0000 0000 0000
00000080: 0000 0000 0000 0000 0000 0000 0000 0000
00000090: 0000 0000 0000 0000 0000 0000 0000 0000
000000a0: 0000 0000 0000 0000 0000 0000 0000 0000
000000b0: 0000 0000 0000 0000 0000 0000 0000 0000
000000c0: 0000 0000 0000 0000 0000 0000 0000 0000
000000d0: 0000 0000 0000 0000 0000 0000 0000 0000
000000e0: 0000 0000 0000 0000 0000 0000 0000 0000
000000f0: 0000 0000 0000 0000 0000 0000 0000 0000
00000100: 0000 0000 0000 0000 0000 0000 0000 0000
00000110: 0000 0000 0000 0000 0000 0000 0000 0000
00000120: 0000 0000 0000 0000 0000 0000 0000 0000
00000130: 0000 0000 0000 0000 0000 0000 0000 0000
00000140: 0000 0000 0000 0000 0000 0000 0000 0000
00000150: 0000 0000 0000 0000 0000 0000 0000 0000
00000160: 0000 0000 0000 0000 0000 0000 0000 0000
00000170: 0000 0000 0000 0000 0000 0000 0000 0000
00000180: 0000 0000 0000 0000 0000 0000 0000 0000
00000190: 0000 0000 0000 0000 0000 0000 0000 0000
000001a0: 0000 0000 0000 0000 0000 0000 0000 0000
000001b0: 0000 0000 0000 0000 0000 0000 0000 0000
000001c0: 0000 0000 0000 0000 0000 0000 0000 0000
000001d0: 0000 0000 0000 0000 0000 0000 0000 0000
000001e0: 0000 0000 0000 0000 0000 0000 0000 0000
000001f0: 0000 0000 0000 0000 0000 0000 0000 0000
00000200: 0000 0000 0000 0000 0000 0000 0000 0000
00000210: 0000 0000 0000 0000 0000 0000 0000 0000
00000220: 0000 0000 0000 0000 0000 0000 0000 0000
00000230: 0000 0000 0000 0000 0000 0000 0000 0000
00000240: 0000 0000 0000 0000 0000 0000 0000 0000
00000250: 0000 0000 0000 0000 0000 0000 0000 0000
00000260: 0000 0000 0000 0000 0000 0000 0000 0000
00000270: 0000 0000 0000 0000 0000 0000 0000 0000
00000280: 0000 0000 0000 0000 0000 0000 0000 0000
00000290: 0000 0000 0000 0000 0000 0000 0000 0000
000002a0: 0000 0000 0000 0000 0000 0000 0000 0000
000002b0: 0000 0000 0000 0000 0000 0000 0000 0000
000002c0: 0000 0000 0000 0000 0000 0000 0000 0000
000002d0: 0000 0000 0000 0000 0000 0000 0000 0000
000002e0: 0000 0000 0000 0000 0000 0000 0000 0000
000002f0: 0000 0000 0000 0000 0000 0000 0000 0000
00000300: 0000 0000 0000 0000 0000 0000 0000 0000
00000310: 0000 0000 0000 0000 0000 0000 0000 0000
00000320: 0000 0000 0000 0000 0000 0000 0000 0000
00000330: 0000 0000 0000 0000 0000 0000 0000 0000
00000340: 0000 0000 0000 0000 0000 0000 0000 0000
00000350: 0000 0000 0000 0000 0000 0000 0000 0000
00000360: 0000 0000 0000 0000 0000 0000 0000 0000
00000370: 0000 0000 0000 0000 0000 0000 0000 0000
00000380: 0000 0000 0000 0000 0000 0000 0000 0000
00000390: 0000 0000 0000 0000 0000 0000 0000 0000
000003a0: 0000 0000 0000 0000 0000 0000 0000 0000
000003b0: 0000 0000 0000 0000 0000 0000 0000 0000
000003c0: 0000 0000 0000 0000 0000 0000 0000 0000
000003d0: 0000 0000 0000 0000 0000 0000 0000 0000
000003e0: 0000 0000 0000 0000 0000 0000 0000 0000
000003f0: 0000 0000 0000 0000 0000 0000 0000 0000

actor_critic.critic.model.1.linear.weight f4 [1, 512]
0.03929568 -0.02636859 -0.011316376 0.010743827 -0.017225442 -0.043386422 -0.0024219474 -0.020910574
-0.03820732 0.041372977 0.013433776 0.028311307 -0.043853927 0.0250192 -0.03853159 -0.011955417
-0.03978963 0.018350665 -0.007904536 0.02417344 0.010176988 0.027374715 0.014712016 0.015040635
-0.03080283 -0.0063582207 0.019209316 0.008775342 0.031126617 -0.020297337 0.039467026 -0.035441957
0.021503296 -0.0079163425 -0.003958574 -0.0089470595 0.00923694 0.006610838 0.033328954 -0.01031386
0.036461323 0.036985274 -0.008738206 0.006699252 -0.018500023 0.038523726 0.034173917 -0.011949643
0.0150658125 0.02112587 0.03223274 -0.017635364 0.016994141 -0.0425016 0.02735175 0.015468078
-0.04005523 -0.040101863 0.010903726 -0.04025693 -0.015233704 -0.033239476 -0.0015770297 0.029696269
0.0090886885 0.016183099 0.032520246 0.0295413 0.011489215 0.021633798 0.0029366554 0.012771154
0.004365976 0.04222357 0.010116324 -0.012722505 0.024283528 -0.0073345685 -0.003233975 0.03239741
0.03566319 0.022685314 0.029750416 0.02237298 -0.010926476 -0.020580174 0.0007690114 0.041937146
-0.003578062 0.03186329 -0.014792174 0.03706652 -0.013362637 -0.00397017 0.040748015 -0.01144299
-0.037031207 -0.037451256 -0.015185846 -0.018027846 0.016843688 -0.0021423716 -0.020984657 0.021882964
0.027487105 -0.0037223147 -0.007849582 0.010972573 -0.008500197 -0.0127680395 0.04200938 0.021901831
0.01929654 -0.037319373 0.025231536 0.015462804 -0.017190488 0.02433481 8.782349e-05 -0.010248917
0.01088788 -0.036431015 0.034491777 -0.038499318 0.008380842 -0.023078766 0.04111137 0.04152256
-0.011786298 0.03689934 0.044169664 -0.022002857 0.029081304 -0.017993653 0.017672237 0.042455498
0.040126633 -0.044046823 0.031281162 -0.009176917 0.042312123 -0.044034433 0.025151547 -0.017414993
0.037145622 -0.027385615 0.027302433 0.007237225 -0.030456256 0.0006435824 -0.011146082 -0.028616615
-0.030306682 -0.019746788 0.028899798 -0.011544538 0.022974662 -0.020684952 -0.015243556 -0.003981128
0.025595892 -0.034633387 -0.028296888 -0.039934363 -0.035346676 0.0007149633 -0.013717603 0.015881201
0.022469917 0.042529605 0.027825154 -0.028118376 -0.0036746361 -0.04084154 0.016523914 0.0027740845
0.0061716316 0.0071285493 -0.009718789 -0.0062496243 -0.024505699 0.023900282 -0.0039265584 -0.036453046
-0.03228842 -0.001705193 0.044077042 -0.02542908 -0.009155481 0.0418232 0.029496888 0.013238035
0.03998269 0.004822748 0.0060858415 -0.0056509175 -0.029686812 -0.011051867 0.029022088 0.029453866
-0.009875375 0.011027143 0.0035986402 -0.003413979 0.0058509624 -0.027311869 0.035324816 0.037078653
-0.032745462 0.01805523 -0.028848885 -0.004983459 -0.027328959 0.033265125 -0.004775649 0.0108781755
0.0068798405 0.005930941 -0.016025633 -0.007896591 -0.011965912 -0.0026082576 0.032378167 -0.03367949
-0.0346765 -0.02988327 0.025448162 -0.036229856 0.02938867 -0.012275891 0.017108064 -0.03454673
-0.013649878 -0.0063754274 0.008452787 -0.011838723 0.0028367357 0.014100106 -0.031376652 0.011518939
-0.0015397876 -0.0135266725 -0.02019651 -0.0070008547 -0.04417315 -0.014635251 0.017944595 0.03542444
0.031919368 -0.018209787 -0.0325017 0.038234547 -0.005208033 -0.013163572 -0.03753609 -0.028946023
00000000: 82f4 203d f102 d8bc 5268 39bc e006 303c
00000010: 5f1c 8dbc f6b5 31bd 89b9 1ebb a74c abbc
00000020: 477f 1cbd b676 293d 5719 5c3c 1ded e73c
00000030: 2da0 33bd 11f5 cc3c 4dd3 1dbd a7e0 43bc
00000040: 73fa 22bd 2254 963c 0782 01bc 6107 c63c
00000050: 62bd 263c f040 e03c ab0a 713c ff6c 763c
00000060: 3756 fcbc 9f58 d0bb db5c 9d3c 74c6 0f3c
00000070: 3ffd fe3c 9a46 a6bc 2da8 213d 962b 11bd
00000080: ae27 b03c 8cb3 01bc edb6 81bb b096 12bc
00000090: 8956 173c bb9f d83b f183 083d 77fb 28bc
000000a0: 7858 153d df7d 173d b12a 0fbc 6685 db3b
000000b0: 5c8d 97bc 0ecb 1d3d f3f9 0b3d 6fc8 43bc
000000c0: 99d6 763c 2910 ad3c 7a06 043d 0a78 90bc
000000d0: 4c37 8b3c 2816 2ebd c710 e03c d26d 7d3c
000000e0: f410 24bd da41 24bd 8ba5 323c 73e4 24bd
000000f0: c996 79bc 1e26 08bd 56b4 ceba 9745 f33c
00000100: b9e8 143c 6b92 843c f333 053d 9900 f23c
00000110: 433d 3c3c 5d39 b13c e774 403b 1a3e 513c
00000120: 7610 8f3b 9ff2 2c3d f0be 253c 0e72 50bc
00000130: 40ee c63c d256 f0bb 19f1 53bb 26b3 043d
00000140: 9113 123d 8dd6 b93c 25b7 f33c 8a47 b73c
00000150: f604 33bc c197 a8bc 7b97 493a 49c6 2b3d
00000160: eb7d 6abb 1583 023d e05a 72bc 10d3 173d
00000170: f6ee 5abc 3318 82bb 64e7 263d 617b 3bbc
00000180: 09ae 17bd 7d66 19bd 0ece 78bc 22af 93bc
00000190: c6fb 893c 0867 0cbb 04e8 abbc e743 b33c
000001a0: a32c e13c 14f2 73bb 889b 00bc 4fc6 333c
000001b0: 6944 0bbc 0a31 51bc 0712 2c3d 786b b33c
000001c0: c713 9e3c 33dc 18bd 5eb2 ce3c b357 7d3c
000001d0: 11d3 8cbc cc59 c73c e12d b838 13eb 27bc
000001e0: 1463 323c b038 15bd 4047 0d3d 76b1 1dbd
000001f0: cd4f 093c ae0f bdbc 6564 283d 8f13 2a3d
00000200: 511b 41bc c323 173d 40eb 343d 563f b4bc
00000210: ea3b ee3c 6d67 93bc 5ec5 903c d1e5 2d3d
00000220: d35b 243d 716a 34bd ad20 003d c85a 16bc
00000230: 7a4f 2d3d 735d 34bd 9e0a ce3c e3a9 8ebc
00000240: 0226 183d cc57 e0bc 5aa9 df3c 3e26 ed3b
00000250: 667f f9bc 15b6 283a 0e9e 36bc 646d eabc
00000260: b845 f8bc 04c4 a1bc 45bf ec3c 4d25 3dbc
00000270: 5c35 bc3c 7d73 a9bc 1cc0 79bc 1f74 82bb
00000280: 7aae d13c bddb 0dbd e0ce e7bc 3792 23bd
00000290: adc7 10bd 606c 3b3a ccbf 60bc 4b19 823c
000002a0: d512 b83c 8633 2e3d 94f1 e33c 8258 e6bc
000002b0: 2ad2 70bb 7549 27bd 295d 873c 6acd 353b
000002c0: 663b ca3b 9b96 e93b 8e3b 1fbc a6c9 ccbb
000002d0: 2dc0 c8bc 86ca c33c 5caa 80bb ca4f 15bd
000002e0: dd40 04bd c880 dfba 218a 343d a550 d0bc
000002f0: df00 16bc ce4e 2b3d 75a3 f13c 58e4 583c
00000300: e4c4 233d 2408 9e3b bd6b c73b 552b b9bb
00000310: c231 f3bc e412 35bc bbbf ed3c 3c49 f13c
00000320: 53cc 21bc 31ab 343c 2ad7 6b3b 10bd 5fbb
00000330: 6eb9 bf3b 24bd dfbc c1b0 103d c9df 173d
00000340: 1b20 06bd 90e8 933c 7f54 ecbc 494c a3bb
00000350: fbe0 dfbc 0341 083d 0c7d 9cbb 603a 323c
00000360: 4970 e13b 5758 c23b 3048 83bc b460 01bc
00000370: ac0c 44bc 4def 2abb f89e 043d 81f3 09bd
00000380: f208 0ebd c2cd f4bc aa78 d03c c265 14bd
00000390: 82c0 f03c d220 49bc 3626 8c3c df80 0dbd
000003a0: bda3 5fbc f6e8 d0bb 8f7d 0a3c 34f7 41bc
000003b0: 87e8 393b 2204 673c ce84 00bd efb9 3c3c
000003c0: b3d2 c9ba fa9e 5dbc 2773 a5bc 6d67 e5bb
000003d0: e8ee 34bd b1c8 6fbc 8b00 933c 3819 113d
000003e0: e2bd 023d b12c 95bc 8120 05bd d49b 1c3d
000003f0: 26a8 aabb 06ac 57bc 71bf 19bd 3620 edbc
