RL_Project/checkpoints/2023-12-05/18-07-04/0.pt (torch, 185545 bytes, 8 tensors)

actor_critic.std f4 [12]
000000 77 be 7f 3f c5 20 80 3f 77 be 7f 3f c5 20 80 3f
       0.999 1.001 0.999 1.001
000010 c5 20 80 3f 77 be 7f 3f 77 be 7f 3f 77 be 7f 3f
       1.001 0.999 0.999 0.999
000020 77 be 7f 3f c5 20 80 3f 77 be 7f 3f 77 be 7f 3f
       0.999 1.001 0.999 0.999

actor_critic.actor.model.0.linear.weight f4 [512, 37]
000000 78 53 c0 bd 9e 18 46 bd 70 20 9b b9 d4 2a 12 3e
       -0.093909204 -0.04836332 -0.00029588072 0.1427415
000010 0f 56 4a bd 5b 80 da 3d 10 6f c5 3d 0e f8 16 be
       -0.049398478 0.10669013 0.09640324 -0.14743063
000020 c0 10 ba bd 67 9d 05 3e 01 c1 14 be 0f a0 79 3d
       -0.09085226 0.13048325 -0.1452675 0.06094366
000030 5d 81 85 bd 5b 3c 91 bd 27 f8 c3 3d f5 74 dc 3d
       -0.06518815 -0.0709159 0.09568816 0.10764495
000040 39 15 82 3c d1 43 87 3d e4 1c f3 bd e4 ca b0 3d
       0.01587926 0.06604732 -0.11870745 0.08632448
000050 72 9b 47 bd 7c 2d 13 bd 3d 70 db bc e7 5b 73 3d
       -0.04873223 -0.03593205 -0.026786918 0.059413817
000060 b6 c3 9a 3d e9 be 16 3e a3 17 98 bd 7f d3 8a 3d
       0.0755686 0.14721264 -0.07426383 0.06778621
000070 3c 67 4e bd 68 82 87 3d 5f 33 db 3c ae 77 46 3c
       -0.05039142 0.0661667 0.026757894 0.012113495
000080 8f 0d 59 3d 80 e7 5a 3d f7 90 07 bc 44 24 0d be
       0.052991446 0.05344343 -0.008274308 -0.13783365
000090 06 99 c9 3d 03 66 e0 3d 16 10 88 3d 03 58 0c 3e
       0.0984364 0.10956957 0.06643693 0.13705449
0000a0 02 a6 23 3e d5 59 21 be c4 de c5 3d 44 ab 21 be
       0.15981296 -0.15756924 0.0966163 -0.15787989
0000b0 25 c9 b5 3d 31 cd c6 3d 0c 7d 09 3e e8 8c 19 be
       0.08876256 0.09707106 0.13426608 -0.14995158
0000c0 c9 10 0b 3e 2f 53 a6 bd 17 3a 24 3e 90 58 bc bd
       0.13580622 -0.08121335 0.16037785 -0.091965795
0000d0 af 1d e9 bd eb 5c 10 be be f7 8c bc 6c 00 06 3e
       -0.11382615 -0.14097945 -0.017207976 0.13086098
0000e0 fa 2d f7 3d 1a 82 0b 3d dd 11 79 bd 9b 30 ea 3c
       0.12069316 0.03405962 -0.06080805 0.02858763
0000f0 33 7d 0e bd 58 57 1f 3e a6 5a df 3b e6 a9 0b 3d
       -0.034787368 0.15560663 0.006816226 0.034097575
000100 3b cf 87 bd 0a 85 d8 bd 6d 2b d2 bc 66 2f c2 3d
       -0.06631323 -0.1057225 -0.025655473 0.09481697
000110 76 95 1a 3e a0 a1 62 3d 36 d1 d5 bc 1b c3 ae 3c
       0.15096077 0.05532992 -0.026100736 0.021333268
000120 b7 48 c5 bd 4a 8f 5b bd cb c1 01 be 9b df 77 3d
       -0.0963301 -0.053603448 -0.12671582 0.06051598
000130 23 39 1b be 04 d7 45 bd 78 cc 55 bc 19 b9 97 3d
       -0.15158515 -0.048300758 -0.013049237 0.074083515
000140 51 31 5a 3c 75 2d 1b be c4 0f d7 3c 30 18 6a bc
       0.013317422 -0.15154059 0.026252635 -0.014287993
000150 54 b0 1d be 40 aa 80 3d 7c 4c e2 bd ac 34 e8 3b
       -0.15399295 0.062824726 -0.110497445 0.007086357
000160 b9 77 13 3e d3 ac 9c 3a d5 76 d2 3d 2f 04 59 3d
       0.1440114 0.0011953361 0.10276572 0.052982505
000170 ed be de 3d d3 f1 4f 3d b5 e8 be bd a9 95 7c 3d
       0.1087626 0.05076773 -0.09321729 0.061666165
000180 48 88 88 bd 88 3b f5 bd 1a ba 82 3d e9 21 18 3e
       -0.066666186 -0.11974245 0.06383152 0.14856686
000190 52 aa 16 be fa 9f 26 3b f2 94 10 3e 56 cd 07 be
       -0.1471341 0.0025424943 0.14119318 -0.13261923
0001a0 bb 97 dc bd bf 2e b1 bc b4 2d f8 3d 74 61 fc 3c
       -0.10771128 -0.021628736 0.12118092 0.030808188
0001b0 be 01 a6 3d f1 85 6b bd b9 70 96 bd ce 5a fb bd
       0.08105801 -0.057500783 -0.07345719 -0.12273179
0001c0 8f c0 a0 bd 7d f7 9e 3d e2 4f 7d bd 22 cb 00 be
       -0.07849228 0.077620484 -0.06184376 -0.12577489
0001d0 ec 15 d3 bd 8e d1 a3 bc f8 97 e0 3d 56 bd 80 bd
       -0.10306916 -0.019997384 0.10966486 -0.06286113
0001e0 b0 db d7 3d 15 49 94 3d d9 77 17 be 40 1c e2 3b
       0.10539949 0.07240502 -0.14791812 0.0069003403
0001f0 b2 34 7a bd b3 8f 8d bd dd cd 3d bd 67 d0 5c 3d
       -0.06108541 -0.06912174 -0.046338905 0.053909685
000200 62 4b 6e 3c d2 3f 16 3b 8e a5 1a 3e 47 56 a7 3d
       0.01454434 0.0022926223 0.15102217 0.08170753
000210 00 56 00 be d9 29 1f 3e 73 6f 81 3b f2 16 e3 bd
       -0.12532806 0.15543307 0.0039500534 -0.11088361
000220 87 82 98 3d 8c c8 bb 3d 1c c4 3b 3d f1 7f a9 bd
       0.07446771 0.09169111 0.04584132 -0.08276356
000230 14 b7 c5 bd 91 b0 2a bd 61 34 c3 bd f4 9b 03 bd
       -0.0965406 -0.041672293 -0.09531475 -0.03213115
000240 4d d5 27 bd 4f d8 e9 3d 38 5d 26 3d 65 41 95 bd
       -0.040974904 0.11418211 0.040616244 -0.07287864
000250 a4 83 02 bd 62 8a 31 3d b7 82 78 bd f0 c1 53 3d
       -0.031863824 0.043344863 -0.060671534 0.051698625
000260 ca c6 43 bd 59 25 15 3e a1 d3 05 3e f9 3a da 3d
       -0.047797002 0.14565028 0.13069011 0.106557794
000270 97 a9 c9 bc e9 c4 bc 3d d5 f9 02 be 87 11 09 3e
       -0.024617 0.09217245 -0.12790616 0.13385592
000280 bf f6 00 3e 69 fe e0 bd d2 51 b7 bd b9 76 22 be
       0.12594126 -0.10986025 -0.08951153 -0.15865602
000290 02 98 08 bc 02 95 22 be 78 16 7d 3d cd 59 29 3e
       -0.008337023 -0.15877154 0.061789006 0.16538163
0002a0 f2 f6 6a 3d aa 5b 83 bd 72 da e7 3d 19 58 36 bd
       0.05736441 -0.06413968 0.11320962 -0.04451761
0002b0 50 ad 7d bd 0c 87 6c bd 43 42 5d bc 10 fd 1e 3d
       -0.06193286 -0.05774598 -0.013504568 0.038815558
0002c0 36 9f f6 bd 19 0a 0c be 74 50 0d bd d6 0e e9 3b
       -0.12042086 -0.13675727 -0.034500554 0.0071123643
0002d0 72 e4 19 bd fb 0a 61 3c eb 48 ce bd 2c d0 2a 3d
       -0.037571378 0.013735528 -0.10072502 0.041702434
0002e0 b0 a9 62 3d 7e 97 5e bc 02 53 1b 3d 22 82 34 3d
       0.055337608 -0.013585923 0.03792096 0.044069417
0002f0 ee 7e c8 bd 1a ad 1c be 83 8f 20 be 13 9d c2 3c
       -0.09789835 -0.15300408 -0.15679745 0.02375654
000300 2c 40 7b bc 80 3e 62 3c 2d 1d 35 3d c2 87 1c 3e
       -0.015335124 0.0138088465 0.044217277 0.15286162
000310 f0 5b d8 bc eb 3a 9c 3d 61 e3 1f be 40 bc ef 3d
       -0.026411027 0.07628425 -0.15614082 0.11705828
000320 3d 09 1f 3e c2 4c 53 bb 35 22 14 3e 52 27 80 3c
       0.15530868 -0.0032241796 0.14466174 0.01564375
000330 e4 3c 13 3e 8e db b9 bd d6 5e c0 3c 86 75 c4 bd
       0.14378697 -0.0907508 0.023482721 -0.09592728
000340 24 42 24 3e 5f 7b 3c 3d a3 40 b9 bd b9 de 28 bb
       0.16040856 0.046016093 -0.090455316 -0.0025767519
000350 06 69 70 bb c4 31 87 3d e1 d9 d9 bd ea 9c 05 3e
       -0.0036683693 0.06601289 -0.1063726 0.13048139
000360 7a 90 0f be bb ea db bd 78 88 18 be 60 56 e2 b9
       -0.14019957 -0.10738131 -0.14895809 -0.00043170433
000370 38 de 80 3d cb 7a 98 3d e7 5b 03 3e df ba f2 3c
       0.06292385 0.07445296 0.12828027 0.029630123
000380 55 dc 8c bd c8 e5 36 bd 38 cd f8 bd cd 62 ee 3d
       -0.068779625 -0.04465273 -0.12148517 0.116399385
000390 89 35 c3 bc 2c 20 12 3d 2a 10 27 be 06 bc 13 3e
       -0.023829238 0.035675213 -0.1631476 0.14427194
0003a0 44 5e 1f be a6 a0 c4 bd 94 62 78 3c 5e fa ab 3d
       -0.15563303 -0.09600954 0.015160222 0.08397363
0003b0 4c f8 24 be e1 80 19 be 6c db 66 bd 4a c9 0e bd
       -0.16110343 -0.1499057 -0.0563616 -0.034859933
0003c0 9e 8c 0c be 24 ff 48 bc 14 8c f5 3c b4 1e ab bd
       -0.13725516 -0.0122678615 0.029974021 -0.083554655
0003d0 33 ac a3 bc 2b ec 26 3d e3 af 81 bc 30 ec ad b9
       -0.019979572 0.04075257 -0.01583094 -0.00033173105
0003e0 3f 25 c5 3d cb 70 a2 bd 29 ec 11 3e d7 bc 82 3d
       0.09626245 -0.0793167 0.14250244 0.063836746
0003f0 9c 08 de 3d 91 ca ad 3d cc 68 40 bd 38 e9 48 3c
       0.10841486 0.08485902 -0.046974942 0.012262635

actor_critic.actor.model.0.linear.bias f4 [512]
000000 3b 12 83 3a 65 12 83 ba 67 12 83 3a 3b 12 83 3a
       0.000999994 -0.0009999989 0.0009999991 0.000999994
000010 5f 0d 83 3a 3c 12 83 ba 58 12 83 3a 59 12 83 3a
       0.0009998492 -0.0009999941 0.0009999974 0.0009999975
000020 3d 12 83 3a 5b 12 83 3a 63 12 83 ba 67 12 83 3a
       0.0009999942 0.0009999977 -0.0009999987 0.0009999991
000030 6b 12 83 3a 54 12 83 ba 6b 12 83 ba 68 12 83 3a
       0.0009999996 -0.0009999969 -0.0009999996 0.0009999992
000040 64 12 83 3a 6b 12 83 ba 5c 12 83 3a 69 12 83 3a
       0.0009999988 -0.0009999996 0.0009999978 0.0009999993
000050 5f 12 83 ba 5c 12 83 3a 62 12 83 ba 5c 12 83 ba
       -0.0009999982 0.0009999978 -0.0009999985 -0.0009999978
000060 6a 12 83 3a 6b 12 83 3a 65 12 83 ba 54 12 83 ba
       0.0009999995 0.0009999996 -0.0009999989 -0.0009999969
000070 41 12 83 3a 67 12 83 ba dd 11 83 ba 68 12 83 3a
       0.0009999947 -0.0009999991 -0.000999983 0.0009999992
000080 63 12 83 ba 34 12 83 3a 63 12 83 ba 76 11 83 ba
       -0.0009999987 0.0009999932 -0.0009999987 -0.0009999711
000090 67 12 83 ba 62 12 83 3a 67 12 83 3a 6a 12 83 3a
       -0.0009999991 0.0009999985 0.0009999991 0.0009999995
0000a0 69 12 83 3a 64 12 83 ba 67 12 83 3a 61 12 83 ba
       0.0009999993 -0.0009999988 0.0009999991 -0.0009999984
0000b0 38 12 83 3a 65 12 83 3a 66 12 83 ba 46 12 83 3a
       0.0009999936 0.0009999989 -0.000999999 0.0009999953
0000c0 68 12 83 3a 66 12 83 ba 40 12 83 3a 1f 12 83 3a
       0.0009999992 -0.000999999 0.0009999946 0.0009999907
0000d0 56 12 83 3a 57 12 83 ba 50 12 83 ba 69 12 83 3a
       0.0009999971 -0.0009999973 -0.0009999964 0.0009999993
0000e0 47 12 83 ba 37 12 83 ba 6a 12 83 ba 22 12 83 ba
       -0.0009999954 -0.0009999935 -0.0009999995 -0.0009999911
0000f0 be 11 83 3a 69 12 83 ba 63 12 83 3a 65 12 83 ba
       0.0009999794 -0.0009999993 0.0009999987 -0.0009999989
000100 63 12 83 ba 60 12 83 ba 45 12 83 3a 2a 12 83 ba
       -0.0009999987 -0.0009999983 0.0009999952 -0.000999992
000110 5d 12 83 3a 32 12 83 3a d4 11 83 3a 60 12 83 3a
       0.000999998 0.000999993 0.000999982 0.0009999983
000120 46 12 83 3a 66 12 83 3a 3f 12 83 3a 68 12 83 ba
       0.0009999953 0.000999999 0.0009999945 -0.0009999992
000130 5a 12 83 3a 5d 12 83 ba 55 12 83 ba 6b 12 83 3a
       0.0009999976 -0.000999998 -0.000999997 0.0009999996
000140 63 12 83 ba 67 12 83 ba 60 12 83 ba 65 12 83 3a
       -0.0009999987 -0.0009999991 -0.0009999983 0.0009999989
000150 68 12 83 3a 61 12 83 3a 67 12 83 3a 5e 12 83 3a
       0.0009999992 0.0009999984 0.0009999991 0.0009999981
000160 67 12 83 3a 63 12 83 3a 6a 12 83 3a 39 12 83 ba
       0.0009999991 0.0009999987 0.0009999995 -0.0009999938
000170 66 12 83 3a 67 12 83 ba 67 12 83 3a 67 12 83 3a
       0.000999999 -0.0009999991 0.0009999991 0.0009999991
000180 68 12 83 ba 5a 12 83 3a 68 12 83 ba 6a 12 83 ba
       -0.0009999992 0.0009999976 -0.0009999992 -0.0009999995
000190 5e 12 83 3a 53 12 83 3a 55 12 83 ba 69 12 83 ba
       0.0009999981 0.0009999968 -0.000999997 -0.0009999993
0001a0 66 12 83 ba 6c 12 83 3a 67 12 83 ba 3e 12 83 ba
       -0.000999999 0.0009999997 -0.0009999991 -0.0009999943
0001b0 52 12 83 ba 45 12 83 ba 67 12 83 3a 62 12 83 3a
       -0.0009999967 -0.0009999952 0.0009999991 0.0009999985
0001c0 b8 11 83 3a 67 12 83 ba 60 12 83 3a 20 10 83 3a
       0.0009999787 -0.0009999991 0.0009999983 0.0009999312
0001d0 69 12 83 3a 6b 12 83 3a 50 12 83 ba 6a 12 83 ba
       0.0009999993 0.0009999996 -0.0009999964 -0.0009999995
0001e0 5b 12 83 ba 2e 12 83 3a d4 11 83 3a d2 11 83 3a
       -0.0009999977 0.0009999925 0.000999982 0.0009999818
0001f0 60 12 83 3a 67 12 83 ba 62 12 83 3a 5f 12 83 ba
       0.0009999983 -0.0009999991 0.0009999985 -0.0009999982
000200 6a 12 83 ba d5 11 83 3a 64 12 83 ba 66 12 83 ba
       -0.0009999995 0.0009999821 -0.0009999988 -0.000999999
000210 6a 12 83 ba 69 12 83 3a 69 12 83 ba 67 12 83 ba
       -0.0009999995 0.0009999993 -0.0009999993 -0.0009999991
000220 1a 12 83 3a 57 12 83 ba 5b 12 83 3a 69 12 83 3a
       0.0009999902 -0.0009999973 0.0009999977 0.0009999993
000230 19 12 83 ba 66 12 83 ba 69 12 83 ba 6a 12 83 3a
       -0.00099999 -0.000999999 -0.0009999993 0.0009999995
000240 67 12 83 ba 67 12 83 ba 69 12 83 ba 67 12 83 ba
       -0.0009999991 -0.0009999991 -0.0009999993 -0.0009999991
000250 6a 12 83 ba 67 12 83 3a 66 12 83 3a 40 12 83 3a
       -0.0009999995 0.0009999991 0.000999999 0.0009999946
000260 67 12 83 ba 63 12 83 3a 60 12 83 3a 67 12 83 ba
       -0.0009999991 0.0009999987 0.0009999983 -0.0009999991
000270 49 12 83 3a 66 12 83 3a 62 12 83 3a 65 12 83 ba
       0.0009999956 0.000999999 0.0009999985 -0.0009999989
000280 6a 12 83 3a 66 12 83 3a 6a 12 83 3a 68 12 83 3a
       0.0009999995 0.000999999 0.0009999995 0.0009999992
000290 65 12 83 3a 28 10 83 ba 6a 12 83 3a 14 12 83 ba
       0.0009999989 -0.0009999322 0.0009999995 -0.0009999895
0002a0 6b 12 83 ba 69 12 83 3a 69 12 83 ba 67 12 83 3a
       -0.0009999996 0.0009999993 -0.0009999993 0.0009999991
0002b0 68 12 83 ba 64 12 83 ba 69 12 83 ba f7 11 83 3a
       -0.0009999992 -0.0009999988 -0.0009999993 0.0009999861
0002c0 5e 12 83 ba 67 12 83 ba 67 12 83 3a 68 12 83 ba
       -0.0009999981 -0.0009999991 0.0009999991 -0.0009999992
0002d0 61 12 83 ba 5c 12 83 ba 45 12 83 ba cc 0f 83 3a
       -0.0009999984 -0.0009999978 -0.0009999952 0.0009999215
0002e0 52 12 83 3a 5c 12 83 ba 61 12 83 3a 3b 12 83 ba
       0.0009999967 -0.0009999978 0.0009999984 -0.000999994
0002f0 5b 12 83 3a 60 12 83 3a 69 12 83 3a 69 12 83 ba
       0.0009999977 0.0009999983 0.0009999993 -0.0009999993
000300 65 12 83 3a 60 12 83 ba 0d 12 83 3a 63 12 83 ba
       0.0009999989 -0.0009999983 0.0009999886 -0.0009999987
000310 23 12 83 3a 69 12 83 3a 65 12 83 ba 67 12 83 3a
       0.0009999912 0.0009999993 -0.0009999989 0.0009999991
000320 63 12 83 3a 45 12 83 3a 60 12 83 3a 63 12 83 ba
       0.0009999987 0.0009999952 0.0009999983 -0.0009999987
000330 f5 10 83 ba 65 12 83 ba 60 12 83 3a 62 12 83 3a
       -0.000999956 -0.0009999989 0.0009999983 0.0009999985
000340 63 12 83 ba 67 12 83 ba 5b 12 83 ba 69 12 83 3a
       -0.0009999987 -0.0009999991 -0.0009999977 0.0009999993
000350 51 12 83 ba 6a 12 83 3a 52 12 83 ba 5d 12 83 ba
       -0.0009999966 0.0009999995 -0.0009999967 -0.000999998
000360 61 12 83 3a 66 12 83 3a 53 12 83 3a 64 12 83 ba
       0.0009999984 0.000999999 0.0009999968 -0.0009999988
000370 f2 11 83 3a 39 12 83 3a 65 12 83 3a 65 12 83 ba
       0.0009999855 0.0009999938 0.0009999989 -0.0009999989
000380 60 12 83 3a 66 12 83 3a 69 12 83 ba 6a 12 83 3a
       0.0009999983 0.000999999 -0.0009999993 0.0009999995
000390 57 12 83 ba 6c 12 83 3a 68 12 83 3a 3e 12 83 3a
       -0.0009999973 0.0009999997 0.0009999992 0.0009999943
0003a0 67 12 83 3a 43 12 83 3a 6a 12 83 3a 65 12 83 ba
       0.0009999991 0.0009999949 0.0009999995 -0.0009999989
0003b0 54 12 83 ba 5f 12 83 ba 46 12 83 3a 46 12 83 ba
       -0.0009999969 -0.0009999982 0.0009999953 -0.0009999953
0003c0 54 12 83 ba 6b 12 83 ba 6a 12 83 3a 5b 12 83 ba
       -0.0009999969 -0.0009999996 0.0009999995 -0.0009999977
0003d0 60 12 83 3a 6b 12 83 3a 69 12 83 ba 44 0e 83 3a
       0.0009999983 0.0009999996 -0.0009999993 0.0009998758
0003e0 64 12 83 ba 60 12 83 ba 65 12 83 ba 66 12 83 ba
       -0.0009999988 -0.0009999983 -0.0009999989 -0.000999999
0003f0 3d 11 83 ba 67 12 83 3a 68 12 83 3a f5 11 83 3a
       -0.0009999644 0.0009999991 0.0009999992 0.0009999858

actor_critic.actor.model.1.linear.weight f4 [12, 512]
000000 2b 99 ba 3c 52 07 8e 3b 1e 33 43 bc b9 4a fd 3c
       0.022778114 0.0043343687 -0.011914043 0.03091942
000010 08 59 20 bd 66 27 6e bc d8 2b ac bb fb e4 a1 bc
       -0.039147407 -0.0145357605 -0.00525425 -0.019762507
000020 bd 3d f5 bc b7 2c cf bc 64 e1 f3 bc 2d 16 c9 bc
       -0.029936666 -0.025289876 -0.02977056 -0.024546707
000030 33 db 12 bc dc cf 3b bb 49 d1 b3 3c bf 9a f9 3b
       -0.008963394 -0.002865783 0.02195038 0.007617324
000040 99 ae ce bc 2e cf 1d 3d 82 9d cb bc cd 40 0d bd
       -0.025229739 0.03852766 -0.024855379 -0.034485627
000050 7c 3e b5 3c b0 cf c9 3c f1 4e 53 3c a8 9a 01 3d
       0.022124521 0.024635166 0.012897239 0.031641632
000060 f7 cb 07 bd e7 61 1d bd 29 de 1c bd 8f 6d f9 3c
       -0.0331535 -0.038423445 -0.038297806 0.03044775
000070 70 96 0e 3d 37 53 1e 3d f9 9e c4 3b 77 a1 9c ba
       0.034811437 0.03865358 0.0060003963 -0.0011949976
000080 c1 3e 03 3b 88 b9 13 bd a7 2e 32 bd 99 9a 03 bd
       0.0020026418 -0.03606561 -0.043501522 -0.032129858
000090 8e f4 84 3c 39 e1 27 bd d3 0e c3 bc 04 b4 57 bc
       0.016229894 -0.040986273 -0.02381078 -0.013165478
0000a0 45 f2 10 bd 63 94 2a 3d db e4 01 bc 78 84 97 bc
       -0.035387296 0.04164542 -0.007928099 -0.018495783
0000b0 fa 78 a8 bc ae 7c 74 ba a3 86 27 3d ef ec 1b bd
       -0.020565499 -0.000932644 0.040899884 -0.038067754
0000c0 dd ec ec bc 89 32 98 3b 63 40 0f bd a0 99 f8 3b
       -0.028921539 0.004644696 -0.034973513 0.007586673
0000d0 6a e4 97 bc d0 93 81 bb 07 fe 18 bd 62 ba 23 bd
       -0.018541533 -0.003954388 -0.037351634 -0.03997267
0000e0 2d 9c d5 bc 9b 10 b4 bc 27 40 1d 3d 7e 51 ef bc
       -0.026075447 -0.021980574 0.03839126 -0.029213663
0000f0 ad ab dd 3c 79 50 51 3c 8b 16 f9 3c 4c 53 bc 3c
       0.0270594 0.012775534 0.030406257 0.022988938
000100 23 a5 ff 3c 9a 2b a8 3b 08 0f 9e bc ef ce 03 3d
       0.031206673 0.005132151 -0.019294277 0.03217977
000110 77 dc a1 3c 8f d4 18 3c 2c 2f b2 3b 8a 21 dd bc
       0.019758446 0.009328022 0.005437752 -0.026993532
000120 4c 5f 52 bc 5e a5 9c bc 8f 78 59 bc 51 58 36 bb
       -0.012840103 -0.019121822 -0.013273372 -0.0027823637
000130 0f 22 07 3c 4d 15 51 3c 65 0e 96 bb 75 c4 e4 bc
       0.008247866 0.012761426 -0.0045793527 -0.02792571
000140 58 4e 3d 3c aa be a7 bc a9 76 44 bc f3 65 1f bd
       0.011554323 -0.020476658 -0.011991181 -0.038915586
000150 36 72 3b 3a 9c 04 e1 bc 3c e9 c6 bc 20 82 9d bb
       0.00071505026 -0.027468018 -0.024281137 -0.004806772
000160 6f f1 de bc 33 d2 85 3c 5c e7 f7 bc 6f 84 25 bc
       -0.027214734 0.016335582 -0.030261688 -0.010102375
000170 92 c6 6f bb ad 89 23 3d b0 dc f7 bb 86 cb b2 3c
       -0.0036586863 0.03992622 -0.00756415 0.021825563
000180 d1 e8 05 3d e4 36 b4 bc e9 ea 1b 3d 12 58 03 3d
       0.032692734 -0.02199883 0.038065825 0.032066412
000190 4e c9 f4 ba aa b3 1a bd b8 ed 2f 3c c5 b8 12 3d
       -0.0018675716 -0.037768997 0.010737829 0.03582074
0001a0 45 8b ea 3c b9 ec 2d bd ee ed 22 3d 56 4b 79 bc
       0.028630862 -0.042462084 0.03977769 -0.015215715
0001b0 22 58 8d 3b e3 de f2 3c 7f 8a 37 bb 74 2e af 3b
       0.0043134848 0.029647296 -0.0028006134 0.005346114
0001c0 78 33 a6 3c 98 78 28 3c 38 77 0a bd c0 af 0b 3c
       0.020288214 0.010282658 -0.033805102 0.008525789
0001d0 9f d1 d6 bc 0c a3 10 bd 57 1c 0e bd ae ff 9d bb
       -0.026223002 -0.035311744 -0.034694996 -0.004821739
0001e0 24 aa c2 3c 89 44 a7 3c 14 5b 83 3a 18 3c e5 bb
       0.02376277 0.020418422 0.001002165 -0.006995689
0001f0 6b e1 1f bd 4f 80 dc 3b fe c3 1b bd 5b 35 0a 3d
       -0.039033335 0.0067291628 -0.03802871 0.03374229
000200 31 8e 96 3a 65 f6 0f bc e2 2f 37 bc 1c 9d cb bc
       0.0011486468 -0.008786772 -0.01118085 -0.024855189
000210 9a 92 13 3d 7e ad 82 bc dc f5 18 3d dc bb 56 3c
       0.036028482 -0.015951868 0.037343845 0.013106313
000220 d9 c7 6d 3c 26 8e 82 3c 35 1a 07 bd 56 aa 0b bd
       0.014512979 0.015936922 -0.032983977 -0.034097992
000230 1b 57 7f bc 5d 23 dc 3c dd df 25 3d bf 02 f0 bc
       -0.015584732 0.026872331 0.040496696 -0.029298184
000240 25 53 f2 3c ef 99 60 3c 9a 67 dc bc 6f b5 02 3d
       0.029580662 0.013708576 -0.02690487 0.03191131
000250 19 13 80 3c d7 38 22 bd 3a 2d 56 bc 0b ae 36 3c
       0.015634106 -0.039604988 -0.013072306 0.0111498935
000260 8b 79 e9 3c 51 0d 1e bd 10 69 37 bd 77 b2 30 3d
       0.028500339 -0.03858692 -0.04477793 0.043138947
000270 43 a2 ef bb a1 ea 37 bd 38 3c e3 bc 85 4c 80 3c
       -0.0073130443 -0.044901494 -0.027738675 0.015661487
000280 38 fe b8 3b 5a 2d 2d 3d 10 81 f0 bc 96 c2 14 ba
       0.0056455396 0.04227958 -0.029358417 -0.00056747475
000290 f8 00 d2 bc 80 a4 ee bb 92 15 7e bc 44 ad 24 3d
       -0.025635228 -0.0072827935 -0.015508072 0.0402043
0002a0 15 fa f7 3c e2 fb 08 bd 76 9f 36 3c fe b5 2d bb
       0.030270616 -0.03344334 0.011146417 -0.002650618
0002b0 85 9b 90 3c 31 fa 0e 3d 8a 08 b0 3c 58 a6 e5 bc
       0.017652282 0.03490657 0.021488447 -0.02803342
0002c0 10 43 40 bc 54 28 13 3d 5f 63 8c bc fd d5 e4 3c
       -0.011734739 0.03592713 -0.017137228 0.027934069
0002d0 1e 6f 20 3d a7 2e da 3b e5 df 1d 3c 14 ab 18 3d
       0.03916847 0.0066583934 0.0096359 0.037272528
0002e0 13 5a 30 bd 36 fa d5 bb 8d ac 04 bd 68 5c c6 bb
       -0.04305465 -0.0065300716 -0.03239112 -0.006053496
0002f0 37 40 28 bd 81 d8 05 3c ec 6b 05 bd 19 d7 85 3b
       -0.041076865 0.008169294 -0.032573625 0.0040844795
000300 0b 14 36 bd 97 55 d5 bb bb 74 95 bb 7e 8e 62 3a
       -0.04445271 -0.0065104472 -0.0045610345 0.0008642449
000310 ce 05 62 bc 5c 6c 21 bd a4 ca d9 bb 6d 6e 14 bc
       -0.013795329 -0.03940998 -0.006646471 -0.009059531
000320 c3 01 e7 bc 5e ac b6 3c e8 02 25 bd 44 78 72 3b
       -0.028199082 0.022298988 -0.040285975 0.0036997953
000330 d7 d9 15 3c 23 b4 d8 3c a4 7c d3 bc eb 88 29 3c
       0.009146175 0.026453083 -0.02581627 0.010347585
000340 45 48 08 3d 2c 5c 31 bb b5 33 dc bc 41 33 f9 bc
       0.033272047 -0.0027062995 -0.026880125 -0.030419948
000350 e3 38 21 3c 64 74 c6 bc 93 50 75 bc 01 46 f7 bc
       0.009840223 -0.024225421 -0.014972824 -0.030184748
000360 26 07 42 bc a9 b6 c4 bc b1 87 18 bd 51 ef 25 3c
       -0.011842525 -0.02401288 -0.03723878 0.010127858
000370 9e 29 aa bc f9 58 28 bd 38 f4 90 bc 7c b0 fa bc
       -0.020771798 -0.041100476 -0.017694578 -0.030601732
000380 85 b6 8a 3c a2 d4 78 bc b9 66 22 3d 72 87 76 bb
       0.016932735 -0.015187414 0.039648745 -0.0037617353
000390 af 90 17 3d 90 fb d4 bc ca 52 2c bc 8a 70 e5 bc
       0.037003215 -0.02599886 -0.010517785 -0.028007764
0003a0 1e e7 fb bc 67 b4 14 3d 83 05 1c bd e8 57 32 3c
       -0.030749854 0.036304858 -0.038091194 0.010885216
0003b0 53 36 20 bc ae 60 9e 3c 4b 46 22 bd 20 63 76 bc
       -0.009778577 0.01933321 -0.039617818 -0.015038282
0003c0 d8 62 c6 bc 5b 49 0c 3d c8 c2 d7 bc 7f 18 0a 3d
       -0.024217054 0.034249645 -0.026337996 0.033714768
0003d0 ef ee ae 3c 00 4a 73 bc 15 42 12 3d 2c f5 0f 3d
       0.021354167 -0.014849186 0.035707552 0.035145923
0003e0 75 fa fa 3c 17 a0 e3 3c ce c1 de 3c 8a 00 9d 3c
       0.030637005 0.027786298 0.027192023 0.019165296
0003f0 fe d2 4a 3c e3 c7 0f 3d 9f 57 8d bc 59 b4 c6 3c
       0.012379406 0.035102736 -0.017253695 0.024255918

actor_critic.actor.model.1.linear.bias f4 [12]
000000 6e 12 83 ba 6c 12 83 ba 6c 12 83 3a 6d 12 83 3a
       -0.0009999999 -0.0009999997 0.0009999997 0.0009999998
000010 6d 12 83 ba 6d 12 83 3a 6c 12 83 3a 6e 12 83 ba
       -0.0009999998 0.0009999998 0.0009999997 -0.0009999999
000020 6e 12 83 ba 6d 12 83 ba 6d 12 83 3a 6b 12 83 ba
       -0.0009999999 -0.0009999998 0.0009999998 -0.0009999996

actor_critic.critic.model.0.linear.weight f4 [512, 37]
000000 21 57 af 3c d7 04 da 3d 11 96 f9 bd c2 75 42 3d
       0.021403851 0.106454544 -0.12186826 0.047475584
000010 ac 65 1b 3e 65 c1 20 3e 7c 96 20 be 0d 7b 5d 3d
       0.15175503 0.15698774 -0.15682405 0.05407243
000020 c6 46 e8 bd 10 06 6d bd 81 3d f5 bd 9a c0 48 3c
       -0.11341624 -0.05786711 -0.119746216 0.012252951
000030 8e cd 0b bd 3f 8b d8 bd 2e 35 81 bd 92 70 b2 bd
       -0.03413158 -0.10573434 -0.06308971 -0.08712877
000040 af 50 0e be e5 10 11 3e 5d 5b c7 bd 62 dc 9d bd
       -0.13897966 0.14166601 -0.09734223 -0.0770805
000050 7f 00 14 be c1 a7 a7 bd fd 10 09 bb dd 9a 65 bd
       -0.14453314 -0.081862934 -0.0020914667 -0.056055892
000060 a1 9c ad bd ce 83 15 be c2 de 23 3c 09 32 1f bd
       -0.0847714 -0.14601061 0.01000184 -0.038866077
000070 be a9 75 3d 41 3c 20 3e 6d 04 26 3d 89 c5 f8 bd
       0.059976332 0.15647985 0.040531565 -0.12147052
000080 28 74 28 bd 4c 70 1e be 6d 9f 61 3d c6 fe 10 be
       -0.0411264 -0.15472525 0.05508368 -0.14159688
000090 91 cd 10 3e 62 d3 ba bd b2 b2 01 3e 0a ce 26 3d
       0.14140917 -0.09122349 0.12665823 0.040723838
0000a0 79 4d c1 3d 85 7f bf bd 2c 00 89 3d a1 43 f2 3d
       0.09438605 -0.09350494 0.06689486 0.118293054
0000b0 a0 72 5f bc cf 2e 0b bd 74 8a 7a bc 56 c5 05 be
       -0.013638169 -0.033980187 -0.015291799 -0.13063559
0000c0 b7 9e 26 3c 7d 01 c2 3d 9b a3 68 3d 48 20 ca 3d
       0.0101696765 0.0947294 0.05679665 0.098694384
0000d0 ff 0b 1c 3e 7f b8 7f 3d 3f 97 d8 bd a8 05 0f be
       0.15238951 0.06243181 -0.10575723 -0.13967001
0000e0 88 19 cf bd 90 eb f0 3d 3e aa 32 3d 25 d7 e2 bb
       -0.101122916 0.1176368 0.043619387 -0.00692262
0000f0 de 88 04 3e 50 17 c6 3d 3c cf e3 3d 14 78 8c bd
       0.12942836 0.09672415 0.11123511 -0.068588406
000100 09 fb ca 3d 7e a0 49 3d b7 c7 14 3e e5 96 93 bd
       0.099111624 0.049225323 0.1452931 -0.07206515
000110 fd c7 d3 3b f6 c9 1a 3e 61 15 52 3d f2 b8 20 be
       0.0064630494 0.15116104 0.05128992 -0.15695551
000120 20 ce 0b 3e 77 d9 3c 3d 03 45 24 bd 60 77 fa bd
       0.13652849 0.046105828 -0.040104877 -0.122298
000130 37 82 ec 3c b2 5b 17 3e b7 5e d9 3d cf c9 b8 bc
       0.028870685 0.14781073 0.106137685 -0.022557167
000140 20 fb 8d bd a8 1e 95 3d 47 13 f7 3d 0d 8b 11 be
       -0.06932664 0.07281238 0.12064224 -0.142132
000150 2a 8a 27 be 50 54 2d bd 78 db 39 3d 8c 4c ef 3d
       -0.16361299 -0.042316735 0.045375317 0.11684522
000160 ee b1 d7 3d 67 37 eb bb fa 01 01 be bb 4d 14 3e
       0.10531984 -0.0071782353 -0.1259841 0.14482777
000170 49 bd 65 bd 73 cc 3d ba 13 bb 74 bd 4e 5d af bd
       -0.05608872 -0.0007240243 -0.05974872 -0.08562718
000180 b5 47 36 bd 8a cd ff bc d9 6a ce 3c fa 28 ec 3d
       -0.04450198 -0.031225938 0.025197433 0.11531253
000190 ab 4f 0d 3c 4a 66 1e 3e 4c 71 1e bd 0e a5 26 3e
       0.008624951 0.15468708 -0.038682267 0.16273901
0001a0 fb 1d c1 bd 22 1b d0 3d 60 c0 d7 3d 51 c2 90 bd
       -0.094295464 0.10161425 0.105347395 -0.07068313
0001b0 d9 65 15 be 59 79 73 3d 38 1d ba bd 25 e6 3e 3d
       -0.14589633 0.059441898 -0.09087604 0.0466062
0001c0 33 e6 1f 3e 30 02 d3 3d cb 0f 52 3d 07 8b a6 bd
       0.15615158 0.103031516 0.051284593 -0.08131986
0001d0 26 92 ba 3d 3c af 8a bd c6 ff da bd 57 58 80 bd
       0.09109907 -0.067717046 -0.10693316 -0.062668495
0001e0 a5 03 12 3c 2c 28 17 be ff a4 14 3e ad 59 1c 3e
       0.008912002 -0.14761418 0.14516066 0.15268584
0001f0 22 49 99 bc 31 f7 85 3c 2e fe 2d bc f2 64 8f bd
       -0.01871163 0.016353222 -0.010619683 -0.07001676
000200 35 a8 82 bd 64 c4 05 3d b5 97 b9 3d 36 79 0d be
       -0.06379739 0.032657996 0.09062139 -0.1381577
000210 d5 fc 9b 3d 75 0d 8a 3d 50 77 67 3b 11 1c b1 3d
       0.07616583 0.06740848 0.0035318919 0.08647931
000220 71 a5 05 be c4 10 53 bd 7b 2e 37 bd 9c f2 65 3d
       -0.13051392 -0.05152966 -0.04472206 0.056139573
000230 2c f4 00 3e d2 72 b2 bd 34 aa 4a 3d ff 6b 24 bd
       0.12593144 -0.087133065 0.049478725 -0.040142056
000240 93 d1 a6 bd ce d6 0d be 2a 19 24 be 23 04 06 bd
       -0.08145442 -0.13851473 -0.16025224 -0.03271879
000250 ef a6 9b bd 16 ac fc 3d 10 1b 79 bd d4 3f 65 3d
       -0.076001994 0.1233751 -0.060816824 0.055969074
000260 cc c2 82 3c 1f 97 d8 bd 57 ac a7 3d cd b7 25 3e
       0.015962027 -0.10575699 0.08187168 0.16183396
000270 a5 a4 e7 bc a8 c1 8b 3c fe 47 0a 3d 50 ba c4 bb
       -0.02827675 0.017060116 0.033760063 -0.0060036555
000280 13 d1 f7 bb 37 f3 ac 3d b8 ce 96 bc 64 b9 6a bd
       -0.0075627654 0.08444827 -0.018409118 -0.05730571
000290 13 c4 9f bd 25 3c 1f 3d 5b 44 08 3e 46 70 c9 3d
       -0.0780107 0.038875718 0.13307326 0.098358676
0002a0 a7 e5 ce 3d e1 88 ca 3d b0 81 a9 bc b1 90 04 3e
       0.101023965 0.09889389 -0.020691723 0.1294582
0002b0 f1 cb 8c 3d 92 58 df bd c8 de e8 3d 2c 53 85 3d
       0.06874836 -0.10905565 0.11370617 0.065100044
0002c0 fa 55 af 3d 62 e6 e9 bc 88 d5 a2 3d 9f 4a 08 3e
       0.085613206 -0.028552238 0.07950884 0.13309716
0002d0 c6 2f 8d bc 32 84 d6 bd 74 e7 4f 3d 74 15 d9 3d
       -0.017234694 -0.10474433 0.05075784 0.10599795
0002e0 6e 67 23 be 65 a5 e4 bc 3f 85 15 3e a7 f4 ab bd
       -0.15957424 -0.027910898 0.1460161 -0.08396273
0002f0 fd 27 cf 3d 67 cd be 3b 05 f6 b5 3d 76 d5 ee bb
       0.10115049 0.0058228257 0.08884815 -0.00728863
000300 50 08 66 bd 5b 66 95 bc 82 ce 04 be f3 92 8e 3d
       -0.05616027 -0.018237283 -0.12969401 0.06961622
000310 c3 08 a1 3d 0f 2c 4b 3c 36 9b 1f bd e5 71 24 be
       0.07862999 0.012400641 -0.03896638 -0.16059072
000320 e1 fb 71 bd 0a 34 a7 3d 95 22 a8 3d c5 57 71 3b
       -0.0590781 0.081642225 0.08209721 0.0036825996
000330 a3 2a 88 3d 76 d5 06 be 1b d1 7c 3d 26 43 1e 3e
       0.06648757 -0.13167366 0.061722856 0.15455303
000340 e4 66 c9 bc 3f 97 ca bd 8c 83 03 be 5e 8b af bc
       -0.024585195 -0.09892129 -0.1284315 -0.02142876
000350 1c 8e bd 3d a5 cf a5 bd 3a a3 cd 3c 80 2b 85 bc
       0.09255621 -0.08096246 0.025102247 -0.016256094
000360 11 8b 92 3c 86 06 e4 bd 7b 7b 1a 3e 54 d2 fd 3c
       0.017888578 -0.11134057 0.15086167 0.030984081
000370 b7 78 86 bd d6 35 13 3e 27 67 22 3e 52 97 ee 3b
       -0.06565993 0.14376006 0.15859662 0.0072812224
000380 ca 81 ad bd 9b 6b a8 3d 16 1e 73 bd fd 7c 0e 3e
       -0.08472021 0.08223649 -0.059354864 0.13914867
000390 4b 1a da bc d5 f6 9e bc 04 10 c2 3c cd 38 79 bd
       -0.026623866 -0.019404808 0.023689277 -0.060845185
0003a0 6c 28 de bd 75 13 39 bd 41 b3 97 3d e8 6a 34 ba
       -0.108475536 -0.04518457 0.07407237 -0.00068823854
0003b0 53 d9 dd 3d 99 a0 6f 3d 61 b8 a8 3c 74 4e 0b be
       0.10832467 0.058502767 0.020595731 -0.13604146
0003c0 6c 33 26 3d 09 e3 ec bd 40 c0 2e 3c 54 4a 37 3d
       0.040576383 -0.11566741 0.010665953 0.04474862
0003d0 5d 7c 81 bd 51 01 77 3d 80 94 36 bd bd 2b 6e 3d
       -0.063225485 0.06030399 -0.044575214 0.05814718
0003e0 30 54 11 3e c2 59 88 3d ba 8c 03 be c4 9b 16 3e
       0.14192271 0.06657745 -0.12846652 0.14707857
0003f0 a3 0a 24 3e 4e 1a 00 be ee 3c 08 be 30 80 8f 3d
       0.16019683 -0.12510034 -0.13304493 0.07006872

actor_critic.critic.model.0.linear.bias f4 [512]
000000 00 00 00 00 00 00 00 00 00 00 00 00 00 00 00 00
       0.0 0.0 0.0 0.0
000010 00 00 00 00 00 00 00 00 00 00 00 00 00 00 00 00
       0.0 0.0 0.0 0.0
000020 00 00 00 00 00 00 00 00 00 00 00 00 00 00 00 00
       0.0 0.0 0.0 0.0
000030 00 00 00 00 00 00 00 00 00 00 00 00 00 00 00 00
       0.0 0.0 0.0 0.0
000040 00 00 00 00 00 00 00 00 00 00 00 00 00 00 00 00
       0.0 0.0 0.0 0.0
000050 00 00 00 00 00 00 00 00 00 00 00 00 00 00 00 00
       0.0 0.0 0.0 0.0
000060 00 00 00 00 00 00 00 00 00 00 00 00 00 00 00 00
       0.0 0.0 0.0 0.0
000070 00 00 00 00 00 00 00 00 00 00 00 00 00 00 00 00
       0.0 0.0 0.0 0.0
000080 00 00 00 00 00 00 00 00 00 00 00 00 00 00 00 00
       0.0 0.0 0.0 0.0
000090 00 00 00 00 00 00 00 00 00 00 00 00 00 00 00 00
       0.0 0.0 0.0 0.0
0000a0 00 00 00 00 00 00 00 00 00 00 00 00 00 00 00 00
       0.0 0.0 0.0 0.0
0000b0 00 00 00 00 00 00 00 00 00 00 00 00 00 00 00 00
       0.0 0.0 0.0 0.0
0000c0 00 00 00 00 00 00 00 00 00 00 00 00 00 00 00 00
       0.0 0.0 0.0 0.0
0000d0 00 00 00 00 00 00 00 00 00 00 00 00 00 00 00 00
       0.0 0.0 0.0 0.0
0000e0 00 00 00 00 00 00 00 00 00 00 00 00 00 00 00 00
       0.0 0.0 0.0 0.0
0000f0 00 00 00 00 00 00 00 00 00 00 00 00 00 00 00 00
       0.0 0.0 0.0 0.0
000100 00 00 00 00 00 00 00 00 00 00 00 00 00 00 00 00
       0.0 0.0 0.0 0.0
000110 00 00 00 00 00 00 00 00 00 00 00 00 00 00 00 00
       0.0 0.0 0.0 0.0
000120 00 00 00 00 00 00 00 00 00 00 00 00 00 00 00 00
       0.0 0.0 0.0 0.0
000130 00 00 00 00 00 00 00 00 00 00 00 00 00 00 00 00
       0.0 0.0 0.0 0.0
000140 00 00 00 00 00 00 00 00 00 00 00 00 00 00 00 00
       0.0 0.0 0.0 0.0
000150 00 00 00 00 00 00 00 00 00 00 00 00 00 00 00 00
       0.0 0.0 0.0 0.0
000160 00 00 00 00 00 00 00 00 00 00 00 00 00 00 00 00
       0.0 0.0 0.0 0.0
000170 00 00 00 00 00 00 00 00 00 00 00 00 00 00 00 00
       0.0 0.0 0.0 0.0
000180 00 00 00 00 00 00 00 00 00 00 00 00 00 00 00 00
       0.0 0.0 0.0 0.0
000190 00 00 00 00 00 00 00 00 00 00 00 00 00 00 00 00
       0.0 0.0 0.0 0.0
0001a0 00 00 00 00 00 00 00 00 00 00 00 00 00 00 00 00
       0.0 0.0 0.0 0.0
0001b0 00 00 00 00 00 00 00 00 00 00 00 00 00 00 00 00
       0.0 0.0 0.0 0.0
0001c0 00 00 00 00 00 00 00 00 00 00 00 00 00 00 00 00
       0.0 0.0 0.0 0.0
0001d0 00 00 00 00 00 00 00 00 00 00 00 00 00 00 00 00
       0.0 0.0 0.0 0.0
0001e0 00 00 00 00 00 00 00 00 00 00 00 00 00 00 00 00
       0.0 0.0 0.0 0.0
0001f0 00 00 00 00 00 00 00 00 00 00 00 00 00 00 00 00
       0.0 0.0 0.0 0.0
000200 00 00 00 00 00 00 00 00 00 00 00 00 00 00 00 00
       0.0 0.0 0.0 0.0
000210 00 00 00 00 00 00 00 00 00 00 00 00 00 00 00 00
       0.0 0.0 0.0 0.0
000220 00 00 00 00 00 00 00 00 00 00 00 00 00 00 00 00
       0.0 0.0 0.0 0.0
000230 00 00 00 00 00 00 00 00 00 00 00 00 00 00 00 00
       0.0 0.0 0.0 0.0
000240 00 00 00 00 00 00 00 00 00 00 00 00 00 00 00 00
       0.0 0.0 0.0 0.0
000250 00 00 00 00 00 00 00 00 00 00 00 00 00 00 00 00
       0.0 0.0 0.0 0.0
000260 00 00 00 00 00 00 00 00 00 00 00 00 00 00 00 00
       0.0 0.0 0.0 0.0
000270 00 00 00 00 00 00 00 00 00 00 00 00 00 00 00 00
       0.0 0.0 0.0 0.0
000280 00 00 00 00 00 00 00 00 00 00 00 00 00 00 00 00
       0.0 0.0 0.0 0.0
000290 00 00 00 00 00 00 00 00 00 00 00 00 00 00 00 00
       0.0 0.0 0.0 0.0
0002a0 00 00 00 00 00 00 00 00 00 00 00 00 00 00 00 00
       0.0 0.0 0.0 0.0
0002b0 00 00 00 00 00 00 00 00 00 00 00 00 00 00 00 00
       0.0 0.0 0.0 0.0
0002c0 00 00 00 00 00 00 00 00 00 00 00 00 00 00 00 00
       0.0 0.0 0.0 0.0
0002d0 00 00 00 00 00 00 00 00 00 00 00 00 00 00 00 00
       0.0 0.0 0.0 0.0
0002e0 00 00 00 00 00 00 00 00 00 00 00 00 00 00 00 00
       0.0 0.0 0.0 0.0
0002f0 00 00 00 00 00 00 00 00 00 00 00 00 00 00 00 00
       0.0 0.0 0.0 0.0
000300 00 00 00 00 00 00 00 00 00 00 00 00 00 00 00 00
       0.0 0.0 0.0 0.0
000310 00 00 00 00 00 00 00 00 00 00 00 00 00 00 00 00
       0.0 0.0 0.0 0.0
000320 00 00 00 00 00 00 00 00 00 00 00 00 00 00 00 00
       0.0 0.0 0.0 0.0
000330 00 00 00 00 00 00 00 00 00 00 00 00 00 00 00 00
       0.0 0.0 0.0 0.0
000340 00 00 00 00 00 00 00 00 00 00 00 00 00 00 00 00
       0.0 0.0 0.0 0.0
000350 00 00 00 00 00 00 00 00 00 00 00 00 00 00 00 00
       0.0 0.0 0.0 0.0
000360 00 00 00 00 00 00 00 00 00 00 00 00 00 00 00 00
       0.0 0.0 0.0 0.0
000370 00 00 00 00 00 00 00 00 00 00 00 00 00 00 00 00
       0.0 0.0 0.0 0.0
000380 00 00 00 00 00 00 00 00 00 00 00 00 00 00 00 00
       0.0 0.0 0.0 0.0
000390 00 00 00 00 00 00 00 00 00 00 00 00 00 00 00 00
       0.0 0.0 0.0 0.0
0003a0 00 00 00 00 00 00 00 00 00 00 00 00 00 00 00 00
       0.0 0.0 0.0 0.0
0003b0 00 00 00 00 00 00 00 00 00 00 00 00 00 00 00 00
       0.0 0.0 0.0 0.0
0003c0 00 00 00 00 00 00 00 00 00 00 00 00 00 00 00 00
       0.0 0.0 0.0 0.0
0003d0 00 00 00 00 00 00 00 00 00 00 00 00 00 00 00 00
       0.0 0.0 0.0 0.0
0003e0 00 00 00 00 00 00 00 00 00 00 00 00 00 00 00 00
       0.0 0.0 0.0 0.0
0003f0 00 00 00 00 00 00 00 00 00 00 00 00 00 00 00 00
       0.0 0.0 0.0 0.0

actor_critic.critic.model.1.linear.weight f4 [1, 512]
000000 34 aa b1 3c 69 17 d7 bc 5a 03 01 bd 51 db 17 3d
       0.021687604 -0.02625628 -0.031497337 0.03707439
000010 44 ea c7 39 16 8a b9 3b 2a f8 c3 ba a0 7c 1c bc
       0.0003813078 0.005662213 -0.0014951278 -0.009551197
000020 b0 30 fb bc 66 76 ed 3c c9 aa 2c bd 8f e4 03 bd
       -0.030662864 0.02898712 -0.04215506 -0.032200392
000030 53 28 87 ba aa 2e 53 bc cc bb ba bc 46 4a 30 3c
       -0.00103117 -0.012889544 -0.022794627 0.010759896
000040 04 41 be 3c 41 cd 08 bc eb 1a 45 bc 40 15 2a 3d
       0.023224361 -0.008349718 -0.0120303435 0.04152417
000050 9f 20 8e bc 1e a8 97 bc 84 e3 24 bd 11 0e ae 3b
       -0.01734954 -0.018512782 -0.04025604 0.0053117354
000060 95 11 b2 3c 94 73 31 bd b7 d2 28 3d b8 af 6b bc
       0.0217369 -0.043323115 0.04121658 -0.014385156
000070 a4 e0 ae bc 49 e8 00 bd 2f f3 0a 3d a2 92 cd bc
       -0.021347351 -0.031471524 0.033923324 -0.025094334
000080 cf 85 e5 bc 10 e6 33 bd b7 94 df 3b d1 77 9f 3c
       -0.028017906 -0.043920577 0.006823148 0.019466313
000090 12 c9 1f 3d 14 e4 31 bd 78 08 de bb 17 e0 56 bc
       0.039010115 -0.043430403 -0.006775912 -0.013114951
0000a0 3e 84 2e bc 00 45 7a bb c0 90 ed 3c fe ed 24 bd
       -0.010651646 -0.00381881 0.028999686 -0.04026603
0000b0 f4 22 16 3d 26 28 02 bd ce ac 5e 3c ec 41 f5 bc
       0.036654428 -0.03177657 0.013591005 -0.02993866
0000c0 38 f0 05 3d 39 e5 23 3d db da 5e 3c ef 56 e7 3b
       0.032699794 0.040013526 0.013601984 0.007059924
0000d0 a3 1e 0d bc 5f c4 a1 bc d5 0b 2f bc e5 1d 1a 3d
       -0.008613261 -0.019746957 -0.010683973 0.037626166
0000e0 a7 6b 13 3d b5 8b be bc 29 12 18 bc b6 d7 1b bd
       0.035991337 -0.023259977 -0.0092816735 -0.038047515
0000f0 d4 4b e9 3a 40 d6 29 bd b6 08 2e 3d b5 34 1e 3d
       0.0017799088 -0.04146409 0.042488776 0.038624484
000100 2a 1e 99 bc 00 5e 98 3c 4b c3 b3 3c 15 0b e1 bc
       -0.018691141 0.01859951 0.021943709 -0.027471105
000110 9d 9a ee bc 79 c0 05 3d 2b 73 42 bc 7c a0 88 bc
       -0.02912646 0.03265426 -0.0118682785 -0.016678087
000120 89 ea 2d bb 60 64 09 bc 26 f7 08 3d 7f 6f ba 3b
       -0.00265375 -0.008385748 0.033438824 0.005689561
000130 3d 07 7a bc 7c 9b be 3c 7b 42 c3 bb 58 73 42 3c
       -0.015260515 0.0232675 -0.005958853 0.01186832
000140 d7 41 a2 3b 3e 6e 10 3d f4 22 20 bd a8 be 45 3b
       0.0049516964 0.035261385 -0.039095834 0.0030173454
000150 fe 3f 5f 3c 01 d0 9f bb 5e 31 9b bc e0 ec 0b bd
       0.013626097 -0.004877091 -0.018944439 -0.03416145
000160 14 ca 20 bc e5 5c 9e bc dc f2 0f 3d 68 e1 5c bc
       -0.009813804 -0.019331405 0.035143718 -0.013481475
000170 d5 d6 90 bc 58 a9 dc b8 ba 7c c8 3b 6a 5d 8d bb
       -0.017680565 -0.0001052196 0.006118384 -0.0043141143
000180 36 de ef bc c3 ee 86 3c 3b 97 df 3a 12 8d 18 bd
       -0.029280763 0.016471272 0.001705862 -0.03724391
000190 5b 8c 5c bb fc df ab 3c 26 dd 04 bd 68 56 17 3d
       -0.0033652994 0.020980828 -0.032437466 0.036947638
0001a0 20 54 13 3d 49 a6 ed 3c 37 02 30 bc eb 86 99 3c
       0.0359689 0.029009955 -0.010742716 0.018741092
0001b0 a4 13 f7 3c 58 f7 93 bc 02 7e 09 3b f6 23 2f 3c
       0.030160733 -0.018062279 0.0020979648 0.010689726
0001c0 ba 3b ab 3c f3 fb f0 3c d3 62 12 3c b8 ce 1e 3d
       0.020902503 0.029417014 0.008934694 0.03877136
0001d0 d3 f8 fa bc 11 8b 9c 3c e2 26 01 bd c5 a7 05 3c
       -0.030636227 0.01910928 -0.031531222 0.008157675
0001e0 63 50 57 36 d7 f0 fc 3c 12 3f 62 bc c5 93 0c 3d
       3.2084288e-06 0.03087656 -0.013808982 0.03432061
0001f0 81 82 f4 3a 8f 85 33 3d 86 72 ed bc d1 31 18 bd
       0.0018654616 0.043828543 -0.028985273 -0.037156884
000200 63 7b 11 bd 8d a5 6c bb c7 c9 d1 bc f8 fe 15 3d
       -0.03551806 -0.0036109418 -0.02560891 0.03662011
000210 4a f0 77 3c ec 34 ec 3c 6d 39 7d bb 7b 1f 99 3c
       0.015132973 0.028833829 -0.0038638965 0.018691769
000220 d7 a5 b5 3c f8 02 96 b9 11 86 86 bc b4 0a 2f bc
       0.022173805 -0.0002861244 -0.01642135 -0.010683704
000230 a8 0f 24 bd ab eb e9 bc 5c 7f ac bc be 07 a9 3c
       -0.040053993 -0.028554758 -0.021056823 0.020633575
000240 20 d4 88 bc 57 66 bc 39 f8 de ab bc 1e 13 b4 bc
       -0.016702712 0.00035934403 -0.020980343 -0.021981772
000250 a3 e0 5b bc c3 0d a1 bc a2 42 22 3b 94 c5 c4 b9
       -0.013420257 -0.019659882 0.0024758955 -0.0003753124
000260 91 40 f4 3c 09 29 4e 3a 3d 5e c7 3c 22 52 ab bc
       0.029815944 0.0007864391 0.024336929 -0.020913187
000270 dd 7d 20 3d 68 7f 88 bb 99 c5 f7 3a a5 97 e9 bc
       0.039182533 -0.0041655786 0.0018903493 -0.028514693
000280 d5 b5 3e bb ac 8a cc ba 46 d9 b0 bc dc 59 06 bd
       -0.002910008 -0.0015605292 -0.021587979 -0.03280054
000290 12 7b 91 3c ff 57 0d 3d fd c4 b4 3c e9 07 e3 bc
       0.01775888 0.034507748 0.022066588 -0.027713733
0002a0 c4 cb 6e 3c 3e bf f1 bc af 1a 3b 3c a1 4c f9 3c
       0.014574949 -0.029510137 0.011419936 0.030432047
0002b0 9d b6 30 3c 8b 31 e5 bc 1d b6 aa bb 54 65 18 bd
       0.010785726 -0.027977725 -0.005209698 -0.03720601
0002c0 c7 fb 88 3c 3f 33 14 3d 19 b3 a0 3c d4 61 21 bd
       0.01672162 0.036181685 0.01961665 -0.039399937
0002d0 e7 af dd bb 55 6a 20 3d af f1 af bc e9 7f 05 bd
       -0.006765354 0.039163906 -0.021477548 -0.032592688
0002e0 0f 7c 8e 3c ef 65 46 bc ff 3d 12 bd b9 15 14 bd
       0.01739314 -0.012109264 -0.035703655 -0.03615353
0002f0 88 87 06 3d d3 2a 70 3c e7 db 95 bb a3 f9 32 bd
       0.032844096 0.014658648 -0.0045733335 -0.043695103
000300 85 01 24 3d 16 3e 10 bd 17 83 f2 3c db 69 ca 3c
       0.04004051 -0.03521546 0.029603524 0.024708679
000310 73 e1 01 3d 83 69 2d bd b6 be bb 3b 34 aa f4 3c
       0.031709146 -0.042336952 0.0057295216 0.029866315
000320 75 32 40 bc 1f 7b a5 3b e7 fd 27 3d c2 24 d7 bc
       -0.01173078 0.0050500776 0.041013625 -0.026262645
000330 0d 86 f0 bc 06 16 71 3c b9 20 87 3c 8e bb 9d bc
       -0.029360795 0.014714723 0.016495096 -0.019254472
000340 15 49 2f bc 36 60 28 3d e4 f0 44 3b 8c 92 8b 3c
       -0.010698576 0.04110738 0.0030050809 0.017037652
000350 6a 88 6a bc 1c 03 5c bc 6f 2e d1 3c 2a 25 3a bc
       -0.01431475 -0.013428476 0.025534837 -0.0113614
000360 4c ad 3f 3c c5 39 81 3c 94 3c 1a bc 89 dd 54 3a
       0.011699032 0.015774617 -0.009413857 0.00081201695
000370 0e da 22 bd 78 50 b9 bc 22 1a c3 3a b7 09 d4 3b
       -0.039758734 -0.022621378 0.0014885108 0.0064708847
000380 db da 14 bd 69 21 05 3d ea 38 06 bd d7 30 4d 3a
       -0.03634153 0.032502566 -0.03276912 0.0007827407
000390 91 5d 16 bd e2 f7 70 3c 00 14 99 bc ff 10 14 bd
       -0.036710326 0.014707537 -0.018686295 -0.03614902
0003a0 cb 8e 24 3c fc ac 83 bc 1f 4d d2 3c 40 ac 32 bd
       0.01004381 -0.016073696 0.02567154 -0.0436213
0003b0 93 36 09 3d be 82 0b 3d 4f d7 3a bc 6b 9f 1a bc
       0.03349931 0.034060232 -0.011403873 -0.009437422
0003c0 53 8d 32 bd b8 9b f0 bc 0a d0 b2 bc 29 80 cf bb
       -0.04359181 -0.029371127 -0.021827716 -0.0063324166
0003d0 17 77 87 3c b3 89 23 bd 89 02 b8 bc ad 79 9a bc
       0.016536279 -0.039926242 -0.022462146 -0.018856848
0003e0 23 eb 91 bc 7c 73 9b bc f6 98 8a 3c bb 79 bc bc
       -0.017812317 -0.018975966 0.01691864 -0.023007264
0003f0 3b 0d 75 3c 01 9a 1e bd c9 fb 26 3b a8 0b 14 3d
       0.014956768 -0.03872109 0.0025479665 0.03614393
