RL_Project/checkpoints/2023-12-05/17-07-20/0.pt (torch, 185545 bytes, 8 tensors)

actor_critic.std f4 [12]
000000 c5 20 80 3f 77 be 7f 3f 77 be 7f 3f 77 be 7f 3f
       1.001 0.999 0.999 0.999
000010 c5 20 80 3f 77 be 7f 3f 77 be 7f 3f 77 be 7f 3f
       1.001 0.999 0.999 0.999
000020 77 be 7f 3f c5 20 80 3f 77 be 7f 3f c5 20 80 3f
       0.999 1.001 0.999 1.001

actor_critic.actor.model.0.linear.weight f4 [512, 37]
000000 f1 3f 3c bc 39 6e ed bd a8 07 a6 3d 80 00 72 bd
       -0.011489854 -0.11593289 0.08106929 -0.059082508
000010 75 ce 82 bc 13 d5 a2 bd 38 4a f3 3d cf 6f cf 3d
       -0.015967587 -0.07950797 0.118793905 0.10128748
000020 85 c8 0b be 82 1f a7 bd fc 31 a6 bc 69 c5 b3 3d
       -0.13650711 -0.081603065 -0.020287506 0.087778874
000030 94 5b d1 bd b4 ab 15 be b4 5d b3 bd 18 0a 67 bd
       -0.10222545 -0.14616281 -0.08758107 -0.05640611
000040 40 19 d7 3d d5 a5 85 3d 22 5a f7 bd 7f 4b 82 bd
       0.10502863 0.065257706 -0.12077738 -0.06362056
000050 eb 9d e1 3d 90 df 92 3d 2c d7 64 3d 41 d1 f5 bc
       0.110164486 0.071715474 0.055869266 -0.030007007
000060 f6 b6 96 bd 57 55 8b 3d c2 20 69 bd 02 e0 a5 3c
       -0.07359116 0.06803387 -0.056916006 0.020248417
000070 76 16 f3 3d 4a 07 cc 3c 81 36 d6 bd 35 58 15 3e
       0.118695185 0.02490582 -0.104596145 0.1458443
000080 94 96 ea 3d a1 b8 35 bd ef d5 18 bd 92 60 0f be
       0.11454502 -0.04436553 -0.037313398 -0.14001682
000090 a2 fd f4 3d ce 37 10 3e 66 42 26 be 5d eb 61 bc
       0.11962439 0.14083788 -0.16236266 -0.013789025
0000a0 59 7a a4 bd cf ec cb bd b2 b2 87 bd a2 30 a3 bd
       -0.080311485 -0.09957277 -0.0662588 -0.0796826
0000b0 b2 34 b3 bd 58 9d e1 bc c0 b5 19 3e 30 98 21 3e
       -0.08750285 -0.027540848 0.15010738 0.15780711
0000c0 6c f4 dd 3d 5c 18 a1 3d b3 ef 26 bc 6e ec 04 bc
       0.108376354 0.07865974 -0.010188985 -0.00811301
0000d0 6f 9d 25 3e 37 3a c2 bc 66 3f fd 3d 5d aa 62 3d
       0.16173337 -0.0237094 0.12365608 0.055338252
0000e0 8e 8f 06 3e 26 6b 78 3c de 42 e4 bd 74 3d bb bd
       0.131407 0.015162265 -0.111455664 -0.09142581
0000f0 bc 00 47 bd 66 18 cf 3d bd b7 b6 3d 60 73 e5 3d
       -0.048584685 0.101120755 0.08921764 0.11203647
000100 1a 25 b1 3d 45 42 cd bd 90 20 06 3e e5 5d 7f bc
       0.08649655 -0.100224055 0.13098359 -0.015586351
000110 4b 6c 13 3e 0b 4d 1a bd 59 09 c5 3d ed f6 27 be
       0.14396779 -0.03767113 0.096209235 -0.16402788
000120 a6 84 dc bd 86 78 26 3e ab d6 0c bd ce a7 13 3d
       -0.10767488 0.16256914 -0.03438441 0.036048703
000130 a7 71 a4 bd 57 fa 5a bc 96 c4 0e be c4 12 27 bd
       -0.0802949 -0.01336535 -0.13942179 -0.04078938
000140 e0 e3 38 3d 4a 20 5d 3d e2 b1 bf bc 9f c1 ea bd
       0.045139194 0.05398587 -0.02340025 -0.114627115
000150 be 61 98 bd 17 70 22 3e 19 32 8a 3a ef a2 44 bc
       -0.07440518 0.15863071 0.0010543495 -0.012001737
000160 23 78 20 3d 22 c1 29 bc 74 a8 17 be bb 57 89 bc
       0.03917707 -0.010360988 -0.14810354 -0.016765466
000170 f4 4c 5b bd 94 74 19 be a2 77 96 3d 6b e5 3d 3d
       -0.053540185 -0.14985877 0.07347037 0.04636137
000180 ac 00 f9 bc 4a 61 3e bd 19 df 5d bc 9d 5a ae 3d
       -0.030395828 -0.0464795 -0.01354196 0.08513377
000190 07 95 b3 bd 6a 8c 4c bd 8d ec 05 be bd 3a 76 3d
       -0.08768659 -0.049938597 -0.13078518 0.06011461
0001a0 86 93 77 bc 09 71 5c 3d 3e 8c aa bc ec 62 4d bd
       -0.015110856 0.053818736 -0.020818826 -0.050143167
0001b0 60 76 07 bc dc 0a 05 3e f3 9e d4 bc 56 a2 e6 3d
       -0.008267969 0.12992424 -0.0259547 0.11261432
0001c0 94 47 5c 3d 8e 1e fb 3d ab 0c 0d be 54 57 e4 bd
       0.0537792 0.12261687 -0.13774364 -0.11149469
0001d0 9e d9 20 be 46 97 64 bd 01 2e 08 3e 47 20 a5 3d
       -0.15708014 -0.055808328 0.13298799 0.08062797
0001e0 53 81 7d 3d c8 e8 a1 3b 19 56 39 3d a8 4e 84 3b
       0.06189091 0.0049410798 0.045248125 0.004037697
0001f0 c3 96 f3 bd 15 6c 00 be ae 97 12 3e ca 05 de bd
       -0.1189399 -0.1254123 0.14315674 -0.10840948
000200 79 68 fe bd 90 39 1b 3e c5 82 05 bc 27 f8 ac bc
       -0.1242227 0.15158677 -0.008148854 -0.021114422
000210 a6 21 18 3e 87 31 2e 3d dc 32 18 3d ce 4f 26 3d
       0.14856586 0.0425277 0.03715788 0.04060345
000220 27 b9 71 bd 25 71 bd bd f4 98 e5 3d 81 63 83 3c
       -0.059014466 -0.09250096 0.11210814 0.016038658
000230 fd c1 12 3e 78 1d 8a bd 52 33 e7 3d dd 91 a5 3b
       0.14331813 -0.06743902 0.112890854 0.0050527886
000240 15 1c fd bd 34 52 89 bc 22 cb 54 bd db fb e0 3c
       -0.12358872 -0.01676283 -0.051951535 0.027463844
000250 0f 8f d7 3d 62 3e 92 bd 84 a5 e7 bd a9 d7 dd bc
       0.10525333 -0.07140805 -0.113108665 -0.027080374
000260 7f 1f e5 3b 2c 38 f0 bd e2 f1 c6 3d cd 80 43 bd
       0.00699228 -0.11729464 0.09714104 -0.047730256
000270 3f d5 b5 3d 6d 25 14 3d f4 d2 dc bc 57 c1 0f be
       0.08878564 0.036168505 -0.026956059 -0.14038597
000280 ec c2 08 be 34 c0 cc 3d 6c f5 e8 bd 4d 18 52 bd
       -0.13355607 0.09997597 -0.113749355 -0.051292706
000290 04 03 cd 3d df 6a 03 3e 51 1e 8f 3c e4 d1 7d 3d
       0.10010341 0.12833737 0.01747051 0.061967745
0002a0 7c 66 07 3e a5 bd f6 3b f0 09 f5 bd f2 15 02 3d
       0.13222688 0.0075299316 -0.11964786 0.03175921
0002b0 71 2d 0c be 6a 88 ec bc 46 4f 12 3e 60 6c ce bc
       -0.1368921 -0.028873641 0.14288053 -0.025198162
0002c0 e2 7e 45 bc b2 35 d0 3d 88 7c cd bd a0 91 99 ba
       -0.012054177 0.101664916 -0.10033518 -0.0011716373
0002d0 75 bf d8 3d a6 69 14 3e 7b 09 04 3e 78 38 24 be
       0.105833925 0.14493427 0.12894242 -0.16037166
0002e0 38 31 8d 3d df 86 93 bd 52 22 06 be 72 54 1e 3e
       0.06894153 -0.07203459 -0.1309903 0.15461901
0002f0 54 53 19 be d0 f9 3a bb bc 90 a2 3c a9 59 c9 3d
       -0.14973193 -0.0028530248 0.019844405 0.098315544
000300 6c 6a 7d 3d e2 52 f7 3c 27 f9 15 3e 89 af af bd
       0.06186907 0.030190889 0.14645825 -0.085784025
000310 2d 4d b6 bd 23 a6 aa bc 6e 9f 1f 3e 23 b7 56 bd
       -0.08901439 -0.020831173 0.15588161 -0.052420747
000320 6e 6d 0d 3e 97 ab b5 bb 0d ff eb bd 26 8c 1c be
       0.13811275 -0.0055441367 -0.115232565 -0.15287837
000330 ba 70 26 3e 58 ad 30 bc 54 7a 0e bd 21 72 27 be
       0.1625394 -0.010783516 -0.03478463 -0.1635213
000340 cb c6 4b bd ef 2f 54 3d 33 55 1d be aa 7e f1 bc
       -0.04975013 0.051803526 -0.15364532 -0.029479343
000350 e9 08 16 be 36 8c c9 3d df b1 f6 3d 1a df 02 3e
       -0.14651836 0.09841196 0.12045645 0.12780419
000360 9a 22 21 be 06 8b 42 bd 18 15 85 bc 8c 67 ed 3a
       -0.15735856 -0.047495864 -0.01624541 0.0018112524
000370 9d 39 54 3d 32 39 00 be 05 c8 d8 3d e5 ab 9f bc
       0.051812757 -0.12521818 0.10585026 -0.019491145
000380 3d fa 17 bd 59 72 1a be d6 e3 1b 3e 3d 0e 04 be
       -0.03710388 -0.15082683 0.15223631 -0.12896056
000390 17 a7 0f be 90 a9 11 be c5 ef 5a bd 82 92 e5 3d
       -0.14028583 -0.14224839 -0.05345132 0.11209585
0003a0 8f 5c 03 be f9 16 bd 3d e1 e4 01 3e 1f 9e 1c 3e
       -0.12828277 0.09232897 0.12684967 0.15294693
0003b0 55 1d 0b be 70 79 dc bb 59 95 df 3d df 4f db 3d
       -0.13585408 -0.0067283437 0.10917158 0.107085936
0003c0 85 8e 25 be bb 95 6b bd 8c 1d 14 be 0d 51 94 bd
       -0.16167648 -0.05751584 -0.14464396 -0.07242022
0003d0 2c cf 24 be 57 94 17 3e a5 33 ec bc 95 ae 03 be
       -0.16094655 0.14802681 -0.02883322 -0.12859567
0003e0 58 c0 24 be fc cc 86 bc 9b 36 5e 3d 58 0e 25 3e
       -0.16088998 -0.016455166 0.054251295 0.16118753
0003f0 10 62 c3 bd 47 02 88 3c 41 ee e9 bd e4 cf e5 bd
       -0.09540188 0.016602648 -0.114223965 -0.112212926

actor_critic.actor.model.0.linear.bias f4 [512]
000000 67 12 83 ba 5e 12 83 ba 62 12 83 3a 5d 12 83 3a
       -0.0009999991 -0.0009999981 0.0009999985 0.000999998
000010 59 12 83 ba b5 10 83 3a 62 12 83 3a 39 12 83 ba
       -0.0009999975 0.0009999486 0.0009999985 -0.0009999938
000020 67 12 83 3a 4d 12 83 ba 52 12 83 3a 61 12 83 ba
       0.0009999991 -0.0009999961 0.0009999967 -0.0009999984
000030 4a 12 83 ba 69 12 83 3a 5c 12 83 ba 13 12 83 ba
       -0.0009999957 0.0009999993 -0.0009999978 -0.0009999893
000040 5e 12 83 ba 58 12 83 3a 62 0e 83 ba 56 12 83 3a
       -0.0009999981 0.0009999974 -0.0009998793 0.0009999971
000050 64 12 83 ba 62 12 83 3a 61 12 83 ba 61 12 83 3a
       -0.0009999988 0.0009999985 -0.0009999984 0.0009999984
000060 4b 12 83 ba 5a 12 83 3a ca 11 83 ba 38 12 83 ba
       -0.0009999959 0.0009999976 -0.0009999808 -0.0009999936
000070 42 12 83 ba 62 12 83 ba 56 12 83 ba 41 12 83 3a
       -0.0009999948 -0.0009999985 -0.0009999971 0.0009999947
000080 67 12 83 3a 5c 12 83 3a 5b 12 83 ba 60 12 83 3a
       0.0009999991 0.0009999978 -0.0009999977 0.0009999983
000090 4f 12 83 ba 34 12 83 3a 5e 12 83 3a 64 12 83 3a
       -0.0009999963 0.0009999932 0.0009999981 0.0009999988
0000a0 9d 11 83 3a 5f 12 83 ba 64 12 83 ba 5a 12 83 ba
       0.0009999756 -0.0009999982 -0.0009999988 -0.0009999976
0000b0 66 12 83 ba 5e 12 83 ba 4c 12 83 3a 47 12 83 3a
       -0.000999999 -0.0009999981 0.000999996 0.0009999954
0000c0 5c 12 83 ba 27 12 83 3a 87 11 83 3a 5b 12 83 3a
       -0.0009999978 0.0009999917 0.000999973 0.0009999977
0000d0 62 12 83 3a 62 12 83 3a 60 12 83 3a 64 12 83 3a
       0.0009999985 0.0009999985 0.0009999983 0.0009999988
0000e0 63 12 83 ba 51 12 83 3a 65 12 83 ba 51 12 83 3a
       -0.0009999987 0.0009999966 -0.0009999989 0.0009999966
0000f0 65 12 83 3a 61 12 83 3a 62 12 83 3a 5f 12 83 3a
       0.0009999989 0.0009999984 0.0009999985 0.0009999982
000100 2a 11 83 ba 5f 12 83 3a 38 12 83 3a 59 12 83 3a
       -0.0009999622 0.0009999982 0.0009999936 0.0009999975
000110 4e 12 83 3a 2b 12 83 ba 5a 12 83 3a 67 12 83 ba
       0.0009999962 -0.0009999921 0.0009999976 -0.0009999991
000120 63 12 83 3a 5d 12 83 ba 67 12 83 ba 63 12 83 3a
       0.0009999987 -0.000999998 -0.0009999991 0.0009999987
000130 60 12 83 ba 56 12 83 3a 4c 12 83 3a 65 12 83 ba
       -0.0009999983 0.0009999971 0.000999996 -0.0009999989
000140 5b 12 83 ba 71 10 83 3a 52 12 83 3a 69 12 83 ba
       -0.0009999977 0.0009999407 0.0009999967 -0.0009999993
000150 63 12 83 ba 1d 12 83 ba 5c 12 83 ba 3e 12 83 3a
       -0.0009999987 -0.0009999905 -0.0009999978 0.0009999943
000160 39 12 83 3a d4 10 83 3a 49 12 83 3a 54 12 83 3a
       0.0009999938 0.0009999522 0.0009999956 0.0009999969
000170 a7 11 83 ba 62 12 83 3a 42 12 83 ba 5a 12 83 ba
       -0.0009999768 0.0009999985 -0.0009999948 -0.0009999976
000180 50 12 83 3a 61 12 83 ba 31 12 83 ba 67 12 83 ba
       0.0009999964 -0.0009999984 -0.0009999928 -0.0009999991
000190 5c 12 83 3a 38 12 83 ba 65 12 83 3a 66 12 83 ba
       0.0009999978 -0.0009999936 0.0009999989 -0.000999999
0001a0 47 12 83 3a 5b 12 83 ba 3f 12 83 3a 42 12 83 ba
       0.0009999954 -0.0009999977 0.0009999945 -0.0009999948
0001b0 69 12 83 ba 5a 12 83 ba 65 12 83 3a 5d 12 83 3a
       -0.0009999993 -0.0009999976 0.0009999989 0.000999998
0001c0 30 12 83 ba 12 12 83 ba 44 12 83 3a 5a 12 83 3a
       -0.0009999927 -0.0009999892 0.000999995 0.0009999976
0001d0 5d 12 83 3a 59 12 83 ba 65 12 83 3a 6b 11 83 ba
       0.000999998 -0.0009999975 0.0009999989 -0.0009999698
0001e0 5b 12 83 3a 68 12 83 ba 67 12 83 3a 57 12 83 ba
       0.0009999977 -0.0009999992 0.0009999991 -0.0009999973
0001f0 5e 12 83 ba 65 12 83 3a 56 12 83 ba 57 12 83 3a
       -0.0009999981 0.0009999989 -0.0009999971 0.0009999973
000200 5c 12 83 ba 60 12 83 ba 5b 12 83 3a 4b 12 83 ba
       -0.0009999978 -0.0009999983 0.0009999977 -0.0009999959
000210 4e 12 83 3a bc 11 83 3a 63 12 83 ba b9 11 83 3a
       0.0009999962 0.0009999792 -0.0009999987 0.0009999789
000220 64 12 83 ba 68 12 83 ba f0 0e 83 ba 5d 12 83 3a
       -0.0009999988 -0.0009999992 -0.0009998959 0.000999998
000230 2d 12 83 3a 63 12 83 3a 65 12 83 ba 60 12 83 3a
       0.0009999924 0.0009999987 -0.0009999989 0.0009999983
000240 52 12 83 3a 2a 12 83 3a 62 12 83 3a 66 12 83 ba
       0.0009999967 0.000999992 0.0009999985 -0.000999999
000250 62 12 83 3a 5c 12 83 3a 5b 12 83 ba 26 12 83 ba
       0.0009999985 0.0009999978 -0.0009999977 -0.0009999915
000260 67 12 83 3a 45 12 83 ba 64 12 83 3a 55 12 83 ba
       0.0009999991 -0.0009999952 0.0009999988 -0.000999997
000270 53 12 83 3a 62 12 83 3a 62 12 83 3a 38 12 83 ba
       0.0009999968 0.0009999985 0.0009999985 -0.0009999936
000280 4f 12 83 ba 5e 12 83 ba 64 12 83 3a 65 12 83 3a
       -0.0009999963 -0.0009999981 0.0009999988 0.0009999989
000290 5d 12 83 ba 66 12 83 3a 5e 12 83 ba 2c 12 83 3a
       -0.000999998 0.000999999 -0.0009999981 0.0009999922
0002a0 5b 12 83 ba 63 12 83 3a 5b 12 83 ba 56 12 83 ba
       -0.0009999977 0.0009999987 -0.0009999977 -0.0009999971
0002b0 3c 12 83 ba 60 12 83 3a 63 12 83 ba 64 12 83 3a
       -0.0009999941 0.0009999983 -0.0009999987 0.0009999988
0002c0 5c 12 83 ba 5c 12 83 3a 60 12 83 ba 5c 12 83 ba
       -0.0009999978 0.0009999978 -0.0009999983 -0.0009999978
0002d0 67 12 83 ba 3f 12 83 ba ff 05 83 3a 58 12 83 ba
       -0.0009999991 -0.0009999945 0.0009996294 -0.0009999974
0002e0 62 12 83 3a 4c 12 83 ba 58 12 83 3a 2a 0f 83 ba
       0.0009999985 -0.000999996 0.0009999974 -0.0009999026
0002f0 53 12 83 3a 5f 12 83 3a 62 12 83 ba 5e 12 83 ba
       0.0009999968 0.0009999982 -0.0009999985 -0.0009999981
000300 63 12 83 3a 56 12 83 ba 3b 12 83 3a 4f 12 83 3a
       0.0009999987 -0.0009999971 0.000999994 0.0009999963
000310 01 12 83 ba db 11 83 3a 67 12 83 3a 61 12 83 3a
       -0.0009999872 0.0009999828 0.0009999991 0.0009999984
000320 5f 12 83 3a 5c 12 83 ba 5d 12 83 ba 68 12 83 3a
       0.0009999982 -0.0009999978 -0.000999998 0.0009999992
000330 5b 12 83 3a 21 12 83 3a 5f 12 83 3a 5e 11 83 ba
       0.0009999977 0.000999991 0.0009999982 -0.0009999683
000340 68 12 83 ba 51 12 83 ba 5a 12 83 ba 63 12 83 ba
       -0.0009999992 -0.0009999966 -0.0009999976 -0.0009999987
000350 67 12 83 ba 56 12 83 3a 67 12 83 3a 60 12 83 3a
       -0.0009999991 0.0009999971 0.0009999991 0.0009999983
000360 6c 0b 83 3a 5c 12 83 3a 65 12 83 3a 63 12 83 ba
       0.0009997911 0.0009999978 0.0009999989 -0.0009999987
000370 5f 12 83 ba 51 12 83 3a 5e 12 83 3a 5c 12 83 ba
       -0.0009999982 0.0009999966 0.0009999981 -0.0009999978
000380 58 12 83 3a 63 12 83 3a 64 12 83 3a 68 12 83 3a
       0.0009999974 0.0009999987 0.0009999988 0.0009999992
000390 49 12 83 3a 69 12 83 3a 3a 12 83 3a 3b 12 83 3a
       0.0009999956 0.0009999993 0.0009999939 0.000999994
0003a0 5d 12 83 ba 61 12 83 3a 61 12 83 3a 65 12 83 3a
       -0.000999998 0.0009999984 0.0009999984 0.0009999989
0003b0 67 12 83 ba 32 12 83 ba 47 12 83 3a 5b 12 83 ba
       -0.0009999991 -0.000999993 0.0009999954 -0.0009999977
0003c0 52 12 83 3a 30 12 83 3a 8c 0f 83 ba 55 12 83 3a
       0.0009999967 0.0009999927 -0.000999914 0.000999997
0003d0 58 12 83 3a 64 12 83 ba 43 12 83 3a 51 12 83 3a
       0.0009999974 -0.0009999988 0.0009999949 0.0009999966
0003e0 3e 12 83 3a 31 12 83 3a 63 12 83 3a 5c 12 83 3a
       0.0009999943 0.0009999928 0.0009999987 0.0009999978
0003f0 65 12 83 ba 5f 12 83 3a a8 11 83 3a 64 12 83 ba
       -0.0009999989 0.0009999982 0.0009999769 -0.0009999988

actor_critic.actor.model.1.linear.weight f4 [12, 512]
000000 6c 2e 86 3c 99 0b fc 3c 12 3e 23 bd c4 2b 9a 3c
       0.016379558 0.030767249 -0.039854117 0.018819697
000010 39 94 9d 3c 2b 3c 1c bd 0e 1e fd bc 1f 3e 20 3d
       0.019235717 -0.03814332 -0.03089812 0.039121743
000020 cd cc 30 bd e6 d6 89 bc be 4a f1 bc d1 28 07 3d
       -0.043164063 -0.016826104 -0.029454585 0.03299791
000030 d6 dc 7a bb e4 a8 db bc b8 29 f8 bc bc 41 38 3c
       -0.00382786 -0.026813932 -0.03029333 0.011246141
000040 6c 4c f3 3c 7b bc 9a bc d0 76 2c 3d b8 ff d8 bc
       0.029699527 -0.018888703 0.042105496 -0.026489124
000050 f4 74 0c 3c c2 75 be 3c d5 52 95 bb 46 f3 1c bc
       0.008572806 0.02324951 -0.0045569935 -0.009579485
000060 46 4f 68 bc a5 ad d0 bc 90 f3 07 bd f3 72 01 3d
       -0.0141790565 -0.025473425 -0.033191264 0.031603765
000070 f2 7d 30 bc fa 93 0c bb 81 69 07 3d 81 5b 8e 3c
       -0.010772215 -0.0021450506 0.0330596 0.017377617
000080 82 7b aa bc e9 7e 5c 3c ce 29 ed 3c f6 99 fa 3b
       -0.020810846 0.013457992 0.028950598 0.007647748
000090 ce de f2 b9 93 e1 82 bc 97 4e e9 3b bd 31 fa bc
       -0.0004632384 -0.015976703 0.0071199643 -0.030541295
0000a0 3c de 08 bd 16 bb da 3c 09 8d 06 bd b7 cc 28 3d
       -0.033415064 0.026700538 -0.032849345 0.041210856
0000b0 49 9c 1c bd 7f b3 c0 3b 61 b4 13 bd fc 17 08 bd
       -0.038234983 0.0058807726 -0.036060695 -0.033226
0000c0 c5 b4 ab 3c 48 83 ca b9 ac 68 f0 ba 55 0d f8 bc
       0.020960221 -0.00038626255 -0.0018341742 -0.030279795
0000d0 59 61 9b bc c7 96 08 bd dc 13 06 bd 89 de 78 3c
       -0.018967317 -0.033346917 -0.032733783 0.015189775
0000e0 0d 1b d9 bb 02 b5 64 3a ab 10 bf 3c a5 55 0a 3d
       -0.006625539 0.0008724482 0.023323378 0.033773083
0000f0 46 3c 13 bc 41 52 da 3c 94 8c fd 3b 77 ec 7d 3c
       -0.008986538 0.02665055 0.0077377055 0.015498272
000100 44 86 24 3c ef ae 13 3c fa d0 98 3c 74 c0 15 bd
       0.010041777 0.009013875 0.018654335 -0.03656049
000110 68 68 4c bc 06 8b f6 bc 4b 8f d4 3a 76 76 6a 3c
       -0.012476064 -0.030095588 0.0016217021 0.01431047
000120 02 24 46 3c 7a 66 14 3d 81 7b 8f 3c 85 43 20 bd
       0.012093546 0.03623054 0.017514946 -0.03912689
000130 16 d5 21 bc 1f 0a 1b bd 3e 12 23 ba f2 9c e7 3c
       -0.009877464 -0.03785145 -0.0006220675 0.02827308
000140 e5 c2 06 3d 7f ef 0b bd b4 bc 7c bc 5f f3 0d bd
       0.03290071 -0.03416395 -0.01542585 -0.034655925
000150 a1 ca bd 3a 46 d1 45 3c a7 64 b5 bc 5e ad fd 3c
       0.0014479944 0.01207382 -0.022142721 0.030966457
000160 d8 e3 ea bb 02 b1 0c 3d 1e b8 0b bd ba 35 20 bc
       -0.0071682744 0.034348495 -0.034111135 -0.009778434
000170 ab 84 57 3b 50 eb 17 bd 3a 73 ba 3c 0f 5e 27 bd
       0.0032885473 -0.037089646 0.022760022 -0.040861186
000180 29 c6 12 3d 15 59 b2 bc 4b dc 39 3c fc 40 70 3b
       0.03583351 -0.021770993 0.011344026 0.0036659827
000190 b3 01 b0 bc a9 9a 04 bc a8 bc a1 3b 18 04 2b 3d
       -0.021485185 -0.0080935145 0.0049358197 0.04175195
0001a0 93 60 27 bb a4 7b 91 3c 25 af 17 3d d4 70 72 3c
       -0.002553974 0.017759152 0.037032265 0.014797408
0001b0 68 44 c6 3c 27 e6 f3 bc 6f ba 25 bd ae 83 c0 3c
       0.02420254 -0.029772831 -0.040461 0.02350029
0001c0 1a 57 d0 bc 34 65 65 3c 00 65 4e ba 3c 09 93 bc
       -0.025432158 0.0140011795 -0.00078733265 -0.01794874
0001d0 e1 b5 88 3c 60 9c ca 3c 28 e2 05 bd bb 0d 06 3d
       0.01668829 0.024732769 -0.032686383 0.03272794
0001e0 ed b2 82 3c c2 1f c6 3c 07 52 f8 3c 28 4e b4 3c
       0.01595446 0.024185065 0.030312551 0.022009924
0001f0 8d cc 99 3c 6e 3e bf bc 9d 54 af bc 41 fe f4 3c
       0.018774295 -0.023345198 -0.021402651 0.029906394
000200 0f af 79 bc 47 fa f3 bb 4f 6f 8a 3c b5 0e cf 3c
       -0.015239491 -0.007445607 0.01689878 0.025275568
000210 55 59 0f bc 2c 33 1f 3d 62 ba f4 3c ab ae 41 3c
       -0.008749326 0.03886716 0.02987403 0.011821429
000220 5a bb 28 3d b8 87 b9 3a 09 b1 ca 3c b8 d2 5d bb
       0.041194297 0.0014154827 0.02474262 -0.0033847522
000230 18 5e 08 3d b8 57 fb bc c4 b8 bd bb 7f 39 e1 bb
       0.03329286 -0.030681476 -0.005789848 -0.006873309
000240 bc b0 ff bc 4c 37 a2 bb 30 bb c5 bb 3e b5 14 3d
       -0.031212203 -0.0049504396 -0.0060342774 0.03630566
000250 74 a3 e4 3c f0 fd 1a bc 94 f0 20 bd 24 45 0f bd
       0.027909972 -0.0094599575 -0.039291933 -0.034978047
000260 d7 28 9c 3c bd 8e f5 3c 58 74 49 bb 93 63 e1 3b
       0.019062443 0.02997529 -0.0030739512 0.0068783252
000270 f5 18 1a 3d 6e 1d 10 3b 12 89 d1 3c 95 7a 79 bc
       0.037621457 0.0021990198 0.025578056 -0.01522698
000280 40 09 2c bd 8f 9e a4 3c d5 79 e3 3c 8e e4 7d bc
       -0.04200101 0.020095138 0.027768055 -0.015496386
000290 c7 dc c5 bb b6 77 aa bc e1 f8 a9 bc e2 82 69 bc
       -0.0060382816 -0.020809036 -0.020748558 -0.014252396
0002a0 bb 98 06 bd 79 83 15 3b 2f ed 32 3d 2a 33 c3 3c
       -0.0328605 0.002281396 0.043683227 0.023828108
0002b0 89 d2 8d bc 5e d3 c1 3c cc 30 26 3d c6 f3 0b bd
       -0.017312305 0.023660358 0.04057388 -0.034168027
0002c0 55 e0 12 bd 2f 9c 85 bc 47 d3 93 3c 32 8b 80 bc
       -0.03585847 -0.016309826 0.01804508 -0.015691373
0002d0 ea 7a e0 bc c2 44 3c bc 8e 42 1e 3d 06 43 ea 3c
       -0.02740236 -0.0114910025 0.03863769 0.028596412
0002e0 96 08 cf bb 1e 97 24 3d f2 cc 1b 3c 70 d0 ce bc
       -0.006318162 0.04018318 0.009509312 -0.025245875
0002f0 ef c1 de bc 44 f1 ae bc 2a c0 29 bd f6 93 19 bc
       -0.027192084 -0.021355279 -0.041443028 -0.009373656
000300 02 53 22 bd e8 0d ab 3b 03 e4 98 3c 0e 35 01 bc
       -0.039629944 0.0052201636 0.018663412 -0.007886184
000310 7f 30 27 bd 68 a8 a6 3c e2 aa 35 3d 76 73 1c 3d
       -0.040817734 0.020343974 0.04435242 0.03819605
000320 5e 65 bd bc 20 47 0a 3c 27 d4 1e bc ce 27 71 bc
       -0.023119625 0.008439809 -0.009694136 -0.014718963
000330 ff a7 e8 3c 33 ab ea 3c 88 9d a9 bc 16 73 a9 bc
       0.02840042 0.028646087 -0.020705 -0.02068476
000340 b9 97 fc 3c be c0 0b 3c c5 62 15 bd a3 8f 9c 3c
       0.030834066 0.00852984 -0.036471147 0.01911146
000350 f9 33 02 3d 04 37 cb bb f3 fd 0e 3d 60 6a 2f 3d
       0.031787846 -0.0062016267 0.034910154 0.042826056
000360 c3 88 90 3c 01 1d e2 bc 7d 54 a1 bc b2 65 97 3b
       0.017643338 -0.02760172 -0.019693607 0.0046202773
000370 98 eb 28 bd c4 db 01 bd 81 b4 bc bc 9b a8 f2 bc
       -0.041240305 -0.031703725 -0.02303529 -0.029621413
000380 59 73 37 bc 89 dc b5 3c 24 9a 7b ba e0 e1 da bc
       -0.011196935 0.022199886 -0.0009597859 -0.026719034
000390 a6 1d bf 3c d5 84 bd 3c c9 b7 96 bc 09 8f 24 bd
       0.023329567 0.023134628 -0.018398182 -0.04017547
0003a0 f6 ed 39 bb a9 57 f3 bc ef 1f 22 bd fe 89 2c bb
       -0.0028370596 -0.029704886 -0.039581235 -0.0026327367
0003b0 05 86 24 3d 92 44 9e 3c e4 a9 03 bd c6 47 be bc
       0.040166873 0.019319806 -0.032144442 -0.023227584
0003c0 05 47 13 3d d9 29 fd bc 7f 6f 17 bd d6 fa df bc
       0.0359564 -0.030903744 -0.036971565 -0.027341288
0003d0 6b de 21 3d 64 10 3c bc 4f a6 34 3d e0 b0 cd bc
       0.039518755 -0.011478517 0.044103917 -0.025108755
0003e0 34 54 2b bb 49 5f 64 3c 52 2a c6 bc a2 80 95 bc
       -0.0026142718 0.013938733 -0.024190102 -0.018249813
0003f0 46 a5 03 3d 06 b2 23 bb dd 5d 0e bd 2a 63 ad 3c
       0.03214004 -0.0024977936 -0.034757484 0.02116545

actor_critic.actor.model.1.linear.bias f4 [12]
000000 6a 12 83 ba 6a 12 83 3a 6d 12 83 3a 6c 12 83 ba
       -0.0009999995 0.0009999995 0.0009999998 -0.0009999997
000010 6e 12 83 ba 6c 12 83 3a 6c 12 83 3a 65 12 83 ba
       -0.0009999999 0.0009999997 0.0009999997 -0.0009999989
000020 6d 12 83 ba 6c 12 83 ba 6b 12 83 3a 6b 12 83 3a
       -0.0009999998 -0.0009999997 0.0009999996 0.0009999996

actor_critic.critic.model.0.linear.weight f4 [512, 37]
000000 45 02 7c bc 3d a8 b0 3d e5 bb 1b be e4 84 1b 3d
       -0.0153814005 0.08625839 -0.15208395 0.03796853
000010 af a2 68 bd a3 ac 25 3e b4 58 e5 bd 35 a6 d0 bd
       -0.056795772 0.16179137 -0.111985594 -0.101879515
000020 6c 93 d3 3c 55 20 c8 bd 99 ac 5d bd 4a 39 08 3e
       0.025827132 -0.09771792 -0.05411968 0.13303104
000030 39 88 aa bd 10 f0 b3 bc e2 65 97 3c 84 e4 7b 3c
       -0.08326764 -0.021965057 0.018481199 0.015374307
000040 f7 05 22 3d c5 ca 0a bd 12 0f cd 3d 8f b7 0c 3d
       0.03955647 -0.033884782 0.1001264 0.034354743
000050 ee 10 4b bd 9a 19 9c bd 97 c3 1c 3e a5 ec 0d be
       -0.049576692 -0.076220706 0.15308987 -0.13859804
000060 05 88 25 be 92 26 45 bd c6 9b 8d 3d 13 6b 5c 3d
       -0.16165169 -0.048132487 0.06914477 0.05381305
000070 fd ba 1e 3c 03 48 06 3e 82 9c 4d 3d ed 33 1b bd
       0.009688136 0.13113408 0.050198086 -0.037891317
000080 7e 4e 24 be 68 13 d4 bc d7 fe 0c 3e 3c a7 10 be
       -0.16045567 -0.02588816 0.13769089 -0.14126295
000090 6c a0 d1 bd 14 f7 9b 3d 66 19 5f bd ab 08 31 bd
       -0.10235676 0.07615486 -0.05446758 -0.043221157
0000a0 37 69 65 bd 20 ab 28 bd df b1 78 bd 50 95 23 3e
       -0.056008544 -0.041178823 -0.060716506 0.15974927
0000b0 55 8f bd 3d 63 2d 1f be 4a 6c 7a 3d 02 32 02 be
       0.09255854 -0.15544657 0.06113843 -0.12714389
0000c0 34 d6 78 3d ff 07 10 be 82 4b 90 3c 81 4a 0b 3e
       0.060751155 -0.1406555 0.01761413 0.1360264
0000d0 d1 05 0f 3e 7a da 05 3e ff d7 bf 3d 38 5c 00 be
       0.13967063 0.13071623 0.0936737 -0.12535179
0000e0 76 63 4b 3c d5 e0 25 3d da e8 27 be 8b f5 12 3e
       0.01241385 0.04049762 -0.1639742 0.1435148
0000f0 2d f8 19 bd 30 e6 d1 bd 19 83 f1 bd 4d 83 13 be
       -0.037590194 -0.10248983 -0.11792583 -0.14405556
000100 ed 68 67 bd ca e2 f4 3d 41 57 ba 3d 29 a4 9e 3d
       -0.05649655 0.11957319 0.090986736 0.07746155
000110 c5 62 c8 bd ac 33 e4 3b a3 24 09 bd 8f 04 23 be
       -0.09784464 0.0069641676 -0.033482205 -0.15919708
000120 b5 0f 94 bc cb a2 0c 3e 81 b2 c6 3d a2 a4 12 3d
       -0.018073896 0.13733976 0.09702016 0.035801537
000130 50 c6 36 bd 8c ef c5 3b c5 76 f9 bd 02 75 c5 bd
       -0.04462272 0.006040519 -0.121808566 -0.09641458
000140 64 31 6e bd b9 79 36 bd 24 aa 62 3d a0 5a cd 3d
       -0.05815257 -0.044549678 0.05533804 0.10027051
000150 3b bd 06 3d 53 3b 37 bd e0 85 13 be 70 eb 93 3d
       0.032895308 -0.04473431 -0.14406538 0.072226405
000160 47 06 bc bd c5 e1 e4 bd 79 11 18 be b0 f9 c7 bd
       -0.09180885 -0.111758746 -0.14850415 -0.09764421
000170 15 5c b7 bd e2 48 1c be 6b ee c7 3d f2 17 8c bd
       -0.0895311 -0.15262178 0.097622715 -0.06840505
000180 1c 7f 62 3d 02 aa fd 3c 11 80 0b 3e 3a 22 e2 3d
       0.055297002 0.030964855 0.13623072 0.110416844
000190 0c 64 19 be 12 90 0f 3e 6e bf 9f 3d 34 13 f5 bd
       -0.14979571 0.14019802 0.07800184 -0.11966553
0001a0 c5 b9 f0 bd 27 ad bd 3d ef b5 92 3c f0 86 a4 bc
       -0.11754183 0.09261542 0.017909018 -0.020083874
0001b0 c5 35 66 3d b2 8e 84 bd 02 28 23 3d 93 6f 42 3c
       0.056203622 -0.064725295 0.039833076 0.011867422
0001c0 c3 c4 23 3e 74 ba 0b be 5a fb 26 be 18 a9 f3 3d
       0.15993027 -0.13645345 -0.1630682 0.118974864
0001d0 37 28 e4 3d 71 3b e1 3d 74 a0 ec bd 39 6c c9 3d
       0.11140483 0.10997666 -0.115540415 0.09835095
0001e0 97 36 f0 bd 42 b9 e5 bc 82 fd 1c 3e 79 ef 16 3e
       -0.11729162 -0.02804244 0.1533108 0.14739789
0001f0 0a 06 da bd 93 fa 15 be 4a f5 af bd b2 2e b2 3d
       -0.10645683 -0.14646368 -0.08591707 0.08700313
000200 34 64 07 3e b6 c4 88 3b d3 ab a6 3d b8 4f 9b 3d
       0.13221818 0.0041738404 0.081382416 0.075835645
000210 20 27 5b 3b 31 90 1c be 99 be b3 bd 42 bb b1 3d
       0.0033440068 -0.1528938 -0.08776588 0.08678295
000220 7b 01 f6 bd ba 1d 26 be 7a da 08 3e de 4f f6 bd
       -0.12012001 -0.16222277 0.13364592 -0.12026952
000230 86 ad 73 3b 9d ad a7 bd c4 26 36 bd e3 51 0d bd
       0.0037182285 -0.08187411 -0.044470564 -0.03450192
000240 43 bd 9f ba fc 27 0c be 46 54 cf 3d 46 e2 61 3c
       -0.0012187142 -0.13687128 0.10123496 0.013786858
000250 e4 b9 27 bd 24 ad ba 3b e8 9f a7 3d 7d 6c 17 be
       -0.040948763 0.0056969095 0.081847966 -0.14787479
000260 e0 ca 0f be 3b e1 88 bd f1 99 17 be cb 83 12 bc
       -0.14042234 -0.06683584 -0.14804818 -0.008942555
000270 87 42 5e bd 19 a8 75 3d da dd 13 3b 84 90 d8 bd
       -0.054262664 0.059974764 0.0022562654 -0.10574439
000280 8d c7 00 3e e7 d4 9c bd 57 28 e5 3c eb dc 1b 3e
       0.12576123 -0.076577954 0.027973337 0.15220992
000290 6b f0 a5 bd 7a bd 86 bd c6 90 65 bc 0d a0 e4 bc
       -0.08102497 -0.065791085 -0.014011567 -0.02790835
0002a0 06 d6 d1 3b 47 b6 7f 3c c8 d6 11 3d ff 7d 0c be
       0.0064036874 0.015607423 0.035605222 -0.13719939
0002b0 61 bd 0b be fe e2 b4 bd 04 c9 c0 3d dc 4d 0d be
       -0.13646461 -0.08832358 0.09413341 -0.13799232
0002c0 79 14 26 bd e0 30 cc 3c a3 96 b4 bc c9 d0 bb bb
       -0.040546868 0.02492565 -0.022044485 -0.0057316762
0002d0 3e 2c a3 bd 67 c4 bd bd 4f da a4 bd 8c cd b0 bc
       -0.07967423 -0.092659764 -0.080494516 -0.021582387
0002e0 db 0f 05 be 9d 19 56 3d e5 09 f6 bc b4 06 84 3d
       -0.1299433 0.05227052 -0.030034015 0.06446591
0002f0 71 2e 69 bd 59 d1 95 3d 7c 4f 65 bd a4 b4 82 3d
       -0.056929056 0.073153205 -0.055984005 0.06382111
000300 36 7a e5 bd 9a 72 1d bc 1c 04 6b bc 65 a1 82 bd
       -0.112049505 -0.009609843 -0.0143442415 -0.0637844
000310 61 53 28 3d d0 1c 25 3e 6e 37 ae 3c af 6a c7 3d
       0.04109514 0.16124272 0.021266665 0.09737145
000320 30 57 1b 3e 59 d2 69 bd 6a 2f ac bd 32 60 1e 3e
       0.15169978 -0.05708537 -0.08407481 0.15466383
000330 6f da 7a bd 69 1c 5e 3d 25 4b 8a 3d e2 79 0c be
       -0.06124347 0.054226313 0.06752614 -0.1371837
000340 71 71 88 bd d8 da da 3b c1 cd b7 bd b3 81 52 3d
       -0.06662262 0.0066789202 -0.08974791 0.051393222
000350 9b 1f 6b 3d 5c 40 55 3d db f3 d6 bd 48 6e fc bc
       0.05740319 0.05206333 -0.104957305 -0.030814305
000360 91 8d e2 bd 97 57 14 3d c3 f9 b7 3c 8d 28 14 bd
       -0.11062158 0.036216345 0.022457963 -0.036171485
000370 f7 f6 b0 bd e4 4a a3 3d 29 a3 03 3a 8c d0 1c be
       -0.08640855 0.07973269 0.0005021566 -0.1531393
000380 0e 67 aa bd 79 8d 23 be 0c ca 0e 3e bf 73 38 bc
       -0.08320437 -0.15971936 0.13944262 -0.011258065
000390 ad 04 0b 3e f6 48 58 bd 90 1c d5 3d 15 22 ef 3d
       0.13576002 -0.052803956 0.104058385 0.116764225
0003a0 03 ad 23 3e d1 ae 5b bd 62 a9 56 3d 63 97 0e 3e
       0.15983967 -0.053633515 0.05240763 0.13924937
0003b0 00 a8 84 3d 90 79 ce 3a 94 89 bf bd 00 45 01 3e
       0.06477356 0.0015752781 -0.09352413 0.12623978
0003c0 a9 fe 00 be dd 6e 17 3d f6 2d 12 be 97 9f 59 bd
       -0.12597145 0.03697096 -0.14275345 -0.053130712
0003d0 27 03 72 bc 6a c0 10 be 1b ec d3 bd b7 09 8b bd
       -0.014771259 -0.141359 -0.10347768 -0.06788962
0003e0 1b d5 23 be ba e8 04 3e 8c 4f e9 bd ae 61 ac 3d
       -0.15999262 0.12979403 -0.113921255 0.084170684
0003f0 2a fc 09 3c cd e1 0c 3e 58 38 0f bd 6d ea 1b 3e
       0.008421937 0.13758011 -0.034965843 0.15226145

actor_critic.critic.model.0.linear.bias f4 [512]
000000 00 00 00 00 00 00 00 00 00 00 00 00 00 00 00 00
       0.0 0.0 0.0 0.0
000010 00 00 00 00 00 00 00 00 00 00 00 00 00 00 00 00
       0.0 0.0 0.0 0.0
000020 00 00 00 00 00 00 00 00 00 00 00 00 00 00 00 00
       0.0 0.0 0.0 0.0
000030 00 00 00 00 00 00 00 00 00 00 00 00 00 00 00 00
       0.0 0.0 0.0 0.0
000040 00 00 00 00 00 00 00 00 00 00 00 00 00 00 00 00
       0.0 0.0 0.0 0.0
000050 00 00 00 00 00 00 00 00 00 00 00 00 00 00 00 00
       0.0 0.0 0.0 0.0
000060 00 00 00 00 00 00 00 00 00 00 00 00 00 00 00 00
       0.0 0.0 0.0 0.0
000070 00 00 00 00 00 00 00 00 00 00 00 00 00 00 00 00
       0.0 0.0 0.0 0.0
000080 00 00 00 00 00 00 00 00 00 00 00 00 00 00 00 00
       0.0 0.0 0.0 0.0
000090 00 00 00 00 00 00 00 00 00 00 00 00 00 00 00 00
       0.0 0.0 0.0 0.0
0000a0 00 00 00 00 00 00 00 00 00 00 00 00 00 00 00 00
       0.0 0.0 0.0 0.0
0000b0 00 00 00 00 00 00 00 00 00 00 00 00 00 00 00 00
       0.0 0.0 0.0 0.0
0000c0 00 00 00 00 00 00 00 00 00 00 00 00 00 00 00 00
       0.0 0.0 0.0 0.0
0000d0 00 00 00 00 00 00 00 00 00 00 00 00 00 00 00 00
       0.0 0.0 0.0 0.0
0000e0 00 00 00 00 00 00 00 00 00 00 00 00 00 00 00 00
       0.0 0.0 0.0 0.0
0000f0 00 00 00 00 00 00 00 00 00 00 00 00 00 00 00 00
       0.0 0.0 0.0 0.0
000100 00 00 00 00 00 00 00 00 00 00 00 00 00 00 00 00
       0.0 0.0 0.0 0.0
000110 00 00 00 00 00 00 00 00 00 00 00 00 00 00 00 00
       0.0 0.0 0.0 0.0
000120 00 00 00 00 00 00 00 00 00 00 00 00 00 00 00 00
       0.0 0.0 0.0 0.0
000130 00 00 00 00 00 00 00 00 00 00 00 00 00 00 00 00
       0.0 0.0 0.0 0.0
000140 00 00 00 00 00 00 00 00 00 00 00 00 00 00 00 00
       0.0 0.0 0.0 0.0
000150 00 00 00 00 00 00 00 00 00 00 00 00 00 00 00 00
       0.0 0.0 0.0 0.0
000160 00 00 00 00 00 00 00 00 00 00 00 00 00 00 00 00
       0.0 0.0 0.0 0.0
000170 00 00 00 00 00 00 00 00 00 00 00 00 00 00 00 00
       0.0 0.0 0.0 0.0
000180 00 00 00 00 00 00 00 00 00 00 00 00 00 00 00 00
       0.0 0.0 0.0 0.0
000190 00 00 00 00 00 00 00 00 00 00 00 00 00 00 00 00
       0.0 0.0 0.0 0.0
0001a0 00 00 00 00 00 00 00 00 00 00 00 00 00 00 00 00
       0.0 0.0 0.0 0.0
0001b0 00 00 00 00 00 00 00 00 00 00 00 00 00 00 00 00
       0.0 0.0 0.0 0.0
0001c0 00 00 00 00 00 00 00 00 00 00 00 00 00 00 00 00
       0.0 0.0 0.0 0.0
0001d0 00 00 00 00 00 00 00 00 00 00 00 00 00 00 00 00
       0.0 0.0 0.0 0.0
0001e0 00 00 00 00 00 00 00 00 00 00 00 00 00 00 00 00
       0.0 0.0 0.0 0.0
0001f0 00 00 00 00 00 00 00 00 00 00 00 00 00 00 00 00
       0.0 0.0 0.0 0.0
000200 00 00 00 00 00 00 00 00 00 00 00 00 00 00 00 00
       0.0 0.0 0.0 0.0
000210 00 00 00 00 00 00 00 00 00 00 00 00 00 00 00 00
       0.0 0.0 0.0 0.0
000220 00 00 00 00 00 00 00 00 00 00 00 00 00 00 00 00
       0.0 0.0 0.0 0.0
000230 00 00 00 00 00 00 00 00 00 00 00 00 00 00 00 00
       0.0 0.0 0.0 0.0
000240 00 00 00 00 00 00 00 00 00 00 00 00 00 00 00 00
       0.0 0.0 0.0 0.0
000250 00 00 00 00 00 00 00 00 00 00 00 00 00 00 00 00
       0.0 0.0 0.0 0.0
000260 00 00 00 00 00 00 00 00 00 00 00 00 00 00 00 00
       0.0 0.0 0.0 0.0
000270 00 00 00 00 00 00 00 00 00 00 00 00 00 00 00 00
       0.0 0.0 0.0 0.0
000280 00 00 00 00 00 00 00 00 00 00 00 00 00 00 00 00
       0.0 0.0 0.0 0.0
000290 00 00 00 00 00 00 00 00 00 00 00 00 00 00 00 00
       0.0 0.0 0.0 0.0
0002a0 00 00 00 00 00 00 00 00 00 00 00 00 00 00 00 00
       0.0 0.0 0.0 0.0
0002b0 00 00 00 00 00 00 00 00 00 00 00 00 00 00 00 00
       0.0 0.0 0.0 0.0
0002c0 00 00 00 00 00 00 00 00 00 00 00 00 00 00 00 00
       0.0 0.0 0.0 0.0
0002d0 00 00 00 00 00 00 00 00 00 00 00 00 00 00 00 00
       0.0 0.0 0.0 0.0
0002e0 00 00 00 00 00 00 00 00 00 00 00 00 00 00 00 00
       0.0 0.0 0.0 0.0
0002f0 00 00 00 00 00 00 00 00 00 00 00 00 00 00 00 00
       0.0 0.0 0.0 0.0
000300 00 00 00 00 00 00 00 00 00 00 00 00 00 00 00 00
       0.0 0.0 0.0 0.0
000310 00 00 00 00 00 00 00 00 00 00 00 00 00 00 00 00
       0.0 0.0 0.0 0.0
000320 00 00 00 00 00 00 00 00 00 00 00 00 00 00 00 00
       0.0 0.0 0.0 0.0
000330 00 00 00 00 00 00 00 00 00 00 00 00 00 00 00 00
       0.0 0.0 0.0 0.0
000340 00 00 00 00 00 00 00 00 00 00 00 00 00 00 00 00
       0.0 0.0 0.0 0.0
000350 00 00 00 00 00 00 00 00 00 00 00 00 00 00 00 00
       0.0 0.0 0.0 0.0
000360 00 00 00 00 00 00 00 00 00 00 00 00 00 00 00 00
       0.0 0.0 0.0 0.0
000370 00 00 00 00 00 00 00 00 00 00 00 00 00 00 00 00
       0.0 0.0 0.0 0.0
000380 00 00 00 00 00 00 00 00 00 00 00 00 00 00 00 00
       0.0 0.0 0.0 0.0
000390 00 00 00 00 00 00 00 00 00 00 00 00 00 00 00 00
       0.0 0.0 0.0 0.0
0003a0 00 00 00 00 00 00 00 00 00 00 00 00 00 00 00 00
       0.0 0.0 0.0 0.0
0003b0 00 00 00 00 00 00 00 00 00 00 00 00 00 00 00 00
       0.0 0.0 0.0 0.0
0003c0 00 00 00 00 00 00 00 00 00 00 00 00 00 00 00 00
       0.0 0.0 0.0 0.0
0003d0 00 00 00 00 00 00 00 00 00 00 00 00 00 00 00 00
       0.0 0.0 0.0 0.0
0003e0 00 00 00 00 00 00 00 00 00 00 00 00 00 00 00 00
       0.0 0.0 0.0 0.0
0003f0 00 00 00 00 00 00 00 00 00 00 00 00 00 00 00 00
       0.0 0.0 0.0 0.0

actor_critic.critic.model.1.linear.weight f4 [1, 512]
000000 64 a4 6e bc b5 86 b2 bc 70 c7 95 3b 02 b7 0e 3d
       -0.014565561 -0.021792749 0.004570894 0.0348425
000010 d2 f9 7a bc 1c 9a 0e 3d 21 de 6e 3c 7b 6a 0c 3c
       -0.015318351 0.03481494 0.014579327 0.008570309
000020 e2 e0 74 3c 66 29 26 3d 8c ae 2c 3a c9 c9 b8 bc
       0.014946194 0.040566824 0.0006587289 -0.022557156
000030 e2 6b 45 bc e8 7c 1b 3d cc 0c 02 bb 7b a7 29 bd
       -0.012049647 0.037960917 -0.0019844053 -0.041419487
000040 78 c1 1c bd c2 24 a2 bb 34 d3 9a bc eb f5 f6 3c
       -0.038270444 -0.0049482295 -0.018899538 0.03014656
000050 68 58 d3 bb a7 bc 8d 3a b0 09 33 bd 6a bb 15 bd
       -0.006449748 0.0010813669 -0.04371041 -0.036555685
000060 fd 52 eb bc 4c 2e d6 bb 71 e5 cf bc 70 36 01 3d
       -0.028726095 -0.0065362807 -0.02537796 0.031546056
000070 de bd d5 ba 2b 0e 9b 3c 81 4a fe 3c e1 be 23 bb
       -0.0016307195 0.018927654 0.031041386 -0.00249856
000080 0d d9 04 bd ee 6a ac bb 1e fd be 3c 27 f2 0f 3d
       -0.03243356 -0.0052617704 0.023314055 0.035143044
000090 c3 2a 23 bd af c1 d2 3c 7c 71 10 bd d1 74 14 3d
       -0.039835703 0.025727121 -0.035264477 0.036244217
0000a0 24 b2 22 3d ec a9 f9 bb 5a 62 ab bc 96 0d d1 3c
       0.03972067 -0.007619133 -0.020920921 0.025519174
0000b0 91 a2 1c 3d a7 ca 8b bc bc c9 0a 3d ce 4f b9 3c
       0.038240973 -0.017064406 0.033883795 0.022621062
0000c0 ae 26 22 bc 28 26 0d bd 7a f2 5a bc 4e 50 fe 3c
       -0.009896917 -0.034460217 -0.013363475 0.031044152
0000d0 dc 1f e4 bb 1b 40 4e bb a6 8a fc bc 40 0b 18 bd
       -0.0069618057 -0.0031471315 -0.030827831 -0.037120104
0000e0 fe 23 bc 3c c8 67 95 3c 50 c3 53 bc b1 6b d0 bc
       0.022966381 0.018237963 -0.012924984 -0.025441976
0000f0 91 dc 25 bd f1 e0 fe 3c ef a7 e6 3c 37 14 60 3c
       -0.04049355 0.03111312 0.028156249 0.013676695
000100 ea 04 96 3a bb c3 15 3d 2a cf 0b 3d c5 db 54 bb
       0.0011445556 0.036563616 0.034133114 -0.0032479626
000110 93 75 42 bc 09 95 2e bc 06 05 23 3c 2e ad a7 bc
       -0.011868852 -0.01065565 0.009949928 -0.02046832
000120 72 cd 18 bd 58 ca cc bc f1 2d 86 bc 2e 5d 15 bd
       -0.037305303 -0.024998829 -0.016379328 -0.036465816
000130 36 5d 30 bb e6 11 ca bb 94 01 b5 bc d3 58 5c 3c
       -0.0026911027 -0.0061666844 -0.02209548 0.013448912
000140 10 2b 36 bc c5 94 54 bc 3a a0 a6 bc 2c 2f 0c 3b
       -0.011118665 -0.012974923 -0.020340074 0.0021390421
000150 53 69 e1 bc cc 08 07 3d 00 7f 11 3d 15 41 28 3d
       -0.027516043 0.032967374 0.035521507 0.041077692
000160 c7 a4 a6 bc 81 73 ce bc ec ad 29 bb 81 3b 60 bc
       -0.020342244 -0.02520156 -0.002589102 -0.013686062
000170 be 84 ae 3c e5 83 ea bc d5 0c 1e bd 5a 46 b2 bc
       0.02130353 -0.028627345 -0.038586456 -0.021762062
000180 b4 07 a6 3c 6c 0c 52 3c d0 60 ed 3c ce 15 d3 b9
       0.020267345 0.012820344 0.028976828 -0.00040261302
000190 0b aa 92 bc f7 1a 96 bb e7 6e 1b 3d 75 f6 af bb
       -0.017903348 -0.004580851 0.03794756 -0.005369956
0001a0 82 b9 f8 bb d6 32 29 bd 81 9f 7f bc 77 6e 14 3d
       -0.0075904736 -0.041308247 -0.015601994 0.03623816
0001b0 40 58 92 3c 7e 87 06 bd c3 ad 2a bc 31 c8 1c 3d
       0.017864347 -0.03284406 -0.010417405 0.038276855
0001c0 4b e4 98 3c 6f 28 53 3c 02 cb d4 3c 0f 1e ea 3c
       0.018663546 0.012888058 0.025975708 0.028578786
0001d0 3a e3 03 bd d2 93 9b 3c bb 80 b4 bc ec 8b 17 bc
       -0.032199122 0.018991385 -0.02203404 -0.009249669
0001e0 69 68 3d 3c 79 41 c8 3c 9e 45 f6 3c a1 32 c9 3b
       0.011560538 0.024445282 0.030062493 0.0061400686
0001f0 65 64 23 3c 75 34 4a bb 0a bd 24 3c a6 61 f8 bc
       0.009972666 -0.003085402 0.010054836 -0.03032
000200 7d da 86 3c 93 8e 2f bd 3c f1 33 3d e9 86 be 3c
       0.016461605 -0.04286058 0.04393123 0.02325769
000210 ec 57 32 3d 07 f5 0e bd 70 c4 27 bd 41 e7 b1 bc
       0.04354088 -0.034901645 -0.04095882 -0.021716716
000220 b6 32 04 bd b1 5b b3 3c f9 37 00 bd c8 0d 34 bd
       -0.032274924 0.021894308 -0.03130338 -0.043958455
000230 49 78 ee bc 5f c3 6e 3a da 54 f2 3c d7 61 79 bc
       -0.02911009 0.0009108092 0.029581476 -0.015221081
000240 70 e6 04 3d 6f 0b c0 bc ff b1 b8 bc 1d b8 52 3c
       0.032446325 -0.023442952 -0.022545813 0.012861279
000250 16 fa 31 3d 3d 89 22 bd b7 cb eb 3c 4e dd 28 3d
       0.04345139 -0.039681662 0.028783662 0.041226678
000260 eb 28 21 3d 60 b3 26 bd f5 81 99 bc 55 91 93 bc
       0.039345663 -0.04069841 -0.018738726 -0.018013636
000270 0f 31 2a bd 54 75 b2 3c d2 c9 77 bc 27 f4 3d bc
       -0.041550692 0.021784462 -0.015123801 -0.011593855
000280 6c 62 06 bc 37 f6 9c 3c 8c b0 2e bc f8 c6 0c bd
       -0.008202177 0.019160373 -0.010662209 -0.03436944
000290 4d 48 ca bc c4 21 a8 3b 21 70 66 3c 44 55 21 bc
       -0.024692679 0.0051309783 0.01406482 -0.009846989
0002a0 18 2b 11 3d 8b d0 e5 bc bd e7 bc 3a 2c 3b 00 bd
       0.035441488 -0.028053543 0.0014412325 -0.03130643
0002b0 57 66 03 3d 9a 97 75 bb 38 55 05 3d ca 9e d7 3c
       0.03208002 -0.0037474395 0.032551974 0.026320834
0002c0 1c 20 ce bc a4 89 1c bc cd 02 a9 3c 62 bd a6 3a
       -0.025161795 -0.0095543 0.020631218 0.0012721235
0002d0 3d a3 38 3c 8a b7 fc 3b d1 2a 8c bc cb 37 30 bd
       0.011269388 0.0077123092 -0.01711026 -0.04302196
0002e0 d6 7e db bc d3 9c a4 bc a0 70 d1 bc 80 02 30 bd
       -0.026793879 -0.02009431 -0.0255664 -0.042971134
0002f0 60 c1 0a bc 2d e9 ba bc 74 d7 ea 3c d3 65 28 bb
       -0.008468956 -0.022816265 0.02866719 -0.0025695458
000300 b3 39 de 3b 69 c8 93 bc 90 5b 33 3d 3c 53 b4 bc
       0.0067817806 -0.018039899 0.043788493 -0.022012345
000310 c5 13 2e 3c 65 e2 32 3d d5 c3 00 bd 7a 9f ac bb
       0.010624831 0.043672938 -0.03143676 -0.0052680345
000320 2f 80 d7 3c d3 32 52 3a 2b 13 72 bc eb 12 07 3d
       0.02630624 0.00080184377 -0.014775078 0.032977026
000330 4e 8c 37 bb 88 ec 0e 37 dd 81 2d bd c2 d7 27 3d
       -0.0028007212 8.518931e-06 -0.042360175 0.040977247
000340 2b df 2f bc d9 7d b8 3c 98 d6 15 bd 64 4f 01 bd
       -0.01073436 0.022520946 -0.036581606 -0.031569853
000350 98 96 1b bc 81 4b 9e 3c 60 62 b7 bc e2 82 e3 3b
       -0.009496354 0.019323112 -0.022385776 0.0069430927
000360 b3 78 2f 3d ae 4b 01 3d 67 44 00 3c cd d7 67 bb
       0.042839717 0.031566314 0.007828808 -0.003537643
000370 88 d8 f8 3b 51 05 d4 3c a7 65 f9 3c 77 90 9f 3c
       0.007594172 0.025881441 0.03044398 0.019478066
000380 c3 56 f9 3c 67 0a 08 3c d5 60 06 bb 6b 34 2b bd
       0.030436879 0.008303261 -0.0020504494 -0.041798037
000390 78 eb 27 3d 46 0b 82 bc 48 47 a5 3b 22 30 8c 3c
       0.040996045 -0.015874516 0.005043898 0.017112795
0003a0 25 13 ff bc fe 49 4c 3c 8a 97 17 bd d8 95 22 bd
       -0.031137059 0.012468813 -0.037009753 -0.039693683
0003b0 bc 18 cf bc b0 04 2c 3c ff a9 17 3d fc 7b 09 3d
       -0.025280349 0.010499164 0.037027355 0.033565506
0003c0 9f cd 09 bd 72 14 a3 bc ec 17 01 bd a6 aa e7 bc
       -0.03364336 -0.01990721 -0.031516954 -0.028279614
0003d0 1a 64 84 3c 48 6f aa bc e7 29 03 3d 37 7c f3 bb
       0.016161013 -0.020805016 0.032022383 -0.007430579
0003e0 be 45 2d bd 8e 3f 99 bc bc 57 66 3c 8a a5 72 bc
       -0.04230284 -0.018707063 0.014059003 -0.014809975
0003f0 70 51 85 bc 2b fd e5 3c 44 45 2e bd c6 19 33 3c
       -0.016274184 0.028074821 -0.042546526 0.010931438
