RL_Project/checkpoints/model.pt (torch, 185653 bytes, 8 tensors)

actor_critic.std f4 [12]
0.9999867 1.0034646 1.0011069 1.0008067 0.9967416 1.0043821 0.99661195 0.9992025
0.9986042 1.0044343 0.99406195 1.0018135
00000000: 21ff 7f3f 8771 803f 4524 803f 6f1a 803f
00000010: 752a 7f3f 988f 803f f621 7f3f bccb 7f3f
00000020: 86a4 7f3f 4e91 803f d87a 7e3f 6d3b 803f

actor_critic.actor.model.0.linear.weight f4 [512, 37]
0.028357258 -0.026894698 -0.09010183 -0.04657673 0.0947587 -0.009736973 -0.07230351 0.1070725
0.03573124 0.07167904 0.14975083 0.030390363 -0.13420403 -0.02899816 -0.10775991 0.09430771
-0.03854081 -0.12662067 -0.025808541 0.104199916 -0.0076836273 -0.034637406 0.0069624926 -0.07924668
0.055409532 0.13000244 0.0039409534 -0.11113332 0.049641665 0.06817972 0.10026034 0.029564848
0.06468879 -0.021404678 0.15469684 0.012321637 0.11142459 0.12092183 0.1250475 -0.06299158
-0.12239753 -0.10878979 0.008725896 -0.0413783 -0.1473428 0.080504805 -0.14506482 0.15188546
0.08809583 -0.060975187 -0.0026931574 0.11159699 -0.037613306 -0.14682849 -0.14642891 -0.13311532
-0.038930982 -0.004203193 0.0680021 -0.015334082 -0.059165273 0.021319492 0.025744045 -0.09458609
0.1450049 -0.08835897 0.07787065 0.09012394 0.11180918 -0.09141815 0.013298974 -0.14569052
0.07126872 -0.11386199 -0.1052417 -0.08497806 0.04587544 -0.059655674 0.100093976 0.14556022
-0.07061264 0.12155202 0.028532537 0.079005495 -0.06600422 -0.06505727 -0.026568186 -0.14694951
0.010700509 0.028006041 -0.104273185 -0.12019204 -0.015885117 -0.14196204 0.10040704 0.09031225
0.055422038 0.008020179 0.0675742 0.09384905 0.0672976 -0.05594709 0.026535355 0.019490195
0.097656414 -0.035358455 0.032121487 -0.095925875 -0.075467706 0.11213635 0.12507883 0.10045749
0.041820917 -0.028528553 -0.1351114 -0.14089787 -0.075680375 0.114746675 0.01690237 -0.03673254
-0.100650825 -0.0738332 -0.0294777 -0.15583374 0.03725922 -0.0328309 0.08906229 -0.106008
-0.040223572 0.14117579 -0.12262736 -0.10291775 -0.11451348 0.13870986 -0.15594098 -0.053089257
-0.04337994 0.029361987 -0.06573745 0.08009703 -0.028715273 0.104225345 -0.065982476 -0.090764
-0.047653325 0.006215719 0.04720004 0.16261898 -0.041714534 -0.006819893 -0.10521991 0.11143049
0.017758003 0.052751392 0.095581636 -0.15626156 0.14180844 -0.079012565 -0.15496388 0.14033099
0.014614239 0.07066097 0.09283632 0.03975608 0.004256212 0.10189716 0.09538914 -0.045122743
0.14370005 0.1620375 0.07720192 0.021603625 -0.09421158 -0.13410309 -0.029206166 0.030115027
0.0069860877 -0.008571483 0.15162385 0.15550041 0.0034017616 0.03893542 -0.06759964 -0.030499583
0.0730538 0.0053665256 0.11655735 0.09400008 -0.16308926 0.016925024 -0.0062705562 0.05508723
0.09023296 0.13411422 -0.045834173 0.16497649 0.12156558 0.11155279 -0.06415978 0.042990487
-0.025993826 -0.09646265 -0.12317894 0.07536795 -0.13895115 0.15388699 -0.025569227 -0.020115985
0.15418586 -0.025934264 0.123386584 -0.010439748 0.059322435 0.10735478 0.15008585 -0.15382212
-0.11273936 0.031475455 0.058448225 0.1648715 -0.12807398 0.10058591 0.14586727 0.07628939
-0.14965183 0.02632992 0.048929837 -0.039751317 0.12999137 -0.13234219 0.11812165 -0.12098473
0.12908715 0.105024494 0.0021109865 0.07551805 -0.16513425 -0.07011859 -0.114114515 0.14110404
-0.062121134 -0.08340842 0.12568006 0.07094714 -0.14835504 0.14303942 0.067917265 -0.029110052
0.02505911 -0.14106485 -0.13215806 0.038712233 -0.015949551 -0.04073239 -0.13292626 0.034696404
00000000: 7b4d e83c 4552 dcbc 4f87 b8bd 3ec7 3ebd
00000010: d910 c23d d387 1fbc dd13 94bd d448 db3d
00000020: ec5a 123d 76cc 923d 4858 193e 36f5 f83c
00000030: c86c 09be 8d8d edbc 3ab1 dcbd 6724 c13d
00000040: f8dc 1dbd d9a8 01be 6f6c d3bc c466 d53d
00000050: f0c6 fbbb f4df 0dbd 9f25 e43b 154c a2bd
00000060: 1bf5 623d 5c1f 053e 1d23 813b de99 e3bd
00000070: 0f55 4b3d cfa1 8b3d 4b55 cd3d fb31 f23c
00000080: 8e7b 843d dd58 afbc d968 1e3e b1e0 493c
00000090: 9332 e43d dda5 f73d 740c 003e bb01 81bd
000000a0: 8eab fabd 2ecd debd 0ff7 0e3c 4b7c 29bd
000000b0: 08e1 16be b4df a43d df8b 14be dd87 1b3e
000000c0: 966b b43d 1ec1 79bd af7f 30bb f68c e43d
000000d0: 6910 1abd 355a 16be 76f1 15be 624f 08be
000000e0: 1876 1fbd f0ba 89bb af44 8b3d cd3b 7bbc
000000f0: 4957 72bd 37a6 ae3c 2de5 d23c 5ab6 c1bd
00000100: 2a7c 143e 8cf5 b4bd a67a 9f3d e692 b83d
00000110: 36fc e43d 7039 bbbd f1e3 593c e52f 15be
00000120: 56f5 913d 7a30 e9bd f688 d7bd fa08 aebd
00000130: e3e7 3b3d 8259 74bd 12fe cc3d bd0d 153e
00000140: 5c9d 90bd 44f0 f83d 11bd e93c a2cd a13d
00000150: 382d 87bd bf3c 85bd 86a5 d9bc ef79 16be
00000160: 3051 2f3c ed6c e53c 2e8d d5bd 3f27 f6bd
00000170: 8121 82bc 7f5e 11be 35a2 cd3d a1f5 b83d
00000180: 3802 633d 1267 033c 5864 8a3d ee33 c03d
00000190: 53d3 893d c728 65bd ac60 d93c e7a9 9f3c
000001a0: 1600 c83d 07d4 10bd d291 033d c974 c4bd
000001b0: d08e 9abd bea7 e53d aa14 003e a8bc cd3d
000001c0: 694c 2b3d b6b4 e9bc a55a 0abe 8847 10be
000001d0: 50fe 9abd 4e00 eb3d d776 8a3c dc74 16bd
000001e0: 0522 cebd dc35 97bd 387b f1bc e192 1fbe
000001f0: 209d 183d b279 06bd 4a66 b63d b91a d9bd
00000200: 79c1 24bd 6390 103e 0e24 fbbd 8bc6 d2bd
00000210: 0b86 eabd f509 0e3e feae 1fbe 1f74 59bd
00000220: 2aaf 31bd 8d88 f03c 5ba1 86bd e909 a43d
00000230: 4b3c ebbc 1974 d53d d221 87bd 7ae2 b9bd
00000240: 2230 43bd 3bad cb3b d454 413d 9785 263e
00000250: dcdc 2abd 6979 dfbb 897d d7bd ab35 e43d
00000260: 3b79 913c d811 583d 4ec0 c33d 0803 20be
00000270: 3b36 113e 57d1 a1bd daae 1ebe edb2 0f3e
00000280: 9070 6f3c b3b6 903d f820 be3d 45d7 223d
00000290: b277 8b3b 75af d03d 625b c33d a0d2 38bd
000002a0: 1b26 133e 29ed 253e 0a1c 9e3d 16fa b03c
000002b0: 00f2 c0bd 5252 09be c541 efbc cab3 f63c
000002c0: 8deb e43b 686f 0cbc 4843 1b3e 803b 1f3e
000002d0: 17f0 5e3b bf7a 1f3d ae71 8abd 43da f9bc
000002e0: 3b9d 953d aed9 af3b 9fb5 ee3d 1d83 c03d
000002f0: df00 27be 59a6 8a3c 3d79 cdbb 26a3 613d
00000300: 0fcc b83d 3d55 093e 9dbc 3bbd 99ef 283e
00000310: 60f7 f83d ca75 e43d 3466 83bd cb16 303d
00000320: 01f1 d4bc 368e c5bd 3d45 fcbd 835a 9a3d
00000330: 3649 0ebe 8d94 1d3e 8e76 d1bc 47ca a4bc
00000340: e6e2 1d3e 1874 d4bc 1bb2 fc3d 7a0b 2bbc
00000350: 15fc 723d d3dc db3d 1bb0 193e 8c83 1dbe
00000360: e5e3 e6bd 68ec 003d 6867 6f3d 13d4 283e
00000370: d325 03be fcff cd3d 3b5e 153e 9d3d 9c3d
00000380: 543e 19be d8b1 d73c a76a 483d 47d2 22bd
00000390: 751c 053e b684 07be c3e9 f13d d8c6 f7bd
000003a0: 6c2f 043e 1517 d73d 7a58 0a3b 35a9 9a3d
000003b0: f418 29be 569a 8fbd dfb4 e9bd 947d 103e
000003c0: bb72 7ebd 09d2 aabd 46b2 003e bc4c 913d
000003d0: 62ea 17be ed78 123e 3518 8b3d 3478 eebc
000003e0: c348 cd3c 4e73 10be 7154 07be b890 1e3d
000003f0: a2a8 82bc 02d7 26bd d21d 08be d11d 0e3d

actor_critic.actor.model.0.linear.bias f4 [512]
0.0027995456 0.0027371899 0.0018643037 -0.0027901395 -0.003627694 5.2027153e-05 0.006052822 -0.004082901
-0.0018772966 0.0014585096 0.00016372686 -0.0024616083 0.006141925 0.002395195 -0.0017496803 -9.921902e-05
0.0050713685 -0.0035624292 0.0025031844 0.0020500664 -0.004157768 0.0006797658 -0.0019498705 -0.0015027357
-0.003516882 -0.00324046 0.004047412 -0.0024385469 -0.00047029578 0.004591477 -0.0011975477 -0.0022024992
-0.0016375589 0.0018782933 0.0003284422 0.0027867374 -0.00054781063 0.0003439984 -0.0026503901 7.621458e-05
-0.0027435059 7.496119e-05 -0.0025109746 -0.0020028166 0.00028474626 0.0016005521 -0.0015068835 -0.0038507276
-0.0025142531 -0.0018924924 -0.001819652 -0.00065505115 -0.002065275 -0.0028802701 -5.4846743e-05 0.002582975
0.0010541108 0.0015965498 -0.0007467363 -0.0029881946 0.0014625674 -0.004845723 0.00034476712 -0.0018844698
0.0010087248 -0.0023303153 0.0038643745 -0.0040311404 0.0022332575 0.0021634947 -0.003349417 -0.0037389812
0.00036737116 -0.002171536 -0.002287942 -0.0024852613 0.0023089638 0.004910168 0.0005402668 -0.0025138
-0.003377664 0.0032707734 -0.00031829043 0.0030361 0.0019118006 0.0024438754 -0.0048508462 0.0007778378
0.00095579354 -0.001003304 -0.0013924761 0.003743634 0.0021819128 -0.0017075838 -0.002682631 0.0029043206
-0.0039519505 0.00029774822 -0.0016442084 0.003584479 0.003194739 -0.0022769766 -0.00084991375 0.0044246134
-0.0027150493 -0.003210197 0.0038956243 0.005183439 -0.0013480156 0.002407899 -0.0060832915 0.0021705602
0.0042272243 0.0013544783 -0.0054159123 -0.00015788336 0.0026431761 -0.005410186 0.0010644629 0.0012857978
0.0037196686 0.0022281297 0.0008801829 0.0013851355 -0.0013479386 0.0001843468 -0.0032605946 -0.0038009677
-3.7284182e-05 0.006329402 0.00038553405 0.0035351557 0.003553003 0.0011424427 0.0012030468 0.00092246855
-0.0032989937 0.0016144412 0.0062938863 0.0020577065 -0.00030149167 -0.00079587684 0.0020710276 0.00061859866
-0.0041244724 0.0019137068 -0.0034622264 0.0037367234 0.002990747 -0.0003346489 -0.0015723131 0.0012797461
0.002396986 -0.004441696 0.0026469019 -0.0010794158 0.006002659 -0.00068800047 -0.0017800473 -0.0013428462
-0.002622387 -0.002310704 0.003503353 -0.00027174855 0.0025152003 -0.0016344489 -0.0009732296 -0.0028903005
0.002579533 0.00192648 0.0004896028 -0.0013974197 -0.007791155 -0.001966237 0.0034220007 -0.0021906635
0.0018954603 -0.0022286964 -0.0035015682 0.00025365545 0.0013107575 -0.0025056133 0.00043709966 -0.002097305
-0.0027526761 -0.004975092 -0.0046011163 6.33217e-05 -0.0003032517 -0.0025726564 -0.00058620103 -0.0035745392
-0.0015326256 0.0026893176 -0.0015270036 0.003302985 4.2556614e-05 -0.00030019143 0.0005826475 0.0032060759
-0.00027614477 0.0020139532 -0.0007315296 -0.0014626883 0.0007886138 -0.0028025112 0.0019222739 -0.005225125
-0.00026504288 -0.0021496068 -0.00024076634 -0.0023669929 0.0028787972 0.0033401952 0.0010770594 -0.00046747844
0.00093805767 -0.002688785 0.00059939414 -0.00067771465 0.0028954982 -6.394447e-05 -0.0019632964 0.00045502983
0.002064699 -0.0013799618 -0.0005670445 -0.0010294783 -0.0032790988 -0.0016562481 -0.00094299775 -0.0010535297
-0.0038712164 -0.0035857328 0.0030388224 0.001746117 0.0013128447 0.0031170666 -0.0026359146 0.0005001268
0.004228849 0.0022218742 0.003115117 -0.00020062938 -0.004853166 -0.0016592917 -0.0031492412 0.00061675505
0.0035772058 -0.0018172049 0.0013490698 -0.0021340477 0.0010506928 0.0006249314 -0.0015535366 -0.00012356401
00000000: 9578 373b 6d62 333b a75b f43a c6da 36bb
00000010: 9bbe 6dbb bb37 5a38 c056 c63b dbc9 85bb
00000020: 9f0f f6ba 762b bf3a 18ae 2b39 ef52 21bb
00000030: 3442 c93b b4f8 1c3b 8755 e5ba ce13 d0b8
00000040: b92d a63b a577 69bb 770c 243b 685a 063b
00000050: e33d 88bb 5032 323a cc92 ffba 71f7 c4ba
00000060: 7d7b 66bb e65d 54bb 27a0 843b 07d0 1fbb
00000070: 0892 f6b9 1a74 963b 08f7 9cba ce57 10bb
00000080: 5ca3 d6ba 1131 f63a c432 ac39 b2a1 363b
00000090: f39a 0fba af5a b439 2bb2 2dbb 64d5 9f38
000000a0: 64cc 33bb 7c34 9d38 2a8f 24bb b041 03bb
000000b0: ff49 9539 9ec9 d13a 9f82 c5ba 7d5c 7cbb
000000c0: 2bc6 24bb 820d f8ba 6481 eeba bdb7 2bba
000000d0: 9159 07bb eac2 3cbb 3e0b 66b8 2147 293b
000000e0: 172a 8a3a 5243 d13a a0c0 43ba 96d5 43bb
000000f0: 9eb3 bf3a dfc8 9ebb dcc1 b439 5000 f7ba
00000100: 3037 843a 34b8 18bb 7241 7d3b a817 84bb
00000110: d85b 123b 6bc9 0d3b e481 5bbb b209 75bb
00000120: b99b c039 5450 0ebb 4cf1 15bb c4df 22bb
00000130: fc51 173b 79e5 a03b b1a0 0d3a 91be 24bb
00000140: cc5b 5dbb 795a 563b 38e0 a6b9 4ef9 463b
00000150: 6295 fa3a 6d29 203b d9f3 9ebb d0e7 4b3a
00000160: 388e 7a3a 4c81 83ba bf83 b6ba c257 753b
00000170: 6cfe 0e3b 01d1 dfba 14cf 2fbb 6a56 3e3b
00000180: 5d7f 81bb 171b 9c39 7b82 d7ba 94e9 6a3b
00000190: d45e 513b 5439 15bb bfcc 5eba 59fc 903b
000001a0: f8ee 31bb 2b62 52bb bb4d 7f3b d6d9 a93b
000001b0: e6af b0ba d7cd 1d3b 5956 c7bb f53f 0e3b
000001c0: 8784 8a3b c088 b13a f777 b1bb 7e8d 25b9
000001d0: 2339 2d3b ee47 b1bb 7385 8b3a 3788 a83a
000001e0: afc5 733b d005 123b 13bc 663a 6f8d b53a
000001f0: 50ad b0ba 384d 4139 b3af 55bb a819 79bb
00000200: 9661 1cb8 df66 cf3b 8121 ca39 12ae 673b
00000210: 80d9 683b 04be 953a 8daf 9d3a d1d1 713a
00000220: ee33 58bb a89b d33a f23c ce3b 96da 063b
00000230: 8711 9eb9 64a2 50ba 14ba 073b 7429 223a
00000240: 9526 87bb 58d5 fa3a 85e6 62bb d1e3 743b
00000250: 6900 443b d173 afb9 1316 ceba 27bd a73a
00000260: c016 1d3b a68b 91bb a577 2d3b 2f7b 8dba
00000270: f4b1 c43b ee5a 34ba 7a50 e9ba 7102 b0ba
00000280: 5adc 2bbb 2e6f 17bb 8398 653b 7979 8eb9
00000290: 0fd6 243b 013b d6ba 5520 7fba 326b 3dbb
000002a0: 620d 293b f181 fc3a b058 003a a029 b7ba
000002b0: f24c ffbb fcdb 00bb a543 603b 3c91 0fbb
000002c0: 1871 f83a 520f 12bb 917a 65bb 0ffd 8439
000002d0: b9cd ab3a 3735 24bb 862a e539 f072 09bb
000002e0: 3e66 34bb 1906 a3bb f6c4 96bb 94cb 8438
000002f0: c1fd 9eb9 039a 28bb 49ab 19ba d142 6abb
00000300: 62e2 c8ba 433f 303b bd25 c8ba e576 583b
00000310: d17e 3238 0363 9db9 d0bc 183a 071d 523b
00000320: 86c7 90b9 87fc 033b 1fc4 3fba adb7 bfba
00000330: faba 4e3a 56aa 37bb cff4 fb3a 8637 abbb
00000340: 74f5 8ab9 6be0 0cbb 3976 7cb9 8d1f 1bbb
00000350: 34aa 3c3b 2de7 5a3b 1e2c 8d3a e517 f5b9
00000360: fce7 753a 5436 30bb a920 1d3a a9a8 31ba
00000370: 66c2 3d3b ed19 86b8 a6aa 00bb 1291 ee39
00000380: e74f 073b d6df b4ba b6a5 14ba 8fef 86ba
00000390: 26e6 56bb 7716 d9ba 8233 77ba 9716 8aba
000003a0: 3cb4 7dbb 9dfe 6abb fb26 473b f7dd e43a
000003b0: c213 ac3a b347 4c3b 4fbf 2cbb f11a 033a
000003c0: 2892 8a3b dd9c 113b fe26 4c3b 0a60 52b9
000003d0: 4f07 9fbb 977c d9ba 8063 4ebb bbad 213a
000003e0: 8e6f 6a3b 472f eeba 45d3 b03a 61db 0bbb
000003f0: 66b7 893a 70d2 233a 0aa0 cbba f690 01b9

actor_critic.actor.model.1.linear.weight f4 [12, 512]
0.014093858 0.04503949 -0.024111748 0.00077511655 -0.014201944 -0.039091818 -0.0113579 -0.027425297
-0.004673801 0.014488511 -0.039388303 -0.012349324 -0.017306874 0.0016780006 -0.03233834 0.0006035746
0.011129802 0.02798615 0.0040284144 -0.027606592 -0.017351411 -0.008694063 0.034187436 0.008813297
-0.0023022182 0.03691346 -0.040900327 -0.026805282 0.010972561 0.024220565 0.01659807 0.026394185
-0.019814242 -0.007859006 -0.022188336 -0.03259074 -0.014811546 0.025163172 0.0016047551 -0.0038722013
-0.015661323 -0.024227263 -0.01295298 -0.03298453 -0.0025853796 -0.028575338 0.0064917165 -0.021006359
-0.024112862 -0.045555472 -0.022783149 -0.004590711 -0.02017092 0.013951419 0.008222205 0.025043126
-0.009983949 0.0053186165 0.027596788 0.037559904 -0.004971779 0.0075064288 -0.02014531 -0.009974151
0.037389673 -0.00046590363 0.016880149 0.03506656 0.04312283 -0.001910057 0.006166936 -0.024173887
0.029472798 -0.010023966 0.039876424 0.024685435 0.015210673 0.03569908 -0.033679396 -0.0011556899
0.03327532 -0.031172724 -0.03836399 -0.018305272 -0.01997767 -0.0138907945 -0.02653534 -0.006451662
0.02308866 0.0011164979 0.019442115 -0.035921562 0.03049075 0.0045097223 -0.033583947 -0.021983756
-0.0029557324 0.012892537 0.02045194 0.016890062 -0.005191674 0.018781463 0.011054885 0.033412497
-0.02328302 -0.010514073 0.01945975 0.01670044 0.033669762 -0.0044186977 0.022601815 0.018885642
-0.024407322 0.04500311 -0.021988554 0.040678155 0.0012818793 0.0328695 0.0028377813 0.0040612197
-0.007964522 0.030872656 -0.02739015 -0.009165839 -0.023790048 0.002022523 0.03263278 0.04193202
0.036909387 0.028045276 -0.023456475 -0.020139053 -0.020170482 -0.014686137 -0.01813287 0.011730644
0.040519226 -0.0059189256 -0.023986984 0.017685352 0.030911202 0.028900605 0.010888709 0.0046135806
0.022187414 0.023821427 0.02075808 -0.01551892 -0.029504014 0.0390163 -0.031062827 -0.020885283
-0.02172531 0.02784938 -0.040119708 0.035402477 0.020785578 0.03592687 -0.0021481884 0.017003346
-0.017454429 -0.010965243 0.025799539 -0.032336336 0.007530799 -0.040135622 0.017338783 0.013584975
0.007918355 -0.03374043 -0.003225471 -0.006195128 -0.0075451056 -0.037960973 0.0034899376 0.0041618575
-0.043821104 -0.021533785 0.044209138 0.018954799 0.02586647 -0.018110186 -0.000117066316 -0.00642739
0.046259027 0.019231496 -0.037455425 -0.026733806 0.029070903 0.03367919 -0.021215722 0.00030006393
-0.015539251 0.005930438 -0.007606119 -0.03853457 -0.017350841 -0.025789734 -0.020283233 0.033868603
-0.017245969 -0.0044635013 -0.028065223 -0.012846369 -0.027940584 -0.011461763 0.020092543 -0.031980447
0.0013007893 0.017941626 -0.04146898 -0.027497968 -0.04397796 0.028439855 -0.03136462 -0.03536699
0.02208466 -0.0009427978 -0.0042503765 0.0034036164 -0.024366435 0.018605988 -0.019204056 -0.007036577
-0.0052193403 0.0269737 0.0061423946 -0.004165523 -0.012748109 -0.015375377 -0.019836549 -0.03529439
-0.029568613 -0.039134867 0.023326013 -0.019468496 -0.025605118 0.038350496 0.032235764 -0.009498383
-0.02024202 -0.012512392 -0.0013650638 0.040379185 0.020249901 0.03613145 0.012188434 -0.0058430578
0.03868072 0.04019835 0.004969523 -0.031526368 0.024964843 0.011508896 -0.024272434 0.041059617
00000000: ede9 663c 547b 383d 0086 c5bc 3131 4b3a
00000010: 45af 68bc be1e 20bd 7c16 3abc 04ab e0bc
00000020: af26 99bb 3861 6d3c a155 21bd d254 4abc
00000030: 25c7 8dbc 5bf0 db3a 3575 04bd 3539 1e3a
00000040: c659 363c 3643 e53c ca00 843b 3827 e2bc
00000050: 8c24 8ebc 8b71 0ebc 2008 0c3d a665 103c
00000060: d0e0 16bb 9132 173d 1a87 27bd c096 dbbc
00000070: 42c6 333c 356a c63c adf8 873c 9e38 d83c
00000080: 7a51 a2bc 0fc3 00bc 50c4 b5bc de7d 05bd
00000090: 20ac 72bc ff22 ce3c a556 d23a c2c4 7dbb
000000a0: 2d4c 80bc 4178 c6bc bc38 54bc c91a 07bd
000000b0: 796f 29bb d416 eabc 77b8 d43b 8715 acbc
000000c0: 5688 c5bc 6098 3abd baa3 babc ad6d 96bb
000000d0: 7c3d a5bc 7e94 643c 6db6 063c 3e27 cd3c
000000e0: b893 23bc ca47 ae3b a912 e23c 6ad8 193d
000000f0: 4eea a2bb 7df8 f53b c707 a5bc 9f6a 23bc
00000100: ea25 193d 8744 f4b9 3d48 8a3c f4a1 0f3d
00000110: 91a1 303d e15a faba 0214 ca3b 5108 c6bc
00000120: f070 f13c 903b 24bc 7655 233d 1c39 ca3c
00000130: 3036 793c 3339 123d 68f3 09bd 857a 97ba
00000140: b44b 083d f15d ffbc 8f23 1dbd f0f4 95bc
00000150: 36a8 a3bc 3796 63bc a460 d9bc 7768 d3bb
00000160: 6e24 bd3c 7457 923a 1245 9f3c 7d22 13bd
00000170: bdc7 f93c 4bc6 933b 528f 09bd 4717 b4bc
00000180: f6b4 41bb 383b 533c d48a a73c 075d 8a3c
00000190: eb1e aabb 95db 993c 8c1f 353c 8bdb 083d
000001a0: 08bc bebc 3843 2cbc 0e6a 9f3c 5ccf 883c
000001b0: 4ee9 093d b9ca 90bb 7127 b93c 10b6 9a3c
000001c0: ddf1 c7bc 2e55 383d 5721 b4bc 239e 263d
000001d0: bb04 a83a 2ba2 063d 12fa 393b fb13 853b
000001e0: a07d 02bc a7e8 fc3c 4f61 e0bc 512c 16bc
000001f0: 59e3 c2bc 4e8c 043b f3a9 053d e9c0 2b3d
00000200: 4c2e 173d 35bf e53c cb27 c0bc a8fa a4bc
00000210: 913c a5bc 209e 70bc 628b 94bc e331 403c
00000220: 7df7 253d 8cf3 c1bb 5a80 c4bc dfe0 903c
00000230: 7d39 fd3c f6c0 ec3c 8e66 323c 852d 973b
00000240: 61c2 b53c 2725 c33c d90c aa3c 1143 7ebc
00000250: 67b2 f1bc 8ecf 1f3d 7877 febc 9d17 abbc
00000260: 47f9 b1bc 6224 e43c 9054 24bd 3002 113d
00000270: 8446 aa3c 0e28 133d 9fc8 0cbb 9a4a 8b3c
00000280: 97fc 8ebc 90a7 33bc 8e59 d33c 1b73 04bd
00000290: ecc4 f63b 4065 24bd 100a 8e3c 8493 5e3c
000002a0: fdbb 013c 6833 0abd 6c62 53bb 8000 cbbb
000002b0: ef3c f7bb f77c 1bbd 70b7 643b 3160 883b
000002c0: c27d 33bd 9f67 b0bc a414 353d 1847 9b3c
000002d0: ebe5 d33c d05b 94bc 8081 f5b8 db9c d2bb
000002e0: 1b7a 3d3d 5f8b 9d3c dc6a 19bd db00 dbbc
000002f0: 1a26 ee3c 31f3 093d 98cc adbc e651 9d39
00000300: 5898 7ebc 1f54 c23b c03c f9bb 6dd6 1dbd
00000310: 5a23 8ebc fe44 d3bc 0629 a6bc ceb9 0a3d
00000320: 6b47 8dbc 9042 92bb 0ae9 e5bc 9479 52bc
00000330: a7e3 e4bc 1eca 3bbc 1e99 a43c eefd 02bd
00000340: 3f7f aa3a 51fa 923c 61db 29bd 6b43 e1bc
00000350: 3c22 34bd b3fa e83c 3078 00bd fadc 10bd
00000360: e4ea b43c 1726 77ba be46 8bbb 350f 5f3b
00000370: 1e9c c7bc 966b 983c d351 9dbc 1693 e6bb
00000380: 0007 abbb f3f7 dc3c 2446 c93b f17e 88bb
00000390: 72dd 50bc 01e9 7bbc 4280 a2bc da90 10bd
000003a0: e039 f2bc e24b 20bd 3216 bf3c 657c 9fbc
000003b0: d3c1 d1bc 6915 1d3d a609 043d 1b9f 1bbc
000003c0: 98d2 a5bc c700 4dbc f1eb b2ba a564 253d
000003d0: 1fe3 a53c 92fe 133d ffb1 473c 1f77 bfbb
000003e0: ad6f 1e3d 06a7 243d 61d7 a23b cb21 01bd
000003f0: 1283 cc3c cf8f 3c3c fcd6 c6bc 212e 283d

actor_critic.actor.model.1.linear.bias f4 [12]
-0.0007024186 -0.0018123926 0.00051749294 0.00013885937 -0.00030614232 0.0004092766 0.0011644791 0.005403852
0.00077150844 -0.0010893933 0.0056139417 0.0016735109
00000000: 8422 38ba ce8d edba 5da8 073a c79a 1139
00000010: ba81 a0b9 2d94 d639 6fa1 983a cc12 b13b
00000020: 0e3f 4a3a f9c9 8eba 28f5 b73b b559 db3a

actor_critic.critic.model.0.linear.weight f4 [512, 37]
-0.08704477 -0.07254146 0.10006393 0.035142563 -0.124131225 0.05237015 0.16309427 -0.060244963
-0.14027564 0.034699984 -0.0054126815 -0.11716666 -0.14969796 0.06518453 0.090663105 0.047481302
0.18272565 -0.13992001 0.090075694 -0.064728744 0.047938272 -0.055436853 -0.17482924 -0.10390729
-0.09547706 -0.13627435 0.08617861 0.08176189 0.08864353 -0.026255177 0.06330724 0.028384935
-0.13957056 -0.09046993 0.05248073 -0.06115896 -0.04770628 0.15449283 0.027737191 0.0017817438
0.0012740147 -0.07211528 0.03862001 -0.057702344 -0.034747858 -0.026675541 0.099367104 0.16827175
-0.025024148 -0.14983594 -0.033553477 -0.093119286 0.06578122 -0.030846259 -0.13017792 -0.019090774
0.08048872 0.029643882 -0.12584 -0.09992113 0.024247596 -0.100159295 0.16928746 0.11212655
0.11066365 -0.090297386 0.16349344 0.024280801 0.09666256 0.15946668 -0.08996627 0.07163572
0.0828813 -0.0034893993 0.015452838 -0.0806729 0.14428453 0.028398842 0.14777508 -0.13557312
-0.01127557 -0.16455832 -0.033431012 -0.016755164 -0.070582926 -0.075333364 -0.15238065 0.084849216
-0.099763036 0.04541381 0.16073687 -0.062313516 0.052061364 0.05251974 -0.14960602 -0.013112494
0.12292956 -0.013414704 0.117092624 0.07451844 0.0024917133 -0.16357744 0.07358947 0.07921137
-0.17457712 0.16099152 -0.025042683 -0.110176414 0.095255636 0.030432163 -0.15398312 0.048195284
-0.09070945 -0.118893355 0.07150907 -0.14765355 -0.03468207 0.13997163 -0.01568654 0.027707335
-0.16793257 0.012629281 -0.15662956 0.09550294 0.14396697 0.06000406 0.03810787 -0.05387543
0.13496338 -0.16955443 -0.0463539 -0.054210927 -0.021892415 -0.16009374 -0.062195577 -0.055630766
-0.093860775 -0.025504297 0.050510284 0.12869652 0.0046202173 0.12605906 -0.003959195 0.1007092
0.037662093 0.13513842 -0.06720996 0.075010665 -0.1004719 -0.08503888 -0.024115328 -0.08522721
-0.0124698365 -0.0746671 0.12499011 0.06183368 0.0076515544 -0.008990164 -0.14321946 0.043685045
-0.027428688 -0.077053346 -0.109461755 0.00034783996 -0.14808841 -0.01652864 0.1518095 -0.15214546
-0.0356654 0.08277569 -0.10486841 -0.12448084 -0.1464586 0.084506094 0.14673518 -0.13825223
0.10824076 0.09893194 -0.15182874 0.032985304 0.0008279915 0.060133588 -0.13785529 -0.13422836
0.0008750668 -0.09193982 -0.07236502 0.12242262 0.018088305 -0.15804668 0.17601256 -0.08481401
0.067482375 -0.085533224 -0.019800166 -0.057320267 0.076041535 0.08782077 0.035643645 -0.12660155
0.04464158 0.081511885 0.07685528 -0.16335854 -0.17661689 0.14734682 0.05372413 0.042313445
-0.15345316 0.15015756 -0.024375388 0.18111333 -0.15652356 -0.025373692 -0.16512977 0.09934958
0.11963598 -0.0073029916 -0.023576345 -0.051892664 -0.14453158 -0.0034816177 -0.13832454 0.013271545
-0.08730668 -0.10668809 0.08324828 0.07382043 0.046363223 -0.044463344 -0.020436298 -0.17214568
-0.13672058 0.12466154 0.091883995 -0.07715099 -0.005064955 0.054565504 0.15410118 -0.10382776
0.0041824025 0.011543412 -0.0103186965 0.0063773207 0.1715775 -0.16712521 -0.03079519 0.12395238
-0.16193907 -0.044525605 0.11811349 0.12097369 -0.050324935 -0.16656429 0.016763592 -0.15661137
00000000: 8744 b2bd 9e90 94bd 51ee cc3d a6f1 0f3d
00000010: 8338 febd 1582 563d 2f02 273e 6cc3 76bd
00000020: 6ba4 0fbe 9221 0e3d dd5c b1bb 13f5 efbd
00000030: 6c4a 19be 787f 853d 94ad b93d c17b 423d
00000040: 6f1c 3b3e 3147 0fbe 9b79 b83d 8190 84bd
00000050: ec5a 443d c111 63bd 7006 33be 58cd d4bd
00000060: 7a89 c3bd 818b 0bbe 697e b03d c772 a73d
00000070: bd8a b53d 1915 d7bc 3aa7 813d 8687 e83c
00000080: 96eb 0ebe 4c48 b9bd 09f6 563d d181 7abd
00000090: a967 43bd 5e33 1e3e 1b39 e33c 6789 e93a
000000a0: d7fc a63a 2db1 93bd 0430 1e3d 4b59 6cbd
000000b0: c553 0ebd aa86 dabc fb80 cb3d 6e4f 2c3e
000000c0: 71ff ccbc 986e 19be 5f6f 09bd 53b5 bebd
000000d0: 4eb8 863d 4bb1 fcbc 5c4d 05be 4164 9cbc
000000e0: 45d7 a43d bad7 f23c 33dc 00be 73a3 ccbd
000000f0: e5a2 c63c 5120 cdbd b159 2d3e 9ba2 e53d
00000100: a0a3 e23d d6ed b8bd d36a 273e 88e8 c63c
00000110: 05f7 c53d 3c4b 233e 3c40 b8bd c0b5 923d
00000120: acbd a93d 68ae 64bb e62d 7d3c d537 a5bd
00000130: 53bf 133e b0a4 e83c 5a52 173e aed3 0abe
00000140: 2bbd 38bc fa81 28be f5ee 08bd 2042 89bc
00000150: c88d 90bd 6148 9abd ac09 1cbe 6dc5 ad3d
00000160: 9050 ccbd d503 3a3d 3598 243e 753c 7fbd
00000170: 4c3e 553d f01e 573d 5232 19be c9d5 56bc
00000180: 7ec2 fb3d 59c9 5bbc 42ce ef3d 209d 983d
00000190: 034c 233b d880 27be 13b6 963d 9239 a23d
000001a0: 58c4 32be f6da 243e 5026 cdbc 2ca4 e1bd
000001b0: 6315 c33d df4c f93c c0ad 1dbe 6b68 453d
000001c0: e0c5 b9bd 5c7e f3bd 5973 923d 7e32 17be
000001d0: c90e 0ebd b954 0f3e 0f81 80bc 7efa e23c
000001e0: 84f6 2bbe 0beb 4e3c 8063 20be 0c97 c33d
000001f0: 146c 133e d1c6 753d ff16 1c3d 7cac 5cbd
00000200: d733 0a3e ad9f 2dbe 96dd 3dbd 470c 5ebd
00000210: b957 b3bc 9def 23be cac0 7ebd 16dd 63bd
00000220: 143a c0bd 63ee d0bc dfe3 4e3d 05c9 033e
00000230: 3165 973b a015 013e 23bc 81bb a040 ce3d
00000240: 9143 1a3d ba61 0a3e 60a5 89bd 319f 993d
00000250: 36c4 cdbd dd28 aebd 828d c5bc 9a8b aebd
00000260: 494e 4cbc 11eb 98bd d1fa ff3d 5045 7d3d
00000270: e4b9 fa3b 7b4b 13bc 1fa8 12be 17ef 323d
00000280: 21b2 e0bc 25ce 9dbd 7c2d e0bd 4a5e b639
00000290: 7da4 17be 1267 87bc f373 1b3e 05cc 1bbe
000002a0: e215 12bd 4d86 a93d 40c5 d6bd d0ef febd
000002b0: 3ef9 15be 8811 ad3d bf41 163e fe91 0dbe
000002c0: 55ad dd3d d49c ca3d fe78 1bbe 991b 073d
000002d0: 920d 593a a34e 763d f029 0dbe 2973 09be
000002e0: bd64 653a f24a bcbd 1d34 94bd b6b8 fa3d
000002f0: ed2d 943c fdd6 21be a33c 343e f8b2 adbd
00000300: 3334 8a3d 0b2c afbd f533 a2bc a8c8 6abd
00000310: aabb 9b3d 60db b33d 12ff 113d d6a3 01be
00000320: 17da 363d b4ef a63d 4d66 9d3d 7647 27be
00000330: 0fdb 34be 16e2 163e d50d 5c3d dd50 2d3d
00000340: d322 1dbe e7c2 193e e5ae c7bc c675 393e
00000350: b647 20be 7ddc cfbc c717 29be cb77 cb3d
00000360: b503 f53d ef4d efbb 2e23 c1bc 678d 54bd
00000370: 1600 14be da2b 64bb f3a4 0dbe e570 593c
00000380: d8cd b2bd 497f dabd 137e aa3d 2a2f 973d
00000390: 5de7 3d3d 321f 36bd 066a a7bc f546 30be
000003a0: 7b00 0cbe 8d4e ff3d ad2d bc3d 5701 9ebd
000003b0: ecf7 a5bb 1480 5f3d b3cc 1d3e a6a3 d4bd
000003c0: 890c 893b 9420 3d3c c00f 29bc d8f8 d03b
000003d0: 03b2 2f3e df22 2bbe 3246 fcbc bfda fd3d
000003e0: 5bd3 25be 7b60 36bd 7ce5 f13d 0ec1 f73d
000003f0: 8521 4ebd d48f 2abe cd53 893c bb5e 20be

actor_critic.critic.model.0.linear.bias f4 [512]
0.023244845 0.018045053 0.023048138 0.0063767596 -0.016814338 0.020920735 0.021474687 0.020562531
0.020064104 0.022046063 0.013624136 0.019928262 -0.017275957 0.022333585 -0.014944781 0.020086491
-0.016041195 -0.020003945 -0.021720309 -0.01891974 0.014960683 0.019894913 0.019356184 0.015352554
-0.011203462 -0.017043663 -0.01188289 0.019209683 -0.021461112 0.02056357 0.011496162 0.020648142
-0.011388547 -0.017163638 0.020725962 -0.014050126 -0.017033443 0.017818032 -0.015571545 -0.016239863
0.020333061 -0.017175283 -0.016923612 0.021428794 0.020139009 0.02034252 0.021424914 0.020854382
0.02465676 -0.017017903 -0.024127882 0.0084224045 0.019799909 -0.009909476 0.020064475 -0.01711188
0.020202728 0.020000556 -0.020458229 0.022548612 0.022675795 -0.017419001 -0.02046984 -0.016307414
0.020514453 -0.017119557 0.019270027 0.00809196 0.02331639 -0.014634201 0.019729486 0.02341125
-0.018392563 0.020471398 0.020863589 0.019969126 0.01735179 0.023152113 0.019950185 0.021297377
-0.01716015 -0.014477535 -0.01945063 0.021906018 -0.015518693 0.02046564 0.020001454 -0.0057442235
-0.02005768 0.021512916 0.024364715 -0.017266082 -0.020032298 0.020319443 0.022844039 -0.017194755
0.019671392 0.020118214 0.019756451 -0.004637946 0.022118412 0.025042215 0.01950538 0.021830468
0.020336919 -0.00950892 0.021329075 -0.014092835 0.0131867835 0.020308353 -0.020525757 0.021291303
0.021417135 0.018219702 0.020128032 0.02040157 0.02161321 -0.01888649 -0.01727364 -0.01541348
0.019604418 0.020247074 0.02230799 0.020263238 -0.023709726 -0.011573913 0.022288138 -0.0144179575
-0.017213857 0.019103643 0.008954154 -0.016575227 -0.015835227 0.020639574 -0.017286126 0.020620389
-0.016378636 0.019935142 -0.01996388 -0.0064352127 -0.019502543 -0.017244516 0.019942993 0.01823699
0.019805908 0.021035988 0.02099523 -0.020547507 -0.016636638 -0.013353404 0.020205095 -0.017716683
0.022309419 -0.012396268 0.01996036 0.022272991 0.02200085 0.022273075 0.022891046 -0.017251058
0.019816717 0.019818932 -0.017982287 0.022299603 -0.017001929 -0.016261213 -0.017779568 0.021686569
-0.015061435 -0.02320864 0.008428427 -0.0196884 0.021729274 -0.01723668 0.01036001 0.019753065
0.022816148 -0.0046844906 0.024745708 0.020449564 -0.022750536 -0.016764004 0.019837383 -0.013409308
0.022930803 0.022461584 0.01753661 0.02024886 0.020723164 -0.016583823 0.01996979 0.02038603
-0.017886667 0.020002238 0.020609707 -0.017126651 0.024395177 -0.014689515 -0.017247751 0.020569103
0.012488531 -0.0011831685 0.02446107 0.020552604 0.020517271 -0.018652078 -0.017683372 0.021889815
0.020489717 -0.019824218 0.016130501 -0.014877425 0.02162456 -0.016426452 -0.015769515 -0.009235792
-0.017518079 -0.014461484 -0.013446164 0.009187494 -0.016668508 -0.017158736 -0.02080022 -0.014980936
-0.0049147406 -0.013905943 -0.015653284 -0.02344216 -0.015715068 0.020945022 0.020261439 -0.016953778
-0.0069176634 -0.011744772 0.023065945 0.022410547 -0.01184526 -0.003100424 0.01988956 -0.01715428
-0.0089569 -0.017097998 -0.0140478825 0.020546535 0.02348096 0.0145879695 -0.0041946047 0.021278584
0.02041114 0.021227725 0.020189304 -0.017208125 -0.018344412 0.006894588 0.020021906 0.021379786
00000000: f96b be3c 38d3 933c 73cf bc3c 23f4 d03b
00000010: 39be 89bc f661 ab3c afeb af3c c172 a83c
00000020: 7a5d a43c f299 b43c c537 5f3c 9840 a33c
00000030: 4f86 8dbc ecf4 b63c f4da 74bc 6d8c a43c
00000040: d368 83bc 50df a3bc caee b1bc 92fd 9abc
00000050: a71d 753c a8fa a23c dc90 9e3c 4789 7b3c
00000060: ba8e 37bc 279f 8bbc 74b0 42bc a05d 9d3c
00000070: 37cf afbc ef74 a83c 665a 3c3c 4b26 a93c
00000080: 0797 3abc c29a 8cbc 7ec9 a93c 8032 66bc
00000090: b889 8bbc 1ff7 913c cb1f 7fbc 7609 85bc
000000a0: 8591 a63c 2eb3 8cbc 63a3 8abc 708b af3c
000000b0: 90fa a43c 5ba5 a63c 4d83 af3c cfd6 aa3c
000000c0: f9fc c93c 2169 8bbc d6a7 c5bc 20fe 093c
000000d0: 6b33 a23c 5b5b 22bc 415e a43c 372e 8cbc
000000e0: 3180 a53c 35d8 a33c 0498 a7bc deb7 b83c
000000f0: 97c2 b93c 4bb2 8ebc 5eb0 a7bc 2097 85bc
00000100: ed0d a83c 503e 8cbc 2ddc 9d3c 2494 043c
00000110: 0402 bf3c 4ac4 6fbc bb9f a13c f3c8 bf3c
00000120: 00ac 96bc a2b3 a73c 1eea aa3c 4b96 a33c
00000130: 5725 8e3c 80a9 bd3c 926e a33c d677 ae3c
00000140: 7193 8cbc 2f33 6dbc ed56 9fbc 4074 b33c
00000150: 1e42 7ebc 8fa7 a73c 17da a33c 0a3a bcbb
00000160: 0150 a4bc db3b b03c 8398 c73c 9971 8dbc
00000170: c61a a4bc f674 a63c 6c23 bb3c 04dc 8cbc
00000180: e625 a13c f4ce a43c 48d8 a13c e9f9 97bb
00000190: ac31 b53c 5525 cd3c bfc9 9f3c cfd5 b23c
000001a0: 9c99 a63c 4dcb 1bbc 50ba ae3c a2e5 66bc
000001b0: 610d 583c b45d a63c a225 a8bc 196b ae3c
000001c0: fd72 af3c 7c41 953c 8be3 a43c 3121 a73c
000001d0: 300e b13c d7b7 9abc 7381 8dbc d288 7cbc
000001e0: 7299 a03c 31dd a53c 3fbf b63c 17ff a53c
000001f0: e63a c2bc 82a0 3dbc 9d95 b63c 4c39 6cbc
00000200: 1304 8dbc 3e7f 9c3c 72b4 123c c5c8 87bc
00000210: e1b8 81bc 5314 a93c a29b 8dbc 17ec a83c
00000220: 7d2c 86bc 064f a33c 4a8b a3bc 7ade d2bb
00000230: ccc3 9fbc 5f44 8dbc 7d5f a33c bd65 953c
00000240: 0040 a23c aa53 ac3c 30fe ab3c 3f53 a8bc
00000250: 8f49 88bc 3cc8 5abc 2885 a53c 9422 91bc
00000260: 3ec2 b63c b719 4bbc e983 a33c d975 b63c
00000270: 203b b43c 0676 b63c 0186 bb3c 1752 8dbc
00000280: ab56 a23c 505b a23c 974f 93bc a8ad b63c
00000290: a147 8bbc 3c36 85bc 75a6 91bc 08a8 b13c
000002a0: 3dc4 76bc 0c20 bebc 6317 0a3c 9149 a1bc
000002b0: 9701 b23c f033 8dbc 08bd 293c 2ed1 a13c
000002c0: eee8 ba3c 5b80 99bb 83b7 ca3c d885 a73c
000002d0: 555f babc aa54 89bc 0282 a23c b7b2 5bbc
000002e0: 61d9 bb3c 5b01 b83c f0a8 8f3c f0e0 a53c
000002f0: a0c3 a93c ccda 87bc af97 a33c 9b00 a73c
00000300: 0f87 92bc bcdb a33c b0d5 a83c 314d 8cbc
00000310: 65d8 c73c 4bac 70bc 284b 8dbc 8980 a83c
00000320: b29c 4c3c 8c14 9bba 9562 c83c ef5d a83c
00000330: d613 a83c 3ecc 98bc b8dc 90bc 4552 b33c
00000340: 0dda a73c 6666 a2bc 1d24 843c 71c0 73bc
00000350: fd25 b13c c490 86bc 122f 81bc b851 17bc
00000360: 1382 8fbc dcef 6cbc 4d4d 5cbc 2587 163c
00000370: 658c 88bc 7a90 8cbc 3965 aabc 9a72 75bc
00000380: d50b a1bb c1d5 63bc 513b 80bc c609 c0bc
00000390: e3bc 80bc e594 ab3c 51fb a53c a6e2 8abc
000003a0: 91ad e2bb 256d 40bc cbf4 bc3c 5396 b73c
000003b0: 9f12 42bc 7c30 4bbb 6eef a23c 2287 8cbc
000003c0: f6bf 12bc 1a11 8cbc 1729 66bc 3551 a83c
000003d0: 245b c03c 6102 6f3c e572 89bb 6d50 ae3c
000003e0: 4335 a73c c4e5 ad3c 0a64 a53c 0ef8 8cbc
000003f0: 0547 96bc ffeb e13b fb04 a43c a924 af3c

actor_critic.critic.model.1.linear.weight f4 [1, 512]
0.018319372 0.014208082 0.02107719 0.00978951 -0.023552155 0.016646622 0.033062547 0.053233985
0.027739005 0.031033164 0.013235472 0.051555358 -0.01966297 0.017980872 -0.00522761 0.04088825
-0.012014481 -0.043285836 -0.020249885 -0.036972202 0.0147127 0.051178485 0.013572415 0.0136587145
-0.012916167 -0.024352234 0.0011059288 0.045742325 -0.032514747 0.046733662 0.013191809 0.037138335
0.0021326675 -0.02367994 0.050369184 -0.0023314494 -0.021254243 0.015432274 -0.0074570244 -0.011209582
0.055285346 -0.022553196 -0.020795874 0.038285013 0.04363535 0.041588694 0.037287544 0.051489342
0.019520443 -0.024423193 -0.02627432 0.012681015 0.05979578 0.0038366877 0.05366994 -0.019891901
0.057870455 0.05330027 -0.045883495 0.024142178 0.029285695 -0.021411879 -0.046402678 -0.013408843
0.040725302 -0.017541371 0.012334012 0.013316185 0.022979481 -0.0036139446 0.06272895 0.017496474
-0.03239104 0.03940452 0.016811753 0.032094188 0.014953525 0.027083341 0.018969921 0.031523388
-0.018804286 -0.005649342 -0.051553838 0.031883363 -0.00678558 0.04695052 0.047105614 0.006126647
-0.04584405 0.034043685 0.02219028 -0.020381754 -0.06099697 0.04364136 0.024703173 -0.017762527
0.04492309 0.060227208 0.051498152 0.006852612 0.026866406 0.021488387 0.045260977 0.02995454
0.057638492 0.0027041975 0.038647853 -0.001894056 0.00072598894 0.05103484 -0.03818196 0.03262189
0.029701985 0.016397515 0.046637077 0.06256833 0.03402271 -0.02337771 -0.028140362 -0.007523894
0.045334443 0.022967746 0.027976083 0.059707668 -0.02516005 0.0015885072 0.02623534 -0.0034808235
-0.022241661 0.03804807 0.0136998715 -0.014527761 -0.009772075 0.037630383 -0.025198039 0.046481833
-0.0130681 0.061363354 -0.010347692 0.005056246 -0.016266197 -0.025708064 0.05784958 0.0147876935
0.060234282 0.03594591 0.03622285 -0.041607607 -0.014367544 2.1915084e-05 0.05610546 -0.025901452
0.025490873 0.0012340494 0.054669917 0.030053806 0.029516002 0.021499243 0.028030835 -0.024997089
0.056967024 0.060485177 -0.01971603 0.013897287 -0.021367861 -0.012122734 -0.027704416 0.034310408
-0.005652361 -0.02231456 0.014057396 -0.056069274 0.021768976 -0.017371152 0.012813275 0.056380842
0.025165768 0.0049494877 0.020879561 0.053705975 -0.024675151 -0.016877692 0.060629558 -0.0016508452
0.017686907 0.025788393 0.016948186 0.043856826 0.042781822 -0.015175458 0.050951026 0.060784467
-0.034412913 0.03767336 0.041130126 -0.021308906 0.02266672 -0.004796473 -0.023551617 0.058429033
-0.0010928636 0.006205602 0.02180509 0.0129938675 0.04422483 -0.022842428 -0.02912533 0.03413392
0.039406974 -0.05367658 0.011126357 -0.005304962 0.03661011 -0.014172992 -0.007756859 0.0039584264
-0.017481685 -0.0019160006 -0.0008068109 0.011492329 -0.015159525 -0.021857709 -0.015980108 -0.0049166526
0.0068078395 -0.002163136 -0.006626819 -0.024442174 -0.008203377 0.042037662 0.04272551 -0.01925452
0.004577564 0.00028526227 0.017795315 0.021327 0.00027824508 0.0071497927 0.021086575 -0.0246305
0.004094718 -0.019183151 -0.0022970214 0.043218687 0.018760111 0.014693723 0.0064672716 0.029530773
0.05064097 0.03288081 0.04993788 -0.02290013 -0.028653845 0.010143446 0.051929373 0.03069366
00000000: 8212 963c 04c9 683c 12aa ac3c 2e64 203c
00000010: 73f0 c0bc 7f5e 883c 986c 073d e10b 5a3d
00000020: e93c e33c 4339 fe3c 98d9 583c b62b 533d
00000030: 3d14 a1bc 9f4c 933c 5f4c abbb 707a 273d
00000040: 63d8 44bc 7d4c 31bd 16e3 a5bc 2a70 17bd
00000050: 890d 713c 88a0 513d d65e 5e3c cdc8 5f3c
00000060: 559e 53bc 567e c7bc d0f4 903a 4e5c 3b3d
00000070: 2f2e 05bd cc6b 3f3d 7522 583c 5e1e 183d
00000080: 39c4 0b3b 6ffc c1bc eb4f 4e3d 3bcb 18bb
00000090: 611d aebc a6d7 7c3c 0e5a f4bb 65a8 37bc
000000a0: e372 623d 7bc1 b8bc 1c5c aabc bfd0 1c3d
000000b0: fbba 323d e858 2a3d d3ba 183d 7de6 523d
000000c0: 56e9 9f3c 2613 c8bc 3e3d d7bc 08c4 4f3c
000000d0: 6bec 743d f070 7b3b 03d5 5b3d 57f4 a2bc
000000e0: 9209 6d3d 6251 5a3d 55f0 3bbd d1c5 c53c
000000f0: 8ee8 ef3c f767 afbc bc10 3ebd c4b0 5bbc
00000100: 93cf 263d ecb2 8fbc 9914 4a3c 212c 5a3c
00000110: 773f bc3c eed7 6cbb 0978 803d c454 8f3c
00000120: 78ac 04bd a266 213d cdb8 893c 3275 033d
00000130: a1ff 743c e2dd dd3c cf66 9b3c ab1e 013d
00000140: 720b 9abc 1e1e b9bb 1e2a 53bd 2198 023d
00000150: 9259 debb 304f 403d d1f1 403d 0ac2 c83b
00000160: f8c6 3bbd 6471 0b3d 64c8 b53c a3f7 a6bc
00000170: f5d7 79bd 48c1 323d 4f5e ca3c b882 91bc
00000180: 4601 383d ceb0 763d baef 523d e08b e03b
00000190: f016 dc3c 6a08 b03c 9363 393d 3963 f53c
000001a0: 5716 6c3d e838 313b 364d 1e3d f941 f8ba
000001b0: 4b50 3e3a e909 513d b064 1cbd 889e 053d
000001c0: 9451 f33c 1554 863c 8506 3f3d d323 803d
000001d0: 665b 0b3d 9c82 bfbc 9e86 e6bc ff8a f6bb
000001e0: 9cb0 393d db26 bc3c 192e e53c 0790 743d
000001f0: 731c cebc 7535 d03a 7feb d63c 871e 64bb
00000200: 2534 b6bc 4bd8 1b3d 6d75 603c d905 6ebc
00000210: 0e1b 20bc 5122 1a3d 1e6c cebc bc63 3e3d
00000220: 961b 56bc 2458 7b3d 5e89 29bc deae a53b
00000230: b040 85bc b899 d2bc aef3 6c3d 1548 723c
00000240: 39b8 763d 053c 133d 695e 143d bd6c 2abd
00000250: d965 6bbc 49d6 b737 d7ce 653d 482f d4bc
00000260: 3cd2 d03c d4bf a13a 90ed 5f3d 6633 f63c
00000270: 8bcb f13c 2e1f b03c eca0 e53c b2c6 ccbc
00000280: 4156 693d 4ebf 773d 8383 a1bc 72b1 633c
00000290: a70b afbc 6f9e 46bc 5ff4 e2bc 1289 0c3d
000002a0: 7137 b9bb 06cd b6bc fe50 663c e5a8 65bd
000002b0: da54 b23c f24d 8ebc c5ee 513c 99ef 663d
000002c0: 7128 ce3c 502f a23b 9d0b ab3c ccfa 5b3d
000002d0: 8b23 cabc 1643 8abc b356 783d 2c61 d8ba
000002e0: 22e4 903c 2e42 d33c ecd6 8a3c 37a3 333d
000002f0: fe3b 2f3d 7ca2 78bc 06b2 503d 22f9 783d
00000300: 8ef4 0cbd 624f 1a3d 1078 283d 0490 aebc
00000310: 8faf b93c bb2b 9dbb 52ef c0bc 4853 6f3d
00000320: 6b3e 8fba 5d58 cb3b 97a0 b23c 3be4 543c
00000330: 1825 353d 0b20 bbbc 3e98 eebc 02d0 0b3d
00000340: 3569 213d f9db 5bbd 534b 363c 3fd5 adbb
00000350: 7cf4 153d d635 68bc 402d febb b0b5 813b
00000360: c035 8fbc 5022 fbba 2a80 53ba 524a 3c3c
00000370: a85f 78bc f00e b3bc b7e8 82bc df1b a1bb
00000380: 4c14 df3b 66c3 0dbb c925 d9bb f43a c8bc
00000390: 7567 06bc af2f 2c3d f200 2f3d a8bb 9dbc
000003a0: 64ff 953b 418f 9539 7bc7 913c f6b5 ae3c
000003b0: 6ce1 9139 cf48 ea3b c1bd ac3c e7c5 c9bc
000003c0: fc2c 863b fc25 9dbc a089 16bb 1406 313d
000003d0: ceae 993c f1bd 703c 68eb d33b 85ea f13c
000003e0: e86c 4f3d 07ae 063d aa8b 4c3d 0e99 bbbc
000003f0: 78bb eabc b230 263c e5b3 543d 4571 fb3c
