RL_Project/checkpoints/model_working.pt (torch, 185631 bytes, 8 tensors)

actor_critic.std f4 [12]
0	0x3ed7cfb9	0.42150667
1	0x3e8453c8	0.2584517
2	0x3f088888	0.5333333
3	0x3ed48560	0.41508007
4	0x3ead7406	0.3387758
5	0x3f084da5	0.53243476
6	0x3f1aecb7	0.6051745
7	0x3f0a4187	0.54006237
8	0x3f0fbcca	0.56147444
9	0x3ef38441	0.4756184
10	0x3f175c40	0.5912514
11	0x3f2cf4b4	0.6756089

actor_critic.actor.model.0.linear.weight f4 [512, 37]
0	0x3d557544	0.052113786
1	0xbe156752	-0.14590195
2	0x3da6aff8	0.08139032
3	0x3d67ccd9	0.056591842
4	0xbd195712	-0.037436552
5	0x3dbc45d7	0.091930084
6	0x3d5f89bc	0.054574713
7	0x3e26bdd5	0.16283353
8	0x3d8eb3eb	0.069679104
9	0x3dd95b33	0.10613098
10	0xbcf1cdd3	-0.02951709
11	0xbe2da8da	-0.16958943
12	0x3dcd5cb4	0.10027447
13	0xbdba645a	-0.09101172
14	0x3b472418	0.0030386504
15	0x3e2f778f	0.17135452
16	0xbe1e91e3	-0.15485339
17	0xbd45085a	-0.048103668
18	0xbd902b6e	-0.070395336
19	0xbe18ec1a	-0.14933816
20	0xbd31f98b	-0.043450873
21	0xbded68b6	-0.11592238
22	0xbd3f8899	-0.04676113
23	0x3e4573c8	0.19282448
24	0x3dec3cfc	0.11535069
25	0xbdbd6be0	-0.09249091
26	0x3dc78d2c	0.09743723
27	0x3e2d7664	0.16939694
28	0x3dcac7d3	0.09901395
29	0x3d1c5aa2	0.03817237
30	0x3d98d467	0.074623875
31	0xbdd5c754	-0.104384094
32	0x3db8bb96	0.09020154
33	0x3b274f84	0.0025529573
34	0xbd74e719	-0.059790704
35	0x3d69e225	0.057100434
36	0xbc523273	-0.012829411
37	0x3d612de0	0.05497539
38	0x3da29607	0.07938772
39	0x3db2f292	0.08737673
40	0x3ba3e6d2	0.005001881
41	0x3c86e8ef	0.016468493
42	0xbcb75e0e	-0.022383716
43	0xbca05e1e	-0.019576129
44	0x3d934038	0.07189983
45	0xbdb7162d	-0.089397766
46	0x3d81890e	0.06324969
47	0x3e14bd9e	0.14525458
48	0xbe127b6e	-0.14304897
49	0xbcece992	-0.028919969
50	0xbd05425a	-0.03253398
51	0xbd3956e9	-0.0452489
52	0xbe01eedc	-0.12688774
53	0x3daf9522	0.08573367
54	0xbe199f5c	-0.15002197
55	0x3d48c680	0.04901743
56	0xbdb09a7e	-0.08623217
57	0xbd827e19	-0.063717075
58	0x3d980aac	0.074239105
59	0xbe0a063d	-0.13478942
60	0x3cdaa480	0.026689768
61	0x3e126c9c	0.14299244
62	0x3e2bd6ba	0.1678113
63	0xbe1112fd	-0.141674
64	0x3d141165	0.0361494
65	0x3db72acc	0.0894371
66	0x3d062689	0.032751594
67	0xbde193ce	-0.1101452
68	0x3dfa9e75	0.122372545
69	0x3c285fba	0.010276729
70	0x3d6c8f4c	0.057753846
71	0x3e15b4ab	0.146197
72	0xbe0eeaf9	-0.13956822
73	0x3dab4b2c	0.08363947
74	0xbe1b141d	-0.15144391
75	0x3d9a68b3	0.07539501
76	0xbdf7c217	-0.120975666
77	0x3d422eef	0.04740804
78	0xbc8da12e	-0.01728877
79	0x3e3de135	0.18542941
80	0x3d15061e	0.036382787
81	0x3dd078f5	0.10179321
82	0xbe3fd9df	-0.18735455
83	0x3d663475	0.05620237
84	0x3e2f0236	0.17090687
85	0xbe077d7d	-0.13231464
86	0xbd8311e4	-0.06399897
87	0x3d2e82d8	0.04260525
88	0xbe2dcb86	-0.1697217
89	0xbcfbd7a4	-0.030742474
90	0x3dd18a8c	0.10231504
91	0x3dc8a412	0.09796919
92	0x3dd047da	0.101699546
93	0xbac1ff09	-0.0014800738
94	0x3df9dd07	0.12200361
95	0xbd3303c1	-0.043704752
96	0xbcb3ef39	-0.021964656
97	0x3dfd7734	0.12376252
98	0x3e185f0c	0.14880008
99	0xbbb6549f	-0.005564287
100	0xbdbc9357	-0.0920779
101	0xbcc57e8e	-0.024108198
102	0xbe14c4a7	-0.14528142
103	0xbde1ff7c	-0.11035058
104	0x3d06305a	0.032760955
105	0xbe226b53	-0.15861253
106	0x3b31d015	0.0027132083
107	0xbd6f92b6	-0.058489524
108	0xb95437a2	-0.0002023862
109	0x3d8d07d3	0.06886258
110	0x3db5d064	0.08877638
111	0x3d010987	0.031503227
112	0xbd84de74	-0.06487742
113	0x3db2f327	0.08737784
114	0xbdc6d4a6	-0.09708528
115	0x3d33334b	0.04375009
116	0x3dc8a241	0.097965725
117	0xbe0da557	-0.13832603
118	0xbdbc72d2	-0.09201588
119	0xbe835a41	-0.25654796
120	0xbcd6835c	-0.026185684
121	0x3d4ce250	0.050020516
122	0xbeb7eeb5	-0.35924307
123	0xbdcf744e	-0.10129605
124	0xbd7cc9df	-0.061715957
125	0x3e3568c4	0.17715746
126	0xbd70cc22	-0.058788426
127	0x3e22d1eb	0.1590039
128	0x3dacff2e	0.08447109
129	0x3d0bb2e3	0.034106147
130	0xbd14987f	-0.036278244
131	0xbdd35981	-0.10319806
132	0x3d3a6267	0.045504
133	0xbc15d369	-0.009144642
134	0x3dab70d9	0.08371133
135	0x3d98d183	0.07461836
136	0xbc6f9eb7	-0.014625243
137	0xbdd8e97d	-0.10591409
138	0x3d9604e3	0.07325151
139	0xbdcf8a08	-0.10133749
140	0x3c700df5	0.014651765
141	0xbe219f4b	-0.15783422
142	0xbcd10d39	-0.025519
143	0xbde7220b	-0.1128579
144	0xbe00d9ad	-0.12583037
145	0xbc747184	-0.014919642
146	0x3d9fef4e	0.078093156
147	0xbcbfcdb5	-0.023413518
148	0x3e176e41	0.14788152
149	0x3ce96e4e	0.02849498
150	0xbd87b7dd	-0.06626866
151	0x3d24f968	0.040276915
152	0xbd04f6a1	-0.032461766
153	0x3d417ef4	0.047240213
154	0xbddc616f	-0.107607715
155	0xbe1ac189	-0.1511289
156	0x3d4eeba3	0.05051769
157	0xbe514f8c	-0.20440501
158	0xbcc25303	-0.023721224
159	0xbedcc00e	-0.43115276
160	0x3c46d14c	0.012134861
161	0x3e53a87f	0.20669745
162	0x3e427804	0.18991095
163	0x3dc1cae6	0.09462528
164	0xba4f8d46	-0.0007917475
165	0x3e255e25	0.16149195
166	0xbdd578d4	-0.10423437
167	0x3d96f413	0.07370772
168	0x3d483e4a	0.04888753
169	0xbe3a22e9	-0.1817738
170	0xbbac0079	-0.00524908
171	0x3d8c0298	0.06836432
172	0x3d3845fd	0.04498862
173	0xbd1c8ee0	-0.038222194
174	0x3e0cba65	0.13742979
175	0x3e036438	0.12831199
176	0xbdccf359	-0.100073524
177	0xbd6b6268	-0.057466894
178	0x3ce9076d	0.028445924
179	0xbdaf2970	-0.085528255
180	0x3e060df0	0.13091254
181	0x3dac0a55	0.08400408
182	0xbdb708d3	-0.0893723
183	0x3d016c99	0.031597707
184	0x3cd0c5fe	0.025485035
185	0xbda26da6	-0.0793107
186	0x3da10741	0.07862712
187	0xbd32b77c	-0.043632016
188	0xbcab3b1d	-0.02090221
189	0x3dfca7c5	0.12336687
190	0xbe04bc16	-0.12962374
191	0xbb7a496e	-0.003819074
192	0xbe1fb98b	-0.15598123
193	0xbd27d088	-0.040970355
194	0xbe6959bb	-0.22788136
195	0x3e636967	0.22208177
196	0xbe4e66dd	-0.20156427
197	0xbc741839	-0.014898353
198	0xbd5a95a9	-0.053365383
199	0x3b9c7c31	0.004775547
200	0xbe359d14	-0.17735702
201	0xbd1e9bad	-0.038722683
202	0x3dc3fdf7	0.09569924
203	0x3dd7500f	0.10513317
204	0xbc5aaca9	-0.013346829
205	0xbc3cc701	-0.011522056
206	0x3da391db	0.07986804
207	0x3d802989	0.06257922
208	0x3d90ffdb	0.070800506
209	0x3deda3a9	0.11603481
210	0x3e2d060d	0.1689684
211	0xbe0d3617	-0.13790165
212	0x3d47d5c4	0.048787847
213	0x3dab8c3a	0.083763555
214	0xbdf757c1	-0.120772846
215	0x3dadb622	0.08482005
216	0x3dea58cd	0.11442719
217	0x3db943a9	0.09046108
218	0xbd5eee2c	-0.054426357
219	0xbe0fe863	-0.14053492
220	0x3e1a971e	0.15096709
221	0x3d2e2ebb	0.042525034
222	0x3ccf01c3	0.025269395
223	0xbc52c5d3	-0.012864548
224	0xbd8584d6	-0.06519477
225	0x3c6f517e	0.014606832
226	0x3cd5af98	0.026084706
227	0x3d6f1cb3	0.05837698
228	0xbba5b618	-0.0050571077
229	0x3e12de26	0.14342555
230	0x3e88d4cb	0.26724848
231	0xbda2d852	-0.07951416
232	0xbe2942e6	-0.16529426
233	0x3c89207a	0.016739119
234	0x3e391aa6	0.18076572
235	0x3d416cd7	0.04722294
236	0x3dc8a577	0.09797185
237	0xbcaad2fa	-0.020852555
238	0xbe1217a1	-0.14266826
239	0xbe153312	-0.14570263
240	0x3dae2adf	0.08504271
241	0xbdb55e31	-0.08855856
242	0xbb12d4ad	-0.0022404597
243	0xbda27d8b	-0.07934102
244	0x3e4116e3	0.18856387
245	0x3d830fa8	0.063994706
246	0x3d5283c5	0.051395196
247	0x3de6deda	0.11272974
248	0xbd5e41e0	-0.054262042
249	0x3d51ca10	0.051218092
250	0xbdad476b	-0.084608875
251	0xbdcac56f	-0.09900939
252	0xbdb3e74c	-0.08784351
253	0x3aa866a1	0.0012847969
254	0xbd55dd3e	-0.052212946
255	0xbd110dcc	-0.03541355

actor_critic.actor.model.0.linear.bias f4 [512]
0	0xbd3968ee	-0.045266084
1	0xbba6dfa2	-0.005092577
2	0xbc72903d	-0.014804897
3	0x3c887921	0.016659321
4	0x3d186006	0.03720095
5	0x3d586e45	0.052839536
6	0xbce56310	-0.028001338
7	0x3d7da83a	0.06192801
8	0x3c0db99b	0.008650209
9	0xbcd1648c	-0.02556064
10	0x3cc1db6f	0.023664204
11	0x3c8a3c0e	0.01687434
12	0xbc4b15b7	-0.012395314
13	0xbc868a05	-0.016423235
14	0x3c99a829	0.018756943
15	0x3d571813	0.052513193
16	0x3acb0e88	0.0015492002
17	0xbd06e895	-0.03293665
18	0xbb8c453e	-0.0042807152
19	0x3c81121c	0.015755706
20	0x3cf5ccfe	0.030004974
21	0x3d374b99	0.04474983
22	0x3d7d8d53	0.061902355
23	0x3d0d3c2e	0.03448122
24	0xbd09eca7	-0.033672955
25	0xbce123e7	-0.02748294
26	0x3c9e2aa5	0.019307444
27	0x3ab2819b	0.0013618948
28	0xbaa9f03f	-0.0012965276
29	0x3c98fbcc	0.018674754
30	0x3c0c9aea	0.008581856
31	0xbd0eaf0d	-0.03483491
32	0xbcdff6d6	-0.02733938
33	0x3d534f35	0.05158921
34	0x3c929102	0.01789141
35	0x3cc827bf	0.024433015
36	0x3ccbe541	0.02488959
37	0xbbb9f048	-0.0056743957
38	0xbc932e3f	-0.017966388
39	0x3cb92957	0.02260272
40	0xbcc2cdfc	-0.023779862
41	0x3a57fef7	0.0008239592
42	0x3be8f2d0	0.0071090236
43	0x3d4939fd	0.049127568
44	0xbb877128	-0.0041333623
45	0x3d399259	0.045305584
46	0x3c631724	0.013860498
47	0xb9ae5746	-0.0003325289
48	0x3ab2cdd3	0.0013641663
49	0x3c0ca0b9	0.008583241
50	0x3bfaaf8a	0.0076503204
51	0xbc025564	-0.007954929
52	0xbc208974	-0.009798396
53	0x3ccbcc58	0.024877712
54	0xbc2b2f59	-0.0104483
55	0x3d3686a9	0.044562016
56	0xb8cd79b4	-9.797831e-05
57	0x3c0eb20e	0.008709444
58	0x3c2ad31c	0.010426309
59	0x3d7899ec	0.060693666
60	0x3ccf73e3	0.025323814
61	0x3c04265b	0.008065785
62	0xbc5c4ae8	-0.013445593
63	0x3b67be3f	0.0035361198
64	0x3d8bb3cd	0.06821404
65	0x3ab124db	0.0013515012
66	0xbc8d6fa4	-0.017265148
67	0xbc15a748	-0.009134121
68	0xbc3ae84e	-0.011407925
69	0x3cd786d4	0.026309408
70	0x3c592e95	0.013255735
71	0x3c29e967	0.010370589
72	0x3b625d15	0.0034540344
73	0x3c232350	0.00995715
74	0xbc0810bf	-0.008304774
75	0x3cf9202c	0.030410849
76	0x3cd320c2	0.025772456
77	0xbc841980	-0.01612544
78	0x3c58f7b0	0.013242647
79	0x3c8c1b51	0.01710287
80	0xbd949bbe	-0.07256268
81	0xbc21fa24	-0.009886298
82	0x3d026e95	0.03184374
83	0xba08efe0	-0.00052237324
84	0xbc21ce69	-0.009875872
85	0x3c373a6b	0.0111833615
86	0x3ca38f29	0.019965725
87	0x3b0a9dc5	0.0021151167
88	0x3c447798	0.011991404
89	0x3bbe128d	0.0058005513
90	0x3d3bea00	0.045877457
91	0x3b1e22e1	0.0024129676
92	0x3ca49a61	0.020093145
93	0x3cc3731c	0.0238586
94	0xbcbf27e7	-0.023334457
95	0xbcd44f18	-0.025916621
96	0xbb42994d	-0.0029693425
97	0x3dcad862	0.09904553
98	0xbc2e1c86	-0.010626918
99	0x3d106ad2	0.03525812
100	0x3cb53b52	0.022123013
101	0x3b9a9acb	0.00471816
102	0x3c85b94d	0.01632371
103	0x3d11eb28	0.035624653
104	0x3c05b1e4	0.008160088
105	0x3c872116	0.016495269
106	0x3d507d1c	0.050900564
107	0x3d367425	0.044544358
108	0x3c2f7a3f	0.010710298
109	0x3c00d8fd	0.007864234
110	0x3b900e33	0.004396224
111	0x3b4b1ab0	0.0030991249
112	0x3c2a5df9	0.010398381
113	0x3d3d2451	0.046177212
114	0xbc032f2a	-0.00800685
115	0x3cdfb265	0.027306745
116	0xbc6baf45	-0.014385049
117	0xbc596bdc	-0.013270345
118	0x3cf7da4f	0.030255465
119	0x3b974c7e	0.004617273
120	0x3c89283b	0.016742816
121	0x3c801100	0.015633106
122	0xbca89073	-0.020576691
123	0x3ace7048	0.0015750015
124	0x3d7ea9f7	0.06217381
125	0xbd11b9da	-0.035577632
126	0x3a9d9869	0.0012023571
127	0xbd04b586	-0.032399677
128	0x3d0c7e14	0.034299925
129	0x3c113138	0.008861832
130	0x3ce15942	0.027508382
131	0xbc078e57	-0.008273683
132	0x3bdebeea	0.006797661
133	0xba0e81a3	-0.00054361875
134	0x3cf720f7	0.030167086
135	0x3bfa69e5	0.007642018
136	0x3d5ed507	0.054402377
137	0xbd7a12eb	-0.061053198
138	0xbbb40944	-0.0054942686
139	0x3c8ba558	0.017046615
140	0x3d779856	0.060448013
141	0xb9fdfd1b	-0.000484445
142	0x3d9c3ca0	0.07628751
143	0x3cea59e4	0.028607316
144	0x3c60415b	0.013687457
145	0xbc09cda5	-0.008410846
146	0xbcf873d2	-0.030328665
147	0x3d082d15	0.03324612
148	0xbbce5f39	-0.0062979725
149	0xbc35305c	-0.011058893
150	0x3ce190d1	0.027534874
151	0x3b92011e	0.0044556996
152	0x3d857195	0.06515805
153	0xbc391c98	-0.011298321
154	0x3d37b537	0.044850554
155	0xbbe70acc	-0.0070508476
156	0x3d0f1802	0.034935005
157	0x3c743d8b	0.014907251
158	0x3c7fec93	0.0156203685
159	0x3c262be1	0.0101422975
160	0xbc8c5190	-0.017128736
161	0xbc830ede	-0.0159983
162	0xbc430397	-0.011902711
163	0xbccfb93f	-0.025356887
164	0x3cce8ed9	0.0252146
165	0x3b6cfc49	0.0036161116
166	0x3c1a6b72	0.009425031
167	0x3d3aad1b	0.045575242
168	0xbc1d1529	-0.0095875645
169	0xbd2c053a	-0.041997172
170	0x3a7e5f9e	0.0009703579
171	0x3cbb8ba9	0.022893744
172	0x3c4e0ce5	0.0125763165
173	0x3d29d062	0.041458495
174	0x3c92c32f	0.017915336
175	0xbcbcf009	-0.023063676
176	0x3cf01588	0.029307142
177	0x3bfb3f0e	0.007667429
178	0x3cc3cd96	0.023901742
179	0x3d07ca8e	0.033152156
180	0x3bc1550a	0.00590003
181	0x3cf68683	0.030093437
182	0x3c081800	0.008306503
183	0xbd178524	-0.036992207
184	0x3c9485af	0.018130152
185	0x3cd08422	0.02545363
186	0xbb10a7a4	-0.0022072578
187	0x3d1421fd	0.036165226
188	0x3be08b1b	0.00685252
189	0xbc6a09d0	-0.014284566
190	0xbb4317e8	-0.0029768888
191	0xba90a7c4	-0.0011036326
192	0xbc96a381	-0.018388512
193	0x3b8632d0	0.004095413
194	0xbcb2091b	-0.021732857
195	0x3cbdc19d	0.023163611
196	0xba220a50	-0.0006181346
197	0xb874b571	-5.8343114e-05
198	0x3cb88e1a	0.022528697
199	0x3bf372b7	0.0074294466
200	0x3ca4423f	0.02005112
201	0x3c31c528	0.010850228
202	0xbbc640d2	-0.0060502077
203	0x3d4b63cd	0.049655724
204	0x3d130bfc	0.0359001
205	0xbcf2c9b9	-0.029637204
206	0xbaf61c35	-0.0018776717
207	0x3abdd9f5	0.0014484512
208	0xbc6ad022	-0.014331849
209	0xbd15cbb0	-0.036571205
210	0xbd04ed88	-0.03245309
211	0x3c38e39f	0.011284738
212	0x3bf8378a	0.00757498
213	0x3bb206f0	0.005432956
214	0x3c6b4d52	0.014361696
215	0x3c7e0e92	0.0155064035
216	0x3c85322b	0.016259274
217	0x3d1a6152	0.037690468
218	0x3c958e64	0.018256374
219	0x3c5968c3	0.013269606
220	0x3be6c277	0.007042225
221	0x3b92afa6	0.0044765053
222	0xbc7f6059	-0.015586936
223	0xbcaa11bd	-0.020760411
224	0x3c8520e9	0.016251044
225	0x3d286451	0.041111294
226	0xbcbe440b	-0.023225805
227	0xbb433fe4	-0.002979272
228	0xbc04461c	-0.008073356
229	0x3c26fbb1	0.010191844
230	0xbd14540a	-0.03621296
231	0x3ca2cb89	0.019872444
232	0xbd3c0876	-0.045906506
233	0xbbd3efad	-0.0064677806
234	0x3c88aa13	0.01668266
235	0x3cf49476	0.029855948
236	0xbd188f4f	-0.037246045
237	0x3c832d89	0.016012924
238	0xbcee127b	-0.029061547
239	0xbc9be6e4	-0.019030996
240	0x3d7ced6c	0.06174986
241	0xbc11bcee	-0.008895142
242	0x3a483e28	0.00076386565
243	0x3cf2b98e	0.029629495
244	0x3d05c25a	0.03265605
245	0x3a98c9fd	0.0011656877
246	0xbc852ecd	-0.016257668
247	0xb9f120c6	-0.0004599152
248	0xbbd1587d	-0.0063887225
249	0x3d031ac2	0.03200794
250	0x3d4b26ae	0.049597435
251	0x3d0b7dee	0.034055643
252	0xbcde3a7c	-0.027127497
253	0x3bdca1fc	0.006733177
254	0xbcd7eced	-0.026358092
255	0xbb95bd0e	-0.004569656

actor_critic.actor.model.1.linear.weight f4 [12, 512]
0	0x3d523add	0.051325668
1	0x3c9e6398	0.0193346
2	0x3c899d0c	0.016798519
3	0xbd23ac17	-0.03995904
4	0xbcd99d38	-0.026564226
5	0xbd29a797	-0.04141959
6	0x3c7b3691	0.015332834
7	0xbd40d6e8	-0.04707995
8	0x3d01609c	0.031586275
9	0x3cb6708c	0.022270463
10	0xbca78692	-0.02044991
11	0xbd479ea1	-0.048735265
12	0x39b84863	0.00035149147
13	0x3bf98508	0.0076147355
14	0xbcec99e6	-0.028881978
15	0xbd4a6ba2	-0.049419053
16	0xbce2dd47	-0.027693404
17	0x3ca63860	0.020290554
18	0x3c941a6d	0.018079007
19	0xbd25264d	-0.04031973
20	0x3d2b386b	0.04180185
21	0xbd8f0eb4	-0.06985226
22	0xbd2ac44f	-0.04169112
23	0xbcbb663e	-0.022875901
24	0x3d6dd80e	0.058067374
25	0xbce8aac5	-0.028401742
26	0xbc0f00e0	-0.008728236
27	0x3c6c304a	0.01441581
28	0x3d2400b8	0.040039748
29	0x3c34a1c0	0.011024892
30	0x3d08bb7a	0.033381917
31	0xbb6baa40	-0.0035959631
32	0xbb4cce61	-0.003125094
33	0xbc6f4eb0	-0.014606163
34	0xbcd51be2	-0.026014272
35	0x3cf0d86b	0.029400071
36	0xbd513c6e	-0.05108302
37	0x3c18dc34	0.009329844
38	0x3b601da2	0.003419735
39	0x3c6de61a	0.0145201925
40	0x3cab0fbc	0.020881526
41	0xbca419f4	-0.020031907
42	0xbc3f4d04	-0.011676077
43	0xbcf7acd3	-0.030233776
44	0x3b58294f	0.0032983606
45	0xbd8582b9	-0.06519074
46	0xbcce662f	-0.02519521
47	0x3ccfec45	0.025381217
48	0xbc8cacff	-0.017172335
49	0xbc1e3286	-0.0096556
50	0xbbae08db	-0.0053111142
51	0x3cb06f5e	0.021537479
52	0x3caf3195	0.021385947
53	0x3d7b3aa3	0.061335217
54	0x3cd0c455	0.025484243
55	0xbca9b2f7	-0.02071522
56	0xbc295f49	-0.010337659
57	0xbd12a04e	-0.03579741
58	0xba5c61b5	-0.00084068935
59	0xbd98e5b8	-0.074656904
60	0xbd6ddf69	-0.05807439
61	0xbd9113e1	-0.0708387
62	0x3ca734be	0.020410892
63	0x3c055760	0.008138508
64	0xbd7ff25b	-0.062486988
65	0xbadc8672	-0.0016824736
66	0x3b380a6b	0.0028082381
67	0x3c44fa0a	0.012022505
68	0x3d419a50	0.047266304
69	0xbcbb8b5f	-0.022893606
70	0x3d27428b	0.040834945
71	0x3c8bf67c	0.017085306
72	0x3c7d5f9e	0.015464691
73	0xbb802a3a	-0.003911284
74	0xba5644b3	-0.0008173689
75	0xbbf1757e	-0.0073687425
76	0xbd1bc962	-0.03803385
77	0xbd24faa9	-0.04027811
78	0xbd6be0bb	-0.057587367
79	0xbd3319bc	-0.043725714
80	0x3d6bac85	0.057537574
81	0x3d39f1fb	0.045396786
82	0xbd32381c	-0.04351054
83	0x3d4fbacc	0.050715253
84	0xbb8b564e	-0.0042522317
85	0xbd6a6a9d	-0.05723058
86	0xbc387bdf	-0.011260002
87	0xbd4d409a	-0.050110437
88	0x3cbbc005	0.02291871
89	0xbd344362	-0.044009574
90	0xbce16595	-0.027514258
91	0xbd5c5bce	-0.05379849
92	0xbd015269	-0.031572733
93	0xbd29f230	-0.041490734
94	0xbb0418ec	-0.0020156456
95	0xbb199cdb	-0.002343944
96	0xbd9610f6	-0.07327454
97	0xbda99a48	-0.0828138
98	0xbaaac267	-0.0013027907
99	0xbbfaed9a	-0.007657719
100	0xbcf99176	-0.030464869
101	0xba917ac9	-0.0011099215
102	0xbd41e824	-0.047340527
103	0xbd84be58	-0.06481618
104	0xbc9bc773	-0.019016003
105	0x3a616da1	0.0008599405
106	0xbd838cf7	-0.06423371
107	0xbc2548dc	-0.010088172
108	0xbc89a856	-0.016803902
109	0xbbec7550	-0.007216133
110	0x3cae9e80	0.021315813
111	0xbcd2ea84	-0.025746591
112	0xbda2234c	-0.079168886
113	0xbc3875e7	-0.011258579
114	0xbd63e334	-0.0556366
115	0xbd2e0aaf	-0.042490657
116	0x3a773692	0.0009430434
117	0x3c40e70b	0.011773835
118	0xbd384141	-0.044984106
119	0x3ced4f29	0.02896841
120	0x3ccb2fa8	0.024802998
121	0xbd00ed13	-0.03147609
122	0xbcd8248e	-0.026384618
123	0xbceedb56	-0.029157322
124	0xbd3c79ed	-0.046014715
125	0x3d0eec65	0.034893412
126	0xbd83f229	-0.06442673
127	0x3cfc091a	0.030766059
128	0xbd36b0df	-0.04460227
129	0xbd4ddf55	-0.050261814
130	0xbd50401d	-0.050842393
131	0xbcc123a6	-0.023576569
132	0x3c993229	0.018700676
133	0x3ce19103	0.027534967
134	0xbceccb13	-0.028905427
135	0x3cef1dd8	0.029189035
136	0xbda57b93	-0.080802105
137	0x3d51336a	0.051074423
138	0xbb50568e	-0.0031789872
139	0xbb251b9c	-0.0025193458
140	0xbd8d15a3	-0.068888925
141	0x3d289d82	0.041165836
142	0xbd846116	-0.0646383
143	0xbbc2f8c2	-0.0059500644
144	0x3c8262d6	0.01591627
145	0x3cab0978	0.020878538
146	0x3d4cd14e	0.050004296
147	0xbd8374c5	-0.064187564
148	0x3b8774b2	0.004133784
149	0xbc693b91	-0.014235393
150	0x3d2caf74	0.042159513
151	0x3d0704aa	0.032963432
152	0xbd9ad749	-0.07560594
153	0x3c9162c3	0.017747289
154	0xbd6b5cae	-0.057461433
155	0xbd81593c	-0.06315848
156	0xba648699	-0.00087175664
157	0xbd1d44bd	-0.038395632
158	0xbcde8f1a	-0.027167846
159	0xbcf069c1	-0.029347302
160	0x3d2bdb18	0.04195699
161	0x3c7f27b0	0.015573427
162	0x3c5e5376	0.013569703
163	0x37462f72	1.1812766e-05
164	0xbcf2a2cd	-0.029618645
165	0x3d22d536	0.039754115
166	0xbc4d951e	-0.012547759
167	0x3b4f6fe3	0.0031652383
168	0xbabab52d	-0.0014244668
169	0xbcb2407a	-0.02175926
170	0xbd59ffbc	-0.053222403
171	0x3b252994	0.0025201784
172	0x3c960b6e	0.018315997
173	0xbd7657b2	-0.060142227
174	0xbd02e72d	-0.031958748
175	0x3ca4d846	0.020122658
176	0xbb1d4039	-0.0023994579
177	0xbd8eee2c	-0.069790214
178	0xbd0660b7	-0.03280708
179	0xbd8066dd	-0.062696196
180	0xbc65e078	-0.014030568
181	0xbd38ba9f	-0.04509985
182	0xb89baf7b	-7.423662e-05
183	0x3b8f5406	0.00437403
184	0xbc3633f6	-0.011120787
185	0xbc75b390	-0.014996424
186	0xbd1d9545	-0.038472433
187	0xbdb86c01	-0.09004975
188	0x3bf6a969	0.0075275195
189	0xbc593d98	-0.013259314
190	0x3d5dd89a	0.054161645
191	0xbcc4e625	-0.024035523
192	0x3b7187d0	0.0036854632
193	0x3c83e25f	0.016099153
194	0x3ca0f86e	0.01964971
195	0xbcbdac09	-0.023153322
196	0xbcbf0115	-0.023315946
197	0xbc9f443a	-0.019441713
198	0xbce2e2c7	-0.027696026
199	0x3b2e1960	0.0026565418
200	0xbd35a98a	-0.04435114
201	0x3b809203	0.003923656
202	0x3b809e4a	0.0039251195
203	0xbd2ac789	-0.041694198
204	0xbd92d42a	-0.07169373
205	0xbd5c5768	-0.053794295
206	0x3cc1e21f	0.023667393
207	0x3c3abe1d	0.011397866
208	0xbcecad0a	-0.028891105
209	0xbcad57fd	-0.02116012
210	0x3d840cbf	0.064477436
211	0xbd864ac4	-0.06557229
212	0x3c2c6b39	0.010523611
213	0x3b786d95	0.0037907113
214	0xbc56d781	-0.013112904
215	0xbd0c95d7	-0.034322586
216	0xbcf1eed9	-0.029532837
217	0xbcc20676	-0.023684721
218	0xbcbcdefd	-0.023055548
219	0xbd2c68c9	-0.04209212
220	0xbca19476	-0.019724112
221	0x3d10bf31	0.035338584
222	0xbb8ac8d6	-0.0042353673
223	0x3c7cd8e6	0.015432572
224	0x3c54a917	0.012979767
225	0xbd6f7a07	-0.058465984
226	0x3cc42f9f	0.023948489
227	0x3c0e37bd	0.008680281
228	0xbce3e03c	-0.027816884
229	0xbc8a8c1b	-0.01691251
230	0x3bfc5428	0.007700462
231	0xbd2a1f75	-0.041533906
232	0x3c648de1	0.013949842
233	0x3ba31afa	0.004977581
234	0x3c44e02e	0.012016339
235	0x3c7acff3	0.015308368
236	0xbd19dd8e	-0.037564807
237	0xbd442ade	-0.047892444
238	0xbcd0c9d9	-0.025486873
239	0xbd15776d	-0.036490846
240	0xbca50f6f	-0.02014896
241	0x3d49a31a	0.04922781
242	0xbcb72f9a	-0.022361565
243	0xbb3a070a	-0.0028385543
244	0xbd8ae8d0	-0.06782687
245	0xbbe49b70	-0.0069765374
246	0x3d43e3da	0.047824718
247	0xbd1d1c44	-0.038357034
248	0x3c90e731	0.017688366
249	0xbd1c19db	-0.038110595
250	0xbd33c300	-0.04388714
251	0x3bd43ea5	0.0064771944
252	0x3bf3ce0c	0.007440334
253	0xbd04ea64	-0.032450095
254	0x3ccaa8d6	0.02473871
255	0xbd911a39	-0.0708508

actor_critic.actor.model.1.linear.bias f4 [12]
0	0xbd5f2ca9	-0.05448595
1	0x3c24aa30	0.0100503415
2	0xbd0e4e21	-0.03474248
3	0x3d3df6fc	0.04637812
4	0x3c68a3fc	0.014199253
5	0xbceb91c3	-0.028756028
6	0xbd10d992	-0.03536374
7	0x3d32d786	0.04366257
8	0xbd20a71e	-0.039221875
9	0x3d354fdc	0.044265613
10	0x3d315991	0.043298308
11	0xbd159546	-0.03651931

actor_critic.critic.model.0.linear.weight f4 [512, 37]
0	0xbeadedf2	-0.339706
1	0xbde72436	-0.112862036
2	0xbeec6483	-0.46170434
3	0xbf025805	-0.5091556
4	0x3d8ea05f	0.06964182
5	0x3e67a797	0.22622524
6	0xbbcea668	-0.0063064583
7	0x3f287be2	0.6581403
8	0xbf181253	-0.5940296
9	0x3f16c38e	0.5889214
10	0xbef50ee2	-0.47862917
11	0xbe3efe94	-0.18651801
12	0x3ef3954b	0.4757484
13	0x3ec99ed1	0.3937898
14	0xbf184a58	-0.5948844
15	0x3f09c48f	0.5381555
16	0xbeef3d5c	-0.467265
17	0xbf02cc96	-0.51093423
18	0x3f3ee17b	0.74562806
19	0xbd75e8dc	-0.060036525
20	0x3cfc5cc5	0.030805955
21	0x3e809898	0.2511642
22	0x3ac8fe3b	0.0015334556
23	0xbbef9d64	-0.0073124636
24	0x3db8b616	0.09019105
25	0xba0be0c3	-0.00053359213
26	0x3cc1e5a7	0.023669077
27	0xbbe1ee53	-0.0068948655
28	0xbc578c45	-0.013156001
29	0x3cd4497f	0.025913952
30	0x3c3c65a2	0.0114988405
31	0x3c1a04f2	0.009400593
32	0xbd2a393c	-0.04155849
33	0xbc928304	-0.017884739
34	0xbb9dee3f	-0.004819661
35	0xbd698e75	-0.057020623
36	0xbd2ff9da	-0.042962886
37	0x3e17de29	0.14830841
38	0xb884f1d4	-6.3392945e-05
39	0x3f396096	0.72413003
40	0x3ece668e	0.40312618
41	0x3c3c2463	0.011483285
42	0xbdeca1ad	-0.11554275
43	0x3e04ea03	0.12979893
44	0xbf18dfe3	-0.59716624
45	0x3de5804b	0.112061106
46	0xbf0ac393	-0.5420467
47	0x3ecfdf35	0.4059998
48	0x3e2937e0	0.16525221
49	0xbf428728	-0.7598748
50	0xbe3fc4a6	-0.18727359
51	0x3f2c1ad0	0.6722841
52	0xbf1a8ac9	-0.6036802
53	0x3e98225e	0.2971372
54	0x3f24c78e	0.64366996
55	0xbf42affb	-0.76049775
56	0xbe67acc1	-0.22624494
57	0x3c92e444	0.017931111
58	0xbea034e1	-0.31290343
59	0x3e388a41	0.1802149
60	0xbe22e79b	-0.15908663
61	0xbe3e569b	-0.18587725
62	0xbdee78d3	-0.11644139
63	0x3e543e92	0.20726994
64	0xbdd9dd44	-0.10637906
65	0x3e15ccd6	0.1462892
66	0x3e449eb6	0.19201168
67	0x3d113f48	0.03546074
68	0x3d91e104	0.071229964
69	0xbdb2b6f8	-0.08726305
70	0x3da4b516	0.08042352
71	0x3db725df	0.0894277
72	0xbdfc6564	-0.12324026
73	0xbe5138c7	-0.20431815
74	0xbba0bd90	-0.00490541
75	0xbda9ec10	-0.082969785
76	0x3f1dceec	0.6164386
77	0x3f07600b	0.52880925
78	0xbd3bbe6d	-0.0458359
79	0xbe0a1503	-0.13484578
80	0x3d3eea41	0.04661012
81	0xbede01cc	-0.43360746
82	0x3e80ac75	0.25131574
83	0xbf37977a	-0.7171551
84	0x3f0eff93	0.55858725
85	0xbde5ff5c	-0.112303466
86	0xbf2d1fa9	-0.67626435
87	0xbe6a5a35	-0.22885974
88	0x3ef8e018	0.4860847
89	0xbf22cc3f	-0.63592905
90	0x3e8914c0	0.26773643
91	0x3f1f88eb	0.62318295
92	0xbf05a4a1	-0.5220433
93	0xbe5b11bf	-0.21393488
94	0x3d92a786	0.07160859
95	0xbe4f063c	-0.20217222
96	0x3d5234bd	0.051319826
97	0xbded0d6a	-0.11574824
98	0xbe835f92	-0.25658852
99	0x3e38c13a	0.1804246
100	0xbdebcd15	-0.11513726
101	0xbd334c02	-0.04377366
102	0xbe2f5776	-0.17123207
103	0x3e2eeb4c	0.17081946
104	0xbe1323ef	-0.14369176
105	0xbe0a31b6	-0.13495526
106	0xbe6cf62e	-0.23140785
107	0x3dcc3ed5	0.09972922
108	0xbd2fee0c	-0.04295163
109	0x3e579c5e	0.21055743
110	0xbe1d7c37	-0.15379415
111	0x3e0c9e33	0.13732223
112	0xbe07abd5	-0.13249142
113	0x3f7184d3	0.943433
114	0x3ea5381c	0.3226937
115	0xbd438ae4	-0.04773988
116	0xba6a6432	-0.0008941322
117	0x3e066044	0.1312266
118	0xbeaf2e6a	-0.342151
119	0x3e870a50	0.26375055
120	0xbf207a6a	-0.6268679
121	0x3eef8d00	0.46787262
122	0x3e201723	0.15633826
123	0xbf3011b8	-0.68777037
124	0xbe446614	-0.19179565
125	0x3f1e8db8	0.61934996
126	0xbf4f5c04	-0.8099978
127	0x3ece862c	0.4033674
128	0x3f3acf41	0.72972494
129	0xbf5661e3	-0.83743113
130	0x3d18aa3f	0.037271734
131	0xbe323b73	-0.1740549
132	0xbeb53c21	-0.35397437
133	0x3e2106ad	0.15725203
134	0xbdd844f3	-0.10560026
135	0xbd87b83c	-0.06626937
136	0x3dd730fb	0.10507389
137	0x3e0dc0af	0.13843034
138	0x3e40eeb1	0.18841054
139	0x3de6f24d	0.11276684
140	0x3cf1c6d2	0.02951375
141	0x3e14929e	0.14509055
142	0xbe3f98cb	-0.1871063
143	0xbcbe1016	-0.02320103
144	0x3c8e0ef3	0.017341113
145	0x3c78c7a3	0.015184316
146	0x3e05d320	0.13068819
147	0xbca7ee4d	-0.020499373
148	0xbdb7413d	-0.0894799
149	0xbe2ce0c8	-0.16882622
150	0x3f2c7ec9	0.6738096
151	0x3ef991f8	0.48744178
152	0x3d80fc38	0.06298107
153	0xbda16d70	-0.07882202
154	0xbc1000d7	-0.008789263
155	0xbeabc051	-0.33545163
156	0x3e260465	0.16212614
157	0xbf182bee	-0.5944203
158	0x3f1f5423	0.6223776
159	0xbce9ae81	-0.028525593
160	0xbf465d49	-0.7748609
161	0xbe0e6098	-0.13904035
162	0x3f02623d	0.5093115
163	0xbf310e64	-0.69162583
164	0x3ecd709e	0.40124983
165	0x3f1b4364	0.60649705
166	0xbf1dd096	-0.616464
167	0x3d1ac372	0.037784047
168	0x3d43a17f	0.047761437
169	0xbe956d78	-0.2918508
170	0x3e8507e0	0.2598257
171	0x3da026b1	0.0781988
172	0x3e2a6dd7	0.16643463
173	0xbe45d90a	-0.19321075
174	0x3e81ec62	0.25375658
175	0xbe72191f	-0.23642395
176	0xbe431846	-0.19052228
177	0xbe5dc671	-0.2165773
178	0xbe222886	-0.15835771
179	0xbdc63125	-0.09677342
180	0xbb9ff453	-0.0048814206
181	0xbe22ca18	-0.15897405
182	0x3e6f3d91	0.2336333
183	0x3c7514ab	0.014958541
184	0xbd9af9c3	-0.075671695
185	0x3da6f708	0.08152586
186	0xbdbe5d98	-0.09295195
187	0x3f58b6be	0.8465384
188	0x3e935ff5	0.28784147
189	0xb9f9b485	-0.00047627478
190	0x3bbfe7b6	0.0058564795
191	0xbd30aabb	-0.04313157
192	0xbef287b4	-0.47369158
193	0x3e1fbd4c	0.15599555
194	0xbf058cc8	-0.5216794
195	0x3edcb3a3	0.43105802
196	0x3844f840	4.6961242e-05
197	0xbf186a1f	-0.5953693
198	0xbdd80816	-0.10548417
199	0x3ef80539	0.48441485
200	0xbf3d174f	-0.7386369
201	0x3e955637	0.2916734
202	0x3f2c850f	0.6739053
203	0xbf3f1aaf	-0.7465009
204	0xbe1d131a	-0.15339318
205	0x3e1b1b45	0.15147121
206	0xbdc10d2b	-0.0942634
207	0xbc134224	-0.008987937
208	0x3dc48425	0.09595517
209	0x3d08843b	0.03332923
210	0xbe0d3efd	-0.1379356
211	0x3de0cdbf	0.10976743
212	0xbe70abda	-0.23503056
213	0x3d898e27	0.067165665
214	0xbd88499f	-0.06654667
215	0xbe0d2df3	-0.1378706
216	0xbe26415c	-0.1623587
217	0xbd58be71	-0.052915994
218	0x3e6dfa13	0.23239927
219	0xbc3f1f6b	-0.0116652055
220	0xbe59b04b	-0.21258657
221	0xbdd2548f	-0.102700345
222	0xbd00203e	-0.03128075
223	0x3e56079c	0.2090134
224	0x3f316b80	0.69304657
225	0x3f0e5029	0.55591065
226	0xbe066b7b	-0.13126938
227	0xbd64bc94	-0.055843905
228	0x3e8673bd	0.26260176
229	0xbeebc805	-0.4605104
230	0x3e2625e4	0.16225392
231	0xbf28f764	-0.6600249
232	0x3ee435b6	0.44572228
233	0xbe0f6a86	-0.14005479
234	0xbf23f576	-0.6404642
235	0xbd816e73	-0.06319895
236	0x3ebf6dee	0.37388557
237	0xbf03d49f	-0.5149631
238	0x3e84ba96	0.25923604
239	0x3ee01fc4	0.43774235
240	0xbf3e2a91	-0.742837
241	0xbdf213e9	-0.11820204
242	0x3ddb9769	0.107222386
243	0xbe85e9a4	-0.26154816
244	0xbe211309	-0.15729918
245	0x3e0fea23	0.1405416
246	0x3e887fe9	0.26660088
247	0xbea2ca52	-0.31794983
248	0xbd7dd850	-0.06197387
249	0x3e9e6457	0.30935928
250	0xbe31cf4a	-0.17364231
251	0xbecfa7b2	-0.4055763
252	0xbeca531f	-0.3951654
253	0x3e9a5f0a	0.30150634
254	0x3eafd7e5	0.34344402
255	0x3e73be01	0.2380295

actor_critic.critic.model.0.linear.bias f4 [512]
0	0xbf121cdd	-0.5707529
1	0x3f3da022	0.7407247
2	0x3f3378ae	0.7010602
3	0x3f3cefc5	0.7380336
4	0x3f39256c	0.72322726
5	0x3f346b34	0.7047608
6	0x3f36b019	0.71362454
7	0x3f35b969	0.7098604
8	0xbf10148c	-0.5628135
9	0x3f341003	0.7033693
10	0x3f395b6b	0.7240512
11	0x3f422541	0.75838095
12	0xbf0ec3af	-0.5576734
13	0x3f3d27f0	0.73889065
14	0x3f2e55f7	0.6809992
15	0x3f3d4e97	0.73948044
16	0x3f36f782	0.71471417
17	0x3f3475fc	0.7049253
18	0xbf1c5a4c	-0.6107528
19	0x3f36ce0c	0.7140815
20	0xbf0f9389	-0.56084496
21	0xbf10fbc1	-0.56634146
22	0xbf236d55	-0.638387
23	0x3f348a64	0.7052367
24	0x3f3e09d4	0.74233747
25	0x3f35428f	0.70804685
26	0x3f36d949	0.714253
27	0x3f340087	0.70313305
28	0xbf137c72	-0.57611763
29	0xbf14cc10	-0.58123875
30	0x3f329a03	0.69766253
31	0x3f32871e	0.6973742
32	0xbf079f9b	-0.52977914
33	0x3f35c43d	0.7100256
34	0x3f356f9f	0.70873445
35	0xbf0d42ac	-0.5517986
36	0xbf15696c	-0.58363986
37	0x3f312fe3	0.69213694
38	0x3f367314	0.71269345
39	0xbf207b5c	-0.6268823
40	0x3f28c1c4	0.6592066
41	0x3f305cf4	0.68891835
42	0xbf0ec4c6	-0.55769
43	0xbf123d34	-0.5712464
44	0x3f324ceb	0.6964862
45	0x3f3b65c9	0.73202187
46	0x3f3286aa	0.6973673
47	0x3f37c620	0.7178669
48	0x3f3b2a3e	0.7311133
49	0xbf1ad582	-0.6048204
50	0xbf1bd5a2	-0.6087285
51	0x3f3c3564	0.7351897
52	0x3f3a0aaa	0.7267252
53	0xbf126f36	-0.57200944
54	0xbf1659b5	-0.5873063
55	0xbf190040	-0.59766006
56	0xbf1790f5	-0.5920556
57	0x3f384245	0.7197612
58	0xbf164080	-0.5869217
59	0xbf19dc55	-0.60101825
60	0xbf135b4a	-0.5756117
61	0xbf1f339d	-0.6218813
62	0x3f3c6ae2	0.7360059
63	0xbf12c038	-0.5732455
64	0x3f33f34f	0.70293134
65	0xbf162035	-0.58642894
66	0xbf0dc634	-0.5538056
67	0xbf1b1520	-0.6057911
68	0x3f384269	0.71976334
69	0xbf18518d	-0.59499437
70	0xbf13a756	-0.5767721
71	0xbf17fbd4	-0.59368634
72	0x3f3a0337	0.72661155
73	0x3f360a18	0.7110915
74	0x3f2fac9e	0.6862277
75	0x3f3d582c	0.73962665
76	0x3f3c3589	0.7351919
77	0x3f35bcbd	0.70991117
78	0xbf198bf4	-0.59979177
79	0xbf17b43a	-0.5925938
80	0x3f3a7cdf	0.7284679
81	0x3f35d23c	0.7102392
82	0xbf16ceb7	-0.5890917
83	0xbf1c28ce	-0.60999763
84	0x3f36c46d	0.7139347
85	0xbf1419a7	-0.5785164
86	0xbf134cda	-0.5753914
87	0x3f33b535	0.70198375
88	0x3f3cb45d	0.7371271
89	0xbf1112ac	-0.56669116
90	0x3f34984e	0.705449
91	0xbf1674df	-0.5877208
92	0x3f32c932	0.6983825
93	0xbf0c0b74	-0.54704976
94	0x3f34782e	0.7049588
95	0x3f2b883b	0.67004746
96	0x3f376bae	0.7164868
97	0xbf0efe0a	-0.5585638
98	0xbf13635c	-0.57573485
99	0xbf23a645	-0.6392558
100	0xbf18e23d	-0.5972021
101	0xbf18b95f	-0.59657854
102	0x3f36afa2	0.71361744
103	0xbf15c2fd	-0.58500654
104	0x3f380b00	0.71891785
105	0x3f409dbc	0.75240684
106	0xbf20f7da	-0.6287819
107	0x3f3ab5bd	0.7293356
108	0x3f1c23a9	0.60991913
109	0x3f346aa0	0.70475197
110	0x3f3865d0	0.72030354
111	0x3f31c0fc	0.69435096
112	0xbf10b1b7	-0.5652117
113	0xbf15318f	-0.58278745
114	0xbf15d43a	-0.5852696
115	0x3f3711be	0.7151145
116	0xbf0f80ae	-0.56055725
117	0xbf16667a	-0.58750117
118	0x3f2e633a	0.6812016
119	0x3f36cc07	0.7140507
120	0x3f3ab114	0.7292645
121	0x3f3b4310	0.73149204
122	0xbf157d65	-0.5839446
123	0x3f317ac7	0.6932797
124	0x3f3bcfd2	0.73363984
125	0xbf170f06	-0.590073
126	0x3f3cd1b8	0.73757505
127	0x3f3eb1b0	0.7448988
128	0x3f33e6c9	0.70274025
129	0x3f30a9e5	0.6900924
130	0xbf13dd18	-0.5775924
131	0x3f356724	0.70860505
132	0x3f332c29	0.6998926
133	0xbf17615e	-0.59132946
134	0x3f3388ee	0.70130813
135	0x3f33be78	0.7021251
136	0x3f34542f	0.70440954
137	0x3f364b32	0.7120849
138	0xbf0f1564	-0.55892015
139	0x3f36a8b7	0.7135119
140	0xbf16924b	-0.58816975
141	0xbf16158d	-0.58626634
142	0xbf0a77bb	-0.54088944
143	0xbf1a99f2	-0.6039115
144	0x3f324a83	0.69644946
145	0x3f36a657	0.71347564
146	0x3f3d6013	0.7397472
147	0xbf1d40b6	-0.61426866
148	0x3f3cf145	0.7380565
149	0xbf19919c	-0.5998781
150	0x3f353fad	0.70800287
151	0xbf121a3b	-0.57071275
152	0x3f2f39f1	0.68447787
153	0x3f3d363d	0.73910886
154	0xbf2196d8	-0.63120794
155	0xbf13c66a	-0.5772463
156	0x3f39bf05	0.725571
157	0xbf161928	-0.58632135
158	0xbf1004b4	-0.56257176
159	0x3f37fcb5	0.71869975
160	0x3f337098	0.7009368
161	0xbf1421ee	-0.5786427
162	0x3f307ced	0.6894062
163	0xbf1b8705	-0.607529
164	0x3f375dbc	0.716274
165	0x3f315678	0.69272566
166	0xbf1de453	-0.6167652
167	0x3f3f8869	0.7481752
168	0x3f34a87a	0.70569575
169	0x3f3c47c9	0.73547035
170	0xbf12da60	-0.57364464
171	0xbf09896d	-0.5372532
172	0xbf13d031	-0.5773955
173	0x3f2ba36c	0.67046237
174	0x3f37481a	0.71594393
175	0x3f30c742	0.69054043
176	0xbf15cfc2	-0.5852014
177	0x3f3552f6	0.70829713
178	0x3f3c2f40	0.735096
179	0xbf14103f	-0.5783729
180	0xbf11337e	-0.56719196
181	0xbf11141f	-0.5667133
182	0x3f3c6f30	0.7360716
183	0xbf16bf4e	-0.5888566
184	0xbf16c8b3	-0.5889999
185	0x3f347a8e	0.70499504
186	0x3f3ee9f7	0.7457575
187	0x3f3c3cef	0.7353048
188	0x3f3498f4	0.7054589
189	0xbf189d5c	-0.5961511
190	0x3f356794	0.7086117
191	0x3f3b40ff	0.7314605
192	0x3f35828a	0.7090231
193	0x3f38ba6a	0.72159445
194	0xbf1e7a3a	-0.6190525
195	0xbf155ab5	-0.5834153
196	0xbf110748	-0.56651735
197	0xbf13db59	-0.5775657
198	0xbf0d082d	-0.550906
199	0x3f349949	0.70546395
200	0x3f39bc39	0.7255283
201	0xbf18795c	-0.5956018
202	0x3f33a5f3	0.70175093
203	0x3f36c438	0.71393156
204	0x3f36ed04	0.7145541
205	0x3f33e1d2	0.7026645
206	0x3f3d67f2	0.7398673
207	0x3f3935ee	0.72347915
208	0x3f2e8ef1	0.6818686
209	0x3f334821	0.70031935
210	0xbf1ae254	-0.605016
211	0x3f37dd89	0.7182241
212	0x3f3b2fe5	0.73119956
213	0x3f2f8d2e	0.685748
214	0xbf1288bf	-0.5723991
215	0xbf157374	-0.5837929
216	0x3f326e21	0.69699293
217	0x3f32ed70	0.6989355
218	0x3f3f40bf	0.7470817
219	0x3f3c5d53	0.735799
220	0x3f3a95c0	0.7288475
221	0xbf195fbb	-0.599117
222	0x3f38a908	0.7213292
223	0x3f3b8912	0.7325603
224	0x3f3b08b0	0.7306013
225	0xbf1ea4cd	-0.61970216
226	0x3f3c4bf1	0.7355338
227	0xbf1007ed	-0.56262094
228	0xbf130fd4	-0.57446027
229	0x3f358a6d	0.70914346
230	0x3f36a80d	0.71350175
231	0x3f3dff9a	0.7421814
232	0xbf19bf4b	-0.60057515
233	0xbf18a653	-0.5962879
234	0xbf186b8a	-0.5953909
235	0xbf19f289	-0.60135704
236	0xbf14db5f	-0.58147234
237	0xbf157202	-0.5837709
238	0x3f3d3e29	0.73922974
239	0x3f327f35	0.6972535
240	0x3f39d609	0.72592217
241	0x3f40448e	0.75104606
242	0x3f395032	0.72387993
243	0xbf132ad0	-0.574872
244	0x3f37dc93	0.71820945
245	0x3f32e582	0.6988145
246	0x3f387270	0.7204962
247	0xbf1a4afc	-0.6027067
248	0x3f392cb9	0.72333866
249	0x3f36ee68	0.7145753
250	0x3f36a3ed	0.7134388
251	0x3f34c8b1	0.7061873
252	0xbf0c6b7d	-0.54851514
253	0x3f341a77	0.7035288
254	0xbf1b60d1	-0.60694605
255	0x3f340631	0.7032195

actor_critic.critic.model.1.linear.weight f4 [1, 512]
0	0xbf259afa	-0.646896
1	0x3f0990b0	0.537364
2	0x3f150753	0.582143
3	0x3f01f248	0.50760317
4	0x3f106f54	0.56419873
5	0x3f1d81cd	0.61526185
6	0x3f0db8e9	0.55360276
7	0x3f153be5	0.58294517
8	0xbf257d72	-0.6464454
9	0x3f13635b	0.5757348
10	0x3f0a6d41	0.5407296
11	0x3f0cf2f7	0.55058235
12	0xbf289dd6	-0.6586584
13	0x3f0e7e78	0.55661726
14	0x3f102e59	0.5632072
15	0x3f0e32b1	0.555461
16	0x3f189b4c	0.59611964
17	0x3f10b2de	0.5652293
18	0xbf0e203a	-0.55517924
19	0x3f166fe1	0.58764464
20	0xbf259bc1	-0.64690787
21	0xbf23aaf4	-0.6393273
22	0xbf183fa8	-0.5947213
23	0x3f106d81	0.5641709
24	0x3f0b4d42	0.5441476
25	0x3f113bb0	0.567317
26	0x3f0fa1a4	0.5610602
27	0x3f159d7c	0.5844343
28	0xbf22bafa	-0.63566554
29	0xbf18df22	-0.59715474
30	0x3f10053e	0.56258
31	0x3f1a42b0	0.6025801
32	0xbf1c32b8	-0.6101489
33	0x3f0dc2a8	0.55375147
34	0x3f0c87bd	0.5489462
35	0xbf17a689	-0.5923849
36	0xbf221612	-0.63314927
37	0x3f0a5d6c	0.540488
38	0x3f1758e8	0.59120035
39	0xbf14363a	-0.57895243
40	0x3f0622e6	0.52397
41	0x3f105736	0.56383073
42	0xbf269ef1	-0.65086275
43	0xbf28cd07	-0.65937847
44	0x3f025506	0.50910985
45	0x3f046319	0.5171371
46	0x3f0a0ac8	0.539227
47	0x3f132d5b	0.5749108
48	0x3f0af84e	0.5428513
49	0xbf1556c5	-0.58335525
50	0xbf1e05e4	-0.6172774
51	0x3f13e792	0.57775223
52	0x3f0ef2d0	0.5583925
53	0xbf217307	-0.6306614
54	0xbf17d200	-0.5930481
55	0xbf18a692	-0.59629166
56	0xbf20dcb4	-0.62836766
57	0x3f0e1db7	0.5551409
58	0xbf1e6753	-0.6187641
59	0xbf130579	-0.57430226
60	0xbf23de61	-0.640112
61	0xbf11f1ec	-0.5700977
62	0x3f109fe7	0.5649399
63	0xbf2148ef	-0.6300191
64	0x3f0979b8	0.53701353
65	0xbf1d84c4	-0.6153071
66	0xbf26773a	-0.65025675
67	0xbf1ff9a8	-0.6249032
68	0x3f0ed6aa	0.557963
69	0xbf180ca4	-0.5939429
70	0xbf1ee60c	-0.62069774
71	0xbf1c752b	-0.61116284
72	0x3f0f75c3	0.56039065
73	0x3f0bce65	0.5461181
74	0x3f055b90	0.5209284
75	0x3f09ec32	0.5387603
76	0x3f17f315	0.5935529
77	0x3f10cf49	0.5656629
78	0xbf1e255f	-0.61775774
79	0xbf2455be	-0.6419333
80	0x3f0d6c77	0.5524363
81	0x3f1709dc	0.5899942
82	0xbf22171d	-0.6331652
83	0xbf0b034a	-0.54301894
84	0x3f0db271	0.55350405
85	0xbf245037	-0.641849
86	0xbf221bf1	-0.63323885
87	0x3f132434	0.57477117
88	0x3f063062	0.52417576
89	0xbf250ba5	-0.64470893
90	0x3f09b282	0.53788006
91	0xbf1e7df4	-0.6191094
92	0x3f146b64	0.57976365
93	0xbf2925a0	-0.66073036
94	0x3f0f37e1	0.5594464
95	0x3efcb3d9	0.49355963
96	0x3f047122	0.51735127
97	0xbf200c48	-0.6251874
98	0xbf24c557	-0.64363617
99	0xbf1944f6	-0.5987085
100	0xbf1f4228	-0.6221032
101	0xbf1f36ec	-0.6219318
102	0x3f1dc0b6	0.6162218
103	0xbf1d657f	-0.61482996
104	0x3f0da97d	0.55336744
105	0x3f094d6d	0.5363377
106	0xbf17082e	-0.58996856
107	0x3f0b275d	0.5435694
108	0x3ee735b6	0.45158166
109	0x3f0cd6c7	0.55015224
110	0x3f1aaa0e	0.6041573
111	0x3f0c958d	0.54915696
112	0xbf28ea91	-0.6598292
113	0xbf1c9236	-0.611606
114	0xbf265c4e	-0.64984596
115	0x3f134ed5	0.57542163
116	0xbf18ab0a	-0.59635985
117	0xbf21e007	-0.63232464
118	0x3f1d1432	0.6135894
119	0x3f0eefa7	0.5583443
120	0x3f0da315	0.5532697
121	0x3f0db7a9	0.5535837
122	0xbf1c3f95	-0.6103452
123	0x3f0b3009	0.5437017
124	0x3f033400	0.5125122
125	0xbf212acc	-0.6295593
126	0x3f0923da	0.5357033
127	0x3f0ddefd	0.5541838
128	0x3f14fcc4	0.5819819
129	0x3f1f4fa6	0.6223091
130	0xbf223547	-0.63362545
131	0x3f1174dd	0.56818944
132	0x3f10a408	0.5650029
133	0xbf21f072	-0.63257515
134	0x3f05f8fd	0.5233305
135	0x3f15b902	0.58485425
136	0x3f143f36	0.5790895
137	0x3f062de9	0.52413803
138	0xbf227b13	-0.63469046
139	0x3f0e176c	0.5550449
140	0xbf1e0483	-0.61725634
141	0xbf222f54	-0.63353467
142	0xbf2a4090	-0.66504765
143	0xbf1c79d3	-0.6112339
144	0x3f129f8e	0.5727471
145	0x3f15a7f3	0.58459395
146	0x3f1c9499	0.6116424
147	0xbf198c37	-0.59979576
148	0x3f023002	0.50854504
149	0xbf1e089b	-0.6173188
150	0x3f0d6eea	0.55247366
151	0xbf20b52b	-0.6277644
152	0x3f08e21d	0.5347002
153	0x3f069bd4	0.52581525
154	0xbf147aad	-0.5799969
155	0xbf2106c6	-0.6290096
156	0x3f0c1511	0.54719645
157	0xbf1ed54a	-0.62044203
158	0xbf2d59e1	-0.6771527
159	0x3f185fc6	0.5952114
160	0x3f13d753	0.57750434
161	0xbf0cff6c	-0.5507724
162	0x3f17c328	0.5928216
163	0xbf197fe0	-0.59960747
164	0x3f07885b	0.52942437
165	0x3f110b31	0.566577
166	0xbf1f2be9	-0.62176377
167	0x3f0e7e2e	0.55661285
168	0x3f0d9a65	0.5531371
169	0x3f0973b4	0.53692174
170	0xbf21aa86	-0.63150823
171	0xbf180f95	-0.59398776
172	0xbf2522f6	-0.6450647
173	0x3f0df269	0.55448014
174	0x3f0c5f21	0.54832655
175	0x3f0f988f	0.5609216
176	0xbf1d4a1e	-0.6144122
177	0x3f0adadc	0.542402
178	0x3f0891d5	0.5334752
179	0xbf1f58f2	-0.62245095
180	0xbf1ffefe	-0.6249846
181	0xbf220163	-0.63283366
182	0x3f19eb21	0.60124403
183	0xbf1f1ba6	-0.62151563
184	0xbf1b7f55	-0.6074117
185	0x3f124679	0.5713878
186	0x3f0605a4	0.52352357
187	0x3f12bb58	0.57317114
188	0x3f0b466a	0.5440432
189	0xbefaf826	-0.49017447
190	0x3f1c3fa2	0.61034596
191	0x3f0db384	0.55352044
192	0x3f0dd7fd	0.55407697
193	0x3f0f6fdf	0.56030077
194	0xbf1ea133	-0.6196472
195	0xbf255d98	-0.6459594
196	0xbf252c63	-0.64520854
197	0xbf270895	-0.6524747
198	0xbf23f96c	-0.6405246
199	0x3f0d89bc	0.5528829
200	0x3f0e8414	0.55670285
201	0xbf1de2f2	-0.61674416
202	0x3f176efc	0.59153724
203	0x3f0bf9c9	0.54678017
204	0x3f07efed	0.5310047
205	0x3f0b3a92	0.54386246
206	0x3f13d44d	0.5774582
207	0x3f0d066a	0.5508791
208	0x3f0e6a8c	0.5563133
209	0x3f104a0b	0.5636298
210	0xbf1e2318	-0.617723
211	0x3f1056d1	0.5638247
212	0x3f0231b4	0.5085709
213	0x3f11e913	0.5699627
214	0xbf21df50	-0.6323137
215	0xbf268199	-0.650415
216	0x3f124c5a	0.57147753
217	0x3f0817a3	0.53161067
218	0x3f0bd43c	0.5462072
219	0x3f118754	0.5684712
220	0x3f0c55a3	0.5481817
221	0xbf1d886b	-0.6153628
222	0x3f11fa40	0.57022476
223	0x3f105b57	0.56389374
224	0x3f10ce54	0.5656483
225	0xbf1bc5b0	-0.6084852
226	0x3f0b557f	0.5442733
227	0xbf1e1375	-0.6174844
228	0xbf16ef9d	-0.5895937
229	0x3f0bbcd5	0.5458501
230	0x3f0dfbbb	0.55462235
231	0x3f05951a	0.52180636
232	0xbf119bf8	-0.56878614
233	0xbf24485e	-0.64172924
234	0xbf1c524f	-0.6106309
235	0xbf22e828	-0.6363549
236	0xbf1c49ac	-0.61049914
237	0xbf1f24ad	-0.6216534
238	0x3f082158	0.5317588
239	0x3f179760	0.59215355
240	0x3f0d74c8	0.5525632
241	0x3f02edfc	0.51144385
242	0x3f1374cb	0.57600087
243	0xbf1a2632	-0.6021453
244	0x3f0ae943	0.5426218
245	0x3f11e508	0.569901
246	0x3f0bfc7b	0.5468213
247	0xbf16de73	-0.5893318
248	0x3f17ad3b	0.59248704
249	0x3f0b1944	0.5433543
250	0x3f0aa4ae	0.5415753
251	0x3f0fe323	0.5620596
252	0xbf292dfe	-0.66085804
253	0x3f0696be	0.52573764
254	0xbf1e6bd7	-0.618833
255	0x3f1d34c2	0.6140863
